models/policy_asm_without_ff.pt (torch, 67720 bytes, 8 tensors)

weight f4 [128, 27]
00000000: c675 2a3d 2163 efbd 38bc 0fbf 520d 8f3e
00000010: 94f2 71bf d9a7 f33e 5d48 82bc 9c98 be3e
00000020: 9be5 fb3c ba74 8ebd 8f23 593f 9ab3 383d
00000030: 51d8 8ebd 044b a73e 9dfa 05b8 a97b 713f
00000040: 830d 913e 6a62 52be 65bb 673f 0132 bd3e
00000050: f8a2 1c3e bc76 f3be aa12 f6bd 2edb 593c
00000060: 7445 a9be fbc6 0dbe 4158 2a3e 83c4 7c3f
00000070: fed9 393f d99d 8d3e 2446 ae3e dd1d 0ec0
00000080: 079a 02be c393 e33b 4887 243e f8f1 973d
00000090: 5182 163e 0f60 88be 5424 4f3c 3651 eebe
000000a0: dc0c 563f feb2 71be 9846 503f 9bc3 ef3e
000000b0: 6028 a23a bfa6 7a3f 09df be3e 272b 8f3d
000000c0: aee6 0eba 58c3 9ebe 072d 2ebe c044 95be
000000d0: f4fd f5bd 0451 0a3d ccd3 d73c c3e8 04bf
000000e0: f548 92bf 88a5 e3be cbf1 0740 188b 34bd
000000f0: 7260 72bc 3dc7 2f3f e823 61be 680a a1bd
00000100: 695c a53e c111 99bd 5350 3d3e ed66 3a3e
00000110: 7203 fe3d 3a83 27bf 712c 8ebf d47f b1be
00000120: df51 0cbf 06b9 40bf c7d4 adbe 1e59 103d
00000130: b2ae 333e d3a3 9b3d 0fd8 fbbd bd96 193d
00000140: e485 7c3e ae2b b3be 92f5 cebe 3992 cdbe
00000150: 5646 d5bd c0e6 2a3f e60b 04bf 19c4 75bb
00000160: 4442 bc3e e40e 8fbd 545f a9be c99b 503f
00000170: 5a7b 89bd bc47 d1bb ebb7 7e3e b18f dc3d
00000180: fe4d 49be 4b07 58be dead 19bf 9091 f03d
00000190: 156d 4bbf 1b80 95be b1df 703e 923f fb3d
000001a0: d17d 1c3d 5024 b9bd cef3 13bc f08d d63d
000001b0: ccc3 c93c 1a2d eb3e 34b1 a9bd 67be b2bf
000001c0: f2e8 663f 3d48 86bf b6fd 79bb 1c49 ef3e
000001d0: 4872 5f3e fcc4 4cbf 22a6 34be 0f68 1fbd
000001e0: e25c 59be 9e93 573e abe2 33be d74b 593e
000001f0: af02 6dbe dc17 313d 08cc aebd ea67 4ebe
00000200: f4b0 60be 2dc1 7c3d 5782 9fbd c334 3cbe
00000210: be67 2b3e 3a38 963d d508 9a3d fa33 a03e
00000220: 9aad 4c3e 83f2 f83e 5c38 9cbf 3c39 ce3e
00000230: 8106 a3bd 2309 9f3b 33a9 473e a28c 8bbe
00000240: 8929 1b3f ffd6 00bf f35b 9e3e 64ae 373f
00000250: 29b4 59be 5a52 503f 9d3b 59bf 7ced 88be
00000260: f3c0 e73d 038f 263f 3357 3fbf d2ff e7be
00000270: 99b6 453c 9d67 04be a617 0a3d 93e4 c3bd
00000280: 722a a2bd d6e2 69be aa31 2fbf 73d4 27bd
00000290: 0f7d 7bbf 578d 83bf 3ced 743f 4ca0 8fbf
000002a0: e21a ebbb 6efb aebd 2b58 003e 0997 1bbf
000002b0: 55f2 2f3f f3a0 e0bc a1df 573e af3c 6fbe
000002c0: f304 763e 1522 a83d b6f0 bb3e a15c c2be
000002d0: 1a0d e3be 4c53 f7be 13db 93bd f38f 7c3e
000002e0: c8b4 f93d 086b 213e 73cb 343d a580 67be
000002f0: ec8e 3bbd 0310 f3bc 2950 8f3d a463 063f
00000300: 89e9 7b3e 1438 6b3f af03 ddbe 90df 773b
00000310: 469a 04bf b3b4 033e 0761 0e3f 19f0 a73e
00000320: e1e6 d7bc db8a 613f 40e4 df3e a37b 82be
00000330: b47a 623f 29c1 d7be 962c b73d c661 873e
00000340: 3bdc 0cbf 1d1b 703e 7d05 9abe 619a 163d
00000350: e753 843d c7c0 3a3e acf6 853e cbe9 0b3d
00000360: d46b a13e 7f7f 133e 7045 283e 0815 d3be
00000370: a5bb 31bf 9a9e b6bf 42b2 8aba 7650 3c3d
00000380: 1c63 01bf 2ae0 46bd c166 9cbe 9e61 a5bd
00000390: 55b1 75bc 842c a8be 9296 b4bc 0387 df3e
000003a0: 6495 1c3e 7a54 d3bd 27c2 54be 991e f03d
000003b0: 3553 83bd 4b00 053e d598 bdbd 67a3 283d
000003c0: 11ea 95be 05a1 23be 8af0 c2bd 8b75 4bbe
000003d0: ea1f 003e e432 d53e 4964 17be 2d3e d63f
000003e0: a930 0f3e f4b3 bc3c ab20 94bf 0518 8e3d
000003f0: 0011 e53d 955e 703f f800 b3be 8db3 40bd
0.041616224 -0.11688829 -0.56146574 0.2793985 -0.9451077 0.47588995 -0.015903646 0.37225807
0.030749133 -0.069558576 0.84819883 0.045093156 -0.06974853 0.3267442 -3.1943073e-05 0.94329315
0.2833062 -0.20545354 0.90520316 0.36952212 0.15296543 -0.47551525 -0.12015279 0.013296885
-0.330608 -0.13845436 0.16635229 0.98737353 0.72598255 0.2765949 0.34037888 -2.2205727
-0.1275407 0.006945105 0.1606723 0.07419199 0.1469815 -0.26635787 0.012642939 -0.46546334
0.8361337 -0.23603436 0.8135772 0.46828923 0.0012371652 0.97910684 0.37279537 0.069906525
-0.0005451244 -0.3100841 -0.17009364 -0.29154015 -0.12011328 0.03376867 0.02634611 -0.51917666
-1.1428515 -0.44462228 2.1241329 -0.044077963 -0.014793502 0.6866339 -0.21986353 -0.07863313
0.32297066 -0.074740894 0.18487673 0.18203326 0.12403001 -0.6543461 -1.1107312 -0.34667838
-0.54812425 -0.75282323 -0.339514 0.03524124 0.1754711 0.07599606 -0.12297069 0.03749727
0.2466045 -0.34994262 -0.4042173 -0.40150622 -0.10413806 0.66758347 -0.51580656 -0.0037500917
0.36769307 -0.06985262 -0.33080542 0.8148771 -0.067129806 -0.006386725 0.24874847 0.107695945
-0.19658658 -0.21096532 -0.60030925 0.11746514 -0.7946332 -0.291993 0.23522831 0.122679844
0.038205925 -0.09040129 -0.009030296 0.10476291 0.024629496 0.45932847 -0.08285752 -1.3964356
0.90199196 -1.0490795 -0.0038145608 0.46735466 0.21820939 -0.79988074 -0.176415 -0.038917597
-0.21226838 0.21052405 -0.17566936 0.21220337 -0.23145555 0.043235645 -0.085350096 -0.20156828
-0.21942502 0.061707664 -0.07788532 -0.18379502 0.16738793 0.07334943 0.07521216 0.31289655
0.19988099 0.48622522 -1.22047 0.4027804 -0.07960225 0.004853384 0.19498138 -0.27255732
0.6061025 -0.5032806 0.30929527 0.71750474 -0.21260132 0.8137566 -0.8485659 -0.26743686
0.11316099 0.6506197 -0.7474243 -0.45312363 0.01206746 -0.1293015 0.03371396 -0.095650814
-0.07918252 -0.22840437 -0.68435156 -0.04097409 -0.982377 -1.0277508 0.9567449 -1.1220794
-0.0071748355 -0.0854405 0.12533633 -0.60777336 0.68729144 -0.027420497 0.21081401 -0.23362993
0.24025325 0.08209626 0.36707085 -0.37961295 -0.44345933 -0.48305738 -0.072195195 0.24664287
0.121926844 0.15763485 0.044139337 -0.22607668 -0.045790598 -0.02967072 0.06997711 0.5249579
0.24600805 0.91882443 -0.43166873 0.0037822463 -0.517979 0.128619 0.556168 0.32800367
-0.026355209 0.881025 0.43728828 -0.25484952 0.8846848 -0.42139557 0.08944051 0.26441783
-0.55023545 0.23447843 -0.30082312 0.03676832 0.064613156 0.18237601 0.26164758 0.03415851
0.3152758 0.14404105 0.16432738 -0.41226983 -0.6942695 -1.4267151 -0.001058169 0.04597517
-0.50541854 -0.048553623 -0.30547145 -0.080752596 -0.0149958925 -0.32846463 -0.022044454 0.43657693
0.15291363 -0.10318847 -0.20777188 0.11724586 -0.06412355 0.12988393 -0.09257666 0.041171458
-0.2928014 -0.15979393 -0.095185354 -0.19869058 0.12512174 0.4164039 -0.1478435 1.6737725
0.13983406 0.023035027 -1.157247 0.06938175 0.11184883 0.9389432 -0.34961677 -0.047046233

bias f4 [128]
00000000: fc5f 02be a4ca 52be 173a 803d e901 fbbd
00000010: 088c eabb 4b7a 073e 0cf0 9dbe 9ff0 233e
00000020: bfaf 69bd c244 b6be be8c 5abd c00b fc3c
00000030: 6197 75be 7615 2dbe 15f6 a2be edaf 9dbd
00000040: 3e71 38bd 37a2 98bc 4667 28bd a856 d4bc
00000050: 1a12 43be c1a8 39be 0ef8 b03d 7b7e 3dbe
00000060: 25c1 a5be 8a50 3c3e ff8d ae3b cdec b8bd
00000070: 8fde 41be 6145 153e d9a2 d63d cca0 84bc
00000080: 725f 74bd 9153 803d 5b2a dfbe f2a3 753e
00000090: 5509 a3be 9b3c 99be 0d33 0bbe 2b71 49bd
000000a0: 4f88 3f3e 02cf f83d f1d0 a3bd e6de a03d
000000b0: ef24 ecbe 3929 1e3d 183a b6be d4ee 263e
000000c0: c750 5bbd aa29 a9be 8318 e4be 2ce8 923e
000000d0: 7406 4e3d fb39 8bbe 3473 03be 75fd 50be
000000e0: 7e99 e33d 810a f7bd f6c6 a6bd e29e e33c
000000f0: 10b3 eb3e d0fa 90bc c1b8 60be a5b4 4e39
00000100: 50ca b43d e057 963e 8f04 6abd 25d0 203d
00000110: 0553 a5be 6bac 32be 6c2c 9cbd d36d 94be
00000120: 9e09 ecbd adbb 92be 3e62 44be 449d 863e
00000130: d7e9 3abd 149a 09be bb90 f5bc 6549 283d
00000140: 6bb2 ebbd 617a 8fbe 32b0 d3bd 5a13 5cbe
00000150: e362 043e c6ba 62bd 3874 963e 7422 a8bc
00000160: 0e0a 5f3e f8d9 d8bc 2bbb 7a3d 4456 563d
00000170: cad2 04be 878e 093e aa66 e6be db65 673e
00000180: 59ed 13be 383b b3be 943c f63d 1bf0 983d
00000190: a935 82be b045 843e 1f28 91be 73db 72be
000001a0: 7f24 a93c 551f 63be 16d1 6cbb 9792 55be
000001b0: e874 00be 8687 a63c ade8 14bd 8855 2d3e
000001c0: d2d4 d6be 33ee a53e 0cba 18be 9db4 b3be
000001d0: e96b 66be dfe2 24bc abf5 63be ba50 6dbe
000001e0: 9e66 90bc 22d5 4d3e 809e a3be bd21 03be
000001f0: 6d24 b9be cb4b a83d 161d 8c3e a47f 903d
-0.12731928 -0.20585114 0.0626108 -0.12256224 -0.0071578063 0.13230245 -0.30847204 0.16009758
-0.05705237 -0.35599333 -0.05335688 0.030767322 -0.23983528 -0.16902718 -0.3182837 -0.07699571
-0.04502987 -0.018632038 -0.041114114 -0.025920227 -0.19049874 -0.18130781 0.08641063 -0.1850528
-0.3237392 0.18390098 0.005326986 -0.09029541 -0.18932556 0.14577247 0.104802795 -0.016189955
-0.059661336 0.06265939 -0.43587002 0.23988321 -0.31843057 -0.2992905 -0.13593693 -0.04918019
0.18704341 0.121488586 -0.07998837 0.078550145 -0.46121928 0.03861353 -0.35591197 0.16302043
-0.053543832 -0.330396 -0.4454995 0.28692758 0.050299123 -0.27192673 -0.12836915 -0.20409186
0.11113261 -0.1206255 -0.081434175 0.027785722 0.4603505 -0.017697722 -0.21945478 0.00019712986
0.088276505 0.29363918 -0.057133254 0.039261002 -0.322899 -0.17448585 -0.0762566 -0.2899004
-0.11525272 -0.2865881 -0.19178101 0.2629186 -0.045633163 -0.13437682 -0.02997624 0.04108562
-0.1150864 -0.28023055 -0.10336341 -0.21491757 0.12928347 -0.055353902 0.29385543 -0.020524241
0.2178118 -0.026471123 0.061213654 0.052328363 -0.12971035 0.13433276 -0.450002 0.22597449
-0.1444601 -0.35006118 0.12023273 0.074676715 -0.25431564 0.25834417 -0.28350922 -0.23716526
0.020647286 -0.22179921 -0.0036135367 -0.20856701 -0.12544596 0.020328294 -0.03635471 0.16927159
-0.41959244 0.32408294 -0.14914721 -0.35098734 -0.22502102 -0.010063856 -0.22261684 -0.23175326
-0.017627057 0.20100835 -0.31956863 -0.12805839 -0.36160603 0.08217581 0.2736594 0.070555955

weight f4 [64, 128]
00000000: 08e3 56be 3d88 073e 2bbb cebd a1bd 2a3d
00000010: 4f01 463d 3993 163e 7f72 eabc fa68 6e3e
00000020: 5629 c83e 6985 ee3b 8b04 2bbe 133f ab3d
00000030: 21d0 8fbd 0f0a 37bd 2f4a 8bbe 9403 163d
00000040: bdaf 9f3e edd7 963d 43a4 963c bec7 0abe
00000050: 5917 8e3e 691a 08be 413d 1a3e df5a ccbe
00000060: fb96 27be f05c 3e3b fab6 2abd f3c5 9f3c
00000070: f5a5 063e 3ed2 38be cbcc 003e 704b a93d
00000080: 8ecc f93d 2e02 f63d 83b2 aebd f2f9 90be
00000090: 9ef8 9b3e d170 283e a3be 95bd 2f3b 283c
000000a0: fd46 7b3d 997e 46be 1049 bfbd 8062 70bc
000000b0: b132 eebd 22e8 6fbd b8c0 18be bcd1 e0bd
000000c0: 416e 283c 97c8 4abe 2b49 7bbc 9536 9c3e
000000d0: 2574 03bd 12c3 83bd aaf6 53bd 4239 adbd
000000e0: c0a5 093a 8fca 423c b824 e5bd b952 0dbe
000000f0: b525 cc3e 3d07 f7bd f36e 7a3d f3d5 ce3d
00000100: 9b06 2ebe 4661 8abd 0835 803e 05d2 f23d
00000110: 81a9 68be dc18 313d 5dc4 82bd e1a4 37bd
00000120: fc25 75bd 0508 18bd 7ede adbd bae9 403e
00000130: bfb7 82bd 679b 8b3d 4b39 49bd 9c78 11be
00000140: d47f eb3c c7e6 8d3c 2d3d 38be 0ad8 8dbd
00000150: 668d 273e aabb a93d 9030 993e c581 b5bd
00000160: e69d 0f3d d174 05be 71da 7fbe bb28 113e
00000170: 794c a03d 4296 743d 677e 8e3e da96 bd3d
00000180: dcde 65be 6dbf b33c 8399 aebd 7661 febc
00000190: 251a f73c a268 e1bd 4154 b3bd 491d a6be
000001a0: 5f16 07be b4ee 1dbe c6ca 493e 1ff5 fc3c
000001b0: e164 f83d e18a f4bc c8db 153e 4217 73be
000001c0: 856d 4ebe 6dfe 043e f21e 6ebd 32dd 83bd
000001d0: fe52 a7be 2c5e 75bd c61f a7bd b16e 4b3d
000001e0: 134f 4e3e a2b3 f93c db35 e33d e91f d23d
000001f0: 0f65 0abe e4dc 0c3e 6d77 1e3e de5a 90be
00000200: 5bd1 843d af3b cabd 1d81 10be 6f8e 503c
00000210: 0bdc 8cbe bc63 d4bd 91b2 2dbe ce16 dcbc
00000220: f9a7 cbbb 1d8d 77be f544 63be 72e3 28bd
00000230: 980e 82bd 3d96 53bd 8495 8bbd 5c16 7e3d
00000240: 62d8 093e ddb3 2dbd e38f 0ebd f825 fabc
00000250: 4bad 6abd a09c 22be cbb6 b2bc 861c 80be
00000260: 50c5 d6bd 2149 ca3d 1a25 6e3e 5dc5 ac3e
00000270: 79ba 243e 6c3d a53d c2a0 5d3c bb52 27be
00000280: 09df 583e fe1e 743e 420e 843d 57ed c8bc
00000290: 096b 3c3e 00ca ec3d a92c 613d 6261 94bd
000002a0: e0a9 77be 432b 35be 980c 94bd b01f 1fbc
000002b0: f539 65bc e9b8 28be d977 73be a0cf c3bd
000002c0: b8b1 57bc 3da2 9cbc 64bb ff3c 75bf f33c
000002d0: 6655 c4bc b4a4 3ebd 9078 08be 784d 92bd
000002e0: 22e4 a9bd f1f2 a1bd cbbd 85be 206c 2bbc
000002f0: 4872 033d 8e5d fabd 594b 1dbe 65ca f83c
00000300: f649 983d 24cd 1cbb 6c66 fb3d 340f 01be
00000310: 865c e43c 7d1c f13b fc32 0a3e 3efa 23bd
00000320: 9470 443e a16f 4abe a341 3fbe fdbe 15be
00000330: 8b05 40be dc42 a63c 3a2c 543e 50e5 98be
00000340: 12f6 01be 91d5 ddbd b82d 02be 5771 523d
00000350: a681 39be f070 223d 53cb 6dbc aaf7 a9bd
00000360: 7ffc 2ebe 1daf 19be 56a9 463d 13ec 3cbe
00000370: b69b 7abd a91c d6bc 27be 48bd da63 873c
00000380: b4bf 53bc 679c e6bd 4f62 ca3d 3606 1bbe
00000390: be80 60be ba70 28bd f8d9 c6bd ae6e 943c
000003a0: cc9d 88be 2eff 1dbd 960a dc3d b16a 31bd
000003b0: 1803 43be f597 833d a7bb e83d 596a bdbd
000003c0: 41dc 1bbe 4648 673d a4ec 053e e920 0e3d
000003d0: 395d 91be e6c2 343d e459 26be fed9 b6bd
000003e0: 4b07 8ebd 4df9 e53d ebf4 0abe 25e7 43be
000003f0: 8dab 25be cf07 ea3d 1f72 10be 42d7 e03a
-0.20985043 0.13235565 -0.10094293 0.04168475 0.04834109 0.14704598 -0.02861905 0.23282233
0.39094037 0.0072790873 -0.16700952 0.0836164 -0.07022119 -0.044687327 -0.27205035 0.036624506
0.31188765 0.07365403 0.018388873 -0.13552758 0.27752188 -0.13291325 0.15062429 -0.3991308
-0.16366188 0.0029047094 -0.041678406 0.01950357 0.13149245 -0.18048951 0.12578122 0.08266342
0.12197219 0.120121345 -0.08530142 -0.28315693 0.30463117 0.16449286 -0.07311752 0.010268017
0.061346997 -0.1938423 -0.093401074 -0.014671922 -0.11630762 -0.05857099 -0.14917266 -0.10977504
0.010280193 -0.19803081 -0.015337269 0.30510393 -0.032093186 -0.06433691 -0.05174891 -0.08458187
0.0005250834 0.011889114 -0.11188644 -0.13801087 0.39872518 -0.120619275 0.061140966 0.10099401
-0.16994707 -0.06756835 0.2504046 0.11856464 -0.2272091 0.0432366 -0.063851096 -0.044834975
-0.059850678 -0.037117023 -0.08489703 0.1883916 -0.06382703 0.0681675 -0.049126904 -0.14206165
0.028747477 0.017321957 -0.17992087 -0.06925972 0.16362533 0.08287747 0.29919863 -0.08862642
0.035062693 -0.13032843 -0.24985673 0.14175694 0.07827086 0.05971361 0.27830812 0.09257288
-0.22448295 0.021941865 -0.08525374 -0.031052332 0.030163834 -0.11006285 -0.087563045 -0.32444218
-0.13192128 -0.1542309 0.19706258 0.030878602 0.12128616 -0.029851379 0.14634621 -0.23739341
-0.20158966 0.1298768 -0.05813498 -0.06438674 -0.32680506 -0.059904262 -0.08160357 0.04966611
0.20147352 0.030481163 0.110942565 0.10259993 -0.13515113 0.13756138 0.15475245 -0.28194326
0.06485244 -0.09874665 -0.14111753 0.012729271 -0.2751163 -0.10370585 -0.16962649 -0.026866343
-0.0062150923 -0.24174924 -0.22194274 -0.041232534 -0.0635044 -0.05165695 -0.06815627 0.062033042
0.1346145 -0.04240786 -0.03480519 -0.030535683 -0.05729417 -0.1588006 -0.021815678 -0.25021762
-0.10486853 0.098772295 0.2325634 0.33744326 0.16086759 0.08068356 0.013527097 -0.16340153
0.21178831 0.23839948 0.06448032 -0.024527235 0.18400206 0.11561966 0.054974232 -0.07245137
-0.24185896 -0.17692284 -0.072289646 -0.009712145 -0.013990869 -0.16476788 -0.23776187 -0.09561086
-0.01316493 -0.01912033 0.031217285 0.02975438 -0.023966502 -0.046543792 -0.13327241 -0.07143682
-0.08295466 -0.079076655 -0.26121363 -0.010462791 0.03209141 -0.122248754 -0.15360774 0.030369947
0.07435982 -0.0023925984 0.12275395 -0.12603456 0.02787615 0.0073581324 0.13496011 -0.04003357
0.1918357 -0.19769146 -0.18677382 -0.14623637 -0.18752114 0.020295553 0.20719996 -0.29862452
-0.12691525 -0.1083175 -0.12712753 0.05137762 -0.18115863 0.039658487 -0.014513808 -0.08299191
-0.17088507 -0.15008207 0.048501335 -0.1844943 -0.061183654 -0.026136713 -0.04900947 0.016527105
-0.012924124 -0.112603 0.09882032 -0.15139088 -0.21924111 -0.04112313 -0.09709543 0.018119182
-0.2668289 -0.038573436 0.107442066 -0.04331464 -0.19044149 0.06425468 0.11363917 -0.092488
-0.15220739 0.05646541 0.13078552 0.034699354 -0.28391436 0.044131182 -0.16245228 -0.089282975
-0.06934985 0.11229191 -0.13569991 -0.19131143 -0.16178723 0.114272706 -0.14106034 0.0017153996

bias f4 [64]
00000000: f7b2 e6bd 348f 74bc 36f1 e13d 5595 7a3c
00000010: 4a13 843d ba90 e7bd c8bf a6bd 9061 9cbe
00000020: 6608 073e 2ca8 41bd f6c3 64bd 7fcf 48bd
00000030: 9781 27bd 7c78 0abe edee 4abe 8a10 d03a
00000040: 0490 84bd 95f6 493c cfac 573d 48cb c43a
00000050: a25c c8bd eeff 84be 7e41 74bd 1dd3 0ebe
00000060: 1e3a f83b de9a a6bc 46dd 723d 8cfd 853a
00000070: b743 24bc ba96 1abe 6a90 683c f503 e2bd
00000080: 7633 afbd 2040 32be 77db 49bd 3bd7 eebd
00000090: 4d62 cbbd 686b e5bc ccac 033e 785d 14be
000000a0: aa3f 953d 1a2b d1bc 7272 d53d 874f e7bd
000000b0: 9e25 d93c d694 fabd e74a 83bd 7af2 bf3c
000000c0: 6db2 94bd 3266 44be 28d2 6ebd 28af b8bc
000000d0: 45f1 3abe 4ff1 88be 41dc a0bd 5d42 34be
000000e0: 9607 82bd 2c20 2c3e 3de5 89bd 51bf 80b9
000000f0: 9fc1 ab3d 629f 6ebd d292 c73c e340 b3bd
-0.112646036 -0.01492672 0.110323355 0.015294393 0.064489916 -0.11306901 -0.08142048 -0.30543184
0.13186797 -0.04727952 -0.055850945 -0.04902601 -0.04089507 -0.13522524 -0.19817705 0.001587407
-0.06472781 0.012326856 0.052655037 0.0015014196 -0.09783293 -0.2597651 -0.05963277 -0.13947721
0.0075752875 -0.020337518 0.059293054 0.0010222658 -0.01002591 -0.1509656 0.014194587 -0.11035911
-0.08554737 -0.17407274 -0.049281564 -0.11662146 -0.09930859 -0.028005317 0.12858886 -0.1448878
0.072875336 -0.025533248 0.10422219 -0.112944655 0.026507195 -0.122354195 -0.06410771 0.023431052
-0.072605945 -0.1917961 -0.05830589 -0.022544459 -0.182561 -0.26746604 -0.0785451 -0.1760344
-0.06349103 0.16809148 -0.06733177 -0.00024556604 0.0838654 -0.058257468 0.024362002 -0.087526105

weight f4 [32, 64]
00000000: 733d 43be 1720 fdbd 2768 9fba bd5f 4bbd
00000010: 1a24 edbd edce c73d 3a5a c2bc a34d 0dbe
00000020: badc 65bd ac2d b5bd a473 bd3d 8d73 56be
00000030: 347e c3bc 7d33 b4bd 5722 28be c034 f83d
00000040: 789f 373d 99c6 90bd 3891 bebd eee1 453e
00000050: 4419 1a3e 8a8e 37be 8881 95bc 9a80 a3bd
00000060: f9e2 b8bd a10c ebbb 7eb6 cfbd 57fd 843c
00000070: 77a4 fcbd 3e8d cf3c 4988 fdbb c32d 4abd
00000080: 6a6c 59bd 03fd a83d e586 f3bb a607 343e
00000090: 85d1 23bd 23ec 15be 5051 4e3d 944e de3d
000000a0: e32b eabb 7cf5 1e3e e4d7 3d3e f157 f7bd
000000b0: b1c6 31be 7d5a cd3c 7169 bb3d 04d8 d2bc
000000c0: 61d9 823d 7982 85be d2e0 183d 1707 bd3c
000000d0: 0b72 c23d bc1e c03c 5d69 893d b2a4 173e
000000e0: 163c 353e 3a99 2d3c e16c c03b 653b f53c
000000f0: 0f51 f8bd 46f0 853d 8e42 c2bc e764 993d
00000100: bb37 dabd 4ac5 3c3d 454c 15be 9995 9ebe
00000110: 5f79 de3b dcda 5fbe f45c 5ebd b4de 8dbe
00000120: eb25 bb3d 73d1 8ebe e68f 243e a9a5 27be
00000130: 91a0 693e 39c6 013d 0c2b 00be 8c74 04be
00000140: ceb2 5abb 2a70 af3d f624 b1bd 547f 2bbc
00000150: 535a 743d dca8 74be a011 823d 53f4 ba3d
00000160: ff51 6dbe 30d0 64be 2a42 9c3d 15c9 4cbd
00000170: 5e5b 9abd fa89 133e cea3 303b e08b 7e3d
00000180: 2d3b a03d 2140 df3d 99f6 10be b45b e13d
00000190: 5078 783d 0757 82bd 1392 f1bd 0be1 c7bd
000001a0: dc1b 233d 5832 2d3d b9ae 1b3e cd29 1e3d
000001b0: 7b4b 193e 0cd5 1dbd ce93 13be c082 c9bd
000001c0: ba55 b53c a9ff 03be 1d7e 3b3e b783 553c
000001d0: 9837 62be 552c f3bc 293b be3c e75f 00bd
000001e0: b547 a2bd 0179 23be ed14 0dbd 736a 803d
000001f0: cc63 e33c 6686 793c ac03 72bd a154 093e
00000200: 9563 46bc 6f68 843e 9342 9bba 6375 ab3c
00000210: 9e4b 51be 6d35 31be 1dda be3d 5917 b33d
00000220: 9395 e1bd ef82 1c3e f446 f93e be31 23be
00000230: 721b 4fbc 9187 dc3d 44fe 353e 4857 4f3e
00000240: e3df 673e 4949 debb 13af 923c f060 4f3d
00000250: 981e 303d ae09 93bc f773 86bd 0d2f 49be
00000260: 9121 0bbe fcd5 08be acd6 1f3e 4ec8 b63e
00000270: af7c 8abd edd1 fcbe ef4f 89be 26f5 143e
00000280: 8ad3 02be e22d b83d a12e 15be 6ff9 953e
00000290: b48d c93e dff1 cebd 096a d63d 085a 063e
000002a0: 76a9 963d f51a 073d 9ed9 0b3e d3b7 8b3e
000002b0: c179 393d 87ba 9cbd bb96 2c3e b46e 9ebc
000002c0: 1d2a 813c ce0f eb3b b082 1e3e 0c20 e63e
000002d0: ba02 59bd 55e1 1bbe 9e58 2dbd 4a46 993e
000002e0: 2d58 93bd 6cdb 983e 396b bc3d 7dee b3bc
000002f0: ee3a 683e 1ad9 e4bd ae36 613d 416e 553d
00000300: 6327 a7bd b358 1c3d 2fd9 27be bf12 c23d
00000310: 3e8c e93c 56c5 523d ea1c 8ebe ed27 f03d
00000320: 9f51 bf3c b5bf 63bd 5465 8fbe ed93 b4bd
00000330: deb3 f53c 955c ce3d 0ff7 31bd bd70 d8bc
00000340: a8d1 ee3c 1c51 61bc 7ef6 e03d da23 743a
00000350: 4162 6a3e 4cb2 2ebe 373d 92be c3c7 94bd
00000360: 2f1a 86bd eb27 4ebe 69e4 783e b495 0bbd
00000370: 0da3 e6bd 1c28 8d3e b6b7 50be feef 85bd
00000380: 509d 12bd 4d68 83be 933f 063d 622a f43b
00000390: eab5 a13b 4f38 dc3e 48b9 66be df18 5f3d
000003a0: a684 0c3e fca6 eabd b5d2 b2bd 90a9 e73c
000003b0: c9fc 193c 14fd 07be 10b9 19be 3e76 92bd
000003c0: 2a7f 933e d183 c23c 6325 0d3e 1ffa 10be
000003d0: 50db a7be 6c25 233d d2ce a13c c644 5bbd
000003e0: 58cc 56be 0596 62be 3857 1cba dc3e 12be
000003f0: 9e61 f5bd c0be c3be 8be2 143d 40bb a8be
-0.1906641 -0.12359636 -0.0012161777 -0.04965185 -0.115791515 0.09756265 -0.023724664 -0.13799147
-0.056118704 -0.08846602 0.09250572 -0.20942517 -0.02386389 -0.08798883 -0.1641935 0.12119436
0.044829816 -0.070691295 -0.09305042 0.19324467 0.150487 -0.17925468 -0.018250242 -0.07983513
-0.090276666 -0.0071731363 -0.101422295 0.016234083 -0.12336057 0.025335904 -0.0077371937 -0.049360048
-0.053081907 0.08251383 -0.007431852 0.17581043 -0.039994735 -0.1464086 0.050370514 0.10854831
-0.007146345 0.15523332 0.18539387 -0.1207732 -0.17360951 0.025067562 0.09150971 -0.02573777
0.06389118 -0.26076105 0.03732378 0.02307467 0.09494408 0.023452155 0.067095496 0.1480892
0.17698702 0.010595614 0.0058723544 0.029935548 -0.12124836 0.06539969 -0.023713376 0.07489949
-0.10655161 0.046086587 -0.14579876 -0.3097351 0.006789371 -0.21860832 -0.054287866 -0.27708972
0.09138092 -0.27894172 0.16070518 -0.16371788 0.22815157 0.03168318 -0.12516421 -0.12935084
-0.0033370736 0.085663155 -0.08649628 -0.010467369 0.059656452 -0.2389254 0.06351018 0.091286324
-0.2317581 -0.22345042 0.07629807 -0.049996454 -0.07536958 0.14408103 0.0026953104 0.062145114
0.07823787 0.109009035 -0.1415657 0.11003819 0.060661614 -0.063642554 -0.117954396 -0.097597204
0.03982149 0.04228434 0.1520337 0.038614083 0.149702 -0.038533255 -0.14411852 -0.09839392
0.022135604 -0.12890495 0.18309827 0.013031892 -0.2209152 -0.029684225 0.02322157 -0.03134146
-0.07923833 -0.15964128 -0.034443785 0.062703036 0.027757548 0.015229797 -0.059085533 0.1341119
-0.012108703 0.25860927 -0.0011845402 0.020929998 -0.20439002 -0.17305537 0.093189456 0.087446876
-0.11014857 0.15284322 0.48686945 -0.15936944 -0.012640821 0.10768045 0.17772776 0.20248139
0.22644 -0.0067836386 0.017905748 0.050629556 0.042997926 -0.017948952 -0.06565087 -0.19646855
-0.13587023 -0.13362879 0.15609235 0.35699695 -0.06762063 -0.4937891 -0.26818797 0.14546642
-0.12776008 0.089931265 -0.14568569 0.29291865 0.39365923 -0.10104727 0.10469443 0.13120282
0.07356541 0.032984693 0.13657233 0.27288684 0.04528213 -0.07652765 0.16854374 -0.019339897
0.015767151 0.007173515 0.15479541 0.44946325 -0.052981116 -0.15222676 -0.04232084 0.2993644
-0.071945526 0.29854906 0.092001386 -0.021964306 0.2267873 -0.11174221 0.054983787 0.0521071
-0.08161809 0.038170528 -0.16391443 0.09476232 0.028509255 0.051457725 -0.27756435 0.11726365
0.02335435 -0.055602748 -0.28006995 -0.08817277 0.029992994 0.10076252 -0.043448504 -0.026420945
0.029152706 -0.013752248 0.10984515 0.00093132036 0.22889043 -0.17060202 -0.28562328 -0.07264664
-0.06547963 -0.20132415 0.24305882 -0.034078315 -0.11261568 0.27569664 -0.2038258 -0.065399155
-0.035794556 -0.25665513 0.032775473 0.0074513415 0.004935016 0.4301171 -0.22531617 0.05446708
0.13722476 -0.11457631 -0.087315954 0.028279096 0.009398648 -0.13280135 -0.15012002 -0.07151459
0.28807956 0.023744496 0.13783793 -0.14157914 -0.3278451 0.03983061 0.01975194 -0.053532384
-0.20976388 -0.2212754 -0.00059639243 -0.14281791 -0.119815096 -0.38231468 0.03634886 -0.3295536

bias f4 [32]
00000000: 8303 0c3e c11a 2b3d 259d 0fbe 9e5f 90bc
00000010: c1da 98bd a091 0cbe 013b 31be dd7d 39be
00000020: fb12 18be 3b19 0bbe 9989 4b3d cac7 653e
00000030: 5430 50bd a5ba dd3b e858 4f3c d843 a5bd
00000040: fac6 a63d a68e d53d 9b23 833b 84b3 b9bd
00000050: 8243 59bc d55a d83b aad5 b3be 80d7 17bd
00000060: 1daf 15be 6995 3fbe 1422 65be e22c 053e
00000070: 141b 47bb 80bf 283e 854f 333e 11f2 d3b9
0.13673215 0.04177356 -0.1402479 -0.017623719 -0.07463599 -0.13727427 -0.17307664 -0.1811442
-0.1485099 -0.13583843 0.04969177 0.22439495 -0.05082734 0.0067666345 0.012655474 -0.08069581
0.081434205 0.10427599 0.0040020472 -0.09067443 -0.013260724 0.006602625 -0.3512395 -0.03707075
-0.14617582 -0.18709339 -0.22376281 0.13005403 -0.003038113 0.16479301 0.17510803 -0.0004042541

weight f4 [6, 32]
00000000: 83b8 c13c 7917 84bc ba1d 16bc 782e 153d
00000010: 7e19 1ebd 3228 9c3c 45a2 2c3e 8746 013e
00000020: cf76 053e 4411 883d 3f51 0f3d c17f d5bd
00000030: 2dae de3c 8670 ee3c 2868 00be 3db1 b8bc
00000040: 8ced 36bd 83bb afbd 15f5 91bd c247 42be
00000050: 25f3 7d3d 7d61 c9bd d792 3f3e 4368 67bd
00000060: 9c20 8f3d 92ce 80bd f236 823d 7ea2 02bd
00000070: 075c a13c 9130 85bd 1ecd 2dbe ac74 863c
00000080: c18c 5fbd 0746 a4bd bcd7 c93c 8832 cc3d
00000090: 0af0 0f3d aa71 913d f2bf d63d 60d0 00bc
000000a0: b834 a5bd b1cc 8bbc 16e2 c33d b6f9 6b3d
000000b0: 7ba7 30bc aed4 a43d 3e55 05be e960 b43d
000000c0: 6ec6 a43c 8bd0 18be 6c79 683d 4696 59bd
000000d0: 95dc b03c 0171 cebc 6c30 11be 27fc fa3c
000000e0: 3e5b 1cbd b6bc bd3c 72f0 09bd b73e e43d
000000f0: bce0 4fbd 8497 93bd e72c a83b 97e0 49bc
00000100: 1093 0bbd 135e 373e eb83 403e b565 b7bd
00000110: eb9a 06be fcc1 173d 1a20 3bbe c67e e03d
00000120: 41da 84be dfc3 e93d 7c00 71be 22fe abbd
00000130: c491 483e 248e cd3e 89d0 923c 7411 f43e
00000140: fea7 0fbd c645 363e bcf6 5ebe 9c5b e5bd
00000150: a50a 503e 0a66 503e c77f d7bd 657d dbbd
00000160: dfc7 be3e 17dd b93e f63f dbbe 2c2a 02be
00000170: 2ac2 b8bd 69d4 38bc 039a b43d 2eab 59be
00000180: b9ec 4dbd df51 48bd f56d 12bd 7bf1 bfbd
00000190: 485b 88bd 7e35 573d f2f7 8e3d 1768 9bbd
000001a0: 5bc0 b23d 2adf 5e3e 19aa 7bbc a046 10be
000001b0: 6d23 633d 8020 13bb c2fa 413e f31f 3f3d
000001c0: c9c1 57bd e5e3 3cbd 02a3 083c acb7 c73d
000001d0: a50d 0bbd 2ea4 d53d bc03 69bc 1aa6 0c3e
000001e0: 5921 033e de86 0d3d 2bb7 5dbc bb9a ddbc
000001f0: b2a9 ecbd 3219 be3c 3691 20be 2af9 9bbd
00000200: a7f2 d73d 0e18 8b3b 659f 0fbc f9ab 12be
00000210: 16fe 8ebc 05e8 6bbd 9078 223d 7d34 a9bc
00000220: 1d16 a5bc 9ea1 f63c 32cc 0abd a8e2 1f3c
00000230: f195 17be bbcd 013d 36c3 1c3d 33dc 8b3d
00000240: 6538 d93d 604d 8dbc 881b 5fbd 9db2 843d
00000250: a628 05bd 2104 0ebe 9927 d63d 722c 8d3d
00000260: 1b90 993d 2f56 613d 3907 3e3b a82e 0c3e
00000270: 880f 023b a485 f6bd 8600 8fbc 58a0 953d
00000280: d4fb 9c3e a6f3 633e 902a ef3e e987 863e
00000290: d49f 8d3e a76f afbe 4c0d 073e b2c6 94be
000002a0: f876 9b3d df3c b9be b5ae a53e f2a7 5e3d
000002b0: ddc4 143e ef46 98be 205f 79be 9457 4a3e
000002c0: 69a6 023e e12c 90bd bf8c 96be e7b7 3f3e
000002d0: 6dc9 9d3e 587c 11bd daea 403d a491 e43d
000002e0: 4793 06be 8577 b6bd f026 cebe 69e8 efbd
000002f0: 7061 83be 35a0 d8bd 6cf5 28be 968f 1e3d
0.023647552 -0.016124474 -0.009162361 0.03642127 -0.03859853 0.019062135 0.16858776 0.1262456
0.13033603 0.06643918 0.03498959 -0.10424758 0.027182663 0.02910639 -0.12539732 -0.022545451
-0.044660136 -0.08580687 -0.07126824 -0.18972686 0.06199946 -0.098330475 0.18708359 -0.056495916
0.069886416 -0.062894 0.06358136 -0.031893246 0.019697202 -0.06503404 -0.16972777 0.016413055
-0.054577593 -0.08021169 0.024639003 0.099705756 0.03514103 0.07101758 0.104858294 -0.0078621805
-0.08066696 -0.017065378 0.09564607 0.05761119 -0.010782118 0.08048378 -0.13020799 0.08807547
0.02011415 -0.14923303 0.056756422 -0.053121828 0.021589557 -0.025200369 -0.14178628 0.030637814
-0.038172953 0.023161273 -0.033676572 0.111447744 -0.050751433 -0.07206634 0.005132306 -0.012321613
-0.034075797 0.1790698 0.18800323 -0.08954946 -0.13145034 0.037050232 -0.18273965 0.1096168
-0.25947765 0.114143126 -0.23535341 -0.08398081 0.19586855 0.40147507 0.017921703 0.47669566
-0.03507232 0.17800054 -0.21773809 -0.11199114 0.2031656 0.20351425 -0.105224185 -0.107172765
0.37261865 0.3630149 -0.42822236 -0.127114 -0.09021409 -0.011281111 0.08818438 -0.21256706
-0.050274584 -0.048906203 -0.035749394 -0.093722306 -0.066580355 0.05254125 0.069808856 -0.07588213
0.08728095 0.21764818 -0.015360379 -0.14089441 0.055453707 -0.0022449791 0.18943313 0.04666133
-0.052675042 -0.046115775 0.008339645 0.097518295 -0.03394856 0.104317054 -0.014222082 0.13735238
0.1280569 0.034552447 -0.01353244 -0.02705132 -0.11555804 0.023205373 -0.15680394 -0.07615884
0.10544329 0.004244811 -0.00876603 -0.14323415 -0.017455142 -0.057594318 0.03966576 -0.020654911
-0.020152146 0.030106362 -0.033886142 0.009758629 -0.14803292 0.03169034 0.038272105 0.06829109
0.106064595 -0.01724881 -0.054469615 0.0647938 -0.03250947 -0.13868763 0.104567714 0.06893243
0.07498189 0.05501383 0.0028996004 0.13689673 0.0019845683 -0.12037209 -0.017456304 0.07305974
0.3066088 0.22260913 0.4671216 0.26275566 0.27661002 -0.3426487 0.13188666 -0.29057842
0.07591051 -0.36179253 0.32359853 0.054359384 0.14528222 -0.29741618 -0.24352694 0.19759971
0.12758793 -0.0703981 -0.29404256 0.18722497 0.30817738 -0.035518974 0.047098972 0.11160591
-0.1314212 -0.08909515 -0.40264082 -0.117142506 -0.25660276 -0.10577432 -0.16499871 0.038711153

bias f4 [6]
00000000: abc9 9ebe eebe 7b3d 0d9f 133e bfce 1dbe
00000010: 8838 363d 668c be3c
-0.31013235 0.06146138 0.14416142 -0.15410899 0.044487506 0.023260307
