models/policy_asm_re.pt (torch, 67720 bytes, 8 tensors)

weight f4 [128, 27]
00000000: 46ed b6be b6db 5bc0 9987 363e cabe 7dbf
00000010: 1771 a73f d928 a43e 9407 183c 6c3d a6be
00000020: bbd0 ac3c 4140 723f 1431 393f b1ac 85bf
00000030: 347e 3b3f 2a96 313f cc4d 963e 7148 c23f
00000040: 0160 9f3f 7221 b9be 9e1f 913e 59b7 b03f
00000050: 6ecf 203b 6655 3abe 2846 cbbc 380e bd3d
00000060: c8d6 93be 6244 84bc f55e d73d 2829 1740
00000070: 1d89 d23e f772 2440 e572 443f a2e3 a0c0
00000080: 41eb cd3b ec43 cf3c 9c7f 963c edad 823e
00000090: 9534 7abe 0e64 84bf 838a d43d 8817 e03c
000000a0: 1ee5 3a3e 1590 9d3e 053a eabf f9b2 a7bf
000000b0: 9222 a93e 7449 823e 7083 363f 3ed0 bb3e
000000c0: 1c01 6fbe c7bc 8dbe 8eb4 09bd 270c 87be
000000d0: 7179 cdbd 44c9 ae3c f1ea 0dc0 4d08 4f3d
000000e0: 0a72 3dc0 4732 973d badb 873f 91b4 0a3f
000000f0: efee c43b 1627 fbbe ece1 c0be ff29 88be
00000100: 79b4 9d3e fff4 a93f 52ab 113f 7722 d33e
00000110: e505 5d3e 9b37 8c3f f7de 8fbe f6b4 a9bc
00000120: a33c 24bf fd99 82bf 46a8 75bf 46d2 d2bb
00000130: d2e5 c43e 1acd 10be ddfa 073e 9413 e03e
00000140: cc77 933e 769e 9ebf 16a1 aa3c 3e40 083f
00000150: 8bec 373f c5a5 09be d43f 893f df18 31bb
00000160: ff6b 2b3f bf8d 39be c38e 01bf 146d 163e
00000170: 0b63 c33e d8f2 993e 0973 073b de98 ea3e
00000180: 7ac9 a7bf b0f4 80bf a03d 7cbe 9e20 9d3d
00000190: 842b 0fbd 0e7d 6cbf 74cc ac3d e0bc c63e
000001a0: 0186 fc3e 4d67 2ebe 3881 9a3e 8745 b23d
000001b0: f207 083f a44d d73f 99ab 89bf c83e 17bf
000001c0: 36b8 3d3f 9916 e83d bd47 a8ba e1e8 f13e
000001d0: 3372 f93e cc1d a9bf e4b3 bfbe b23c 003f
000001e0: 827a db3e 4015 21be e8ec 2cbf adf8 3ebf
000001f0: f609 a1be 0399 003f 9cd7 0abf 3772 d6bf
00000200: e48f 1fbf 7cf6 6cbd 6b2d e0be 9a61 053e
00000210: 6054 e43e d681 3d3e d078 abbd 8009 d9bf
00000220: 41ac c2be c3e0 aabf 7b51 1cc0 bf5e 883f
00000230: 39e9 c4be a41a c639 6924 753f 3e64 21be
00000240: e8d6 b3be 3d62 8c3e c2e4 e2be 9464 70be
00000250: e6d5 c4be c245 2fbe 8d41 68bf 2e07 cf3e
00000260: 2612 f93e c059 b4bf 6c9e ca3e 6f02 3b3e
00000270: 194c 2b3e 0271 543d c230 323e f0f1 8a3d
00000280: adec 90be 458b 8fbe 806d aebf 5b98 0f3f
00000290: baea 64bf 4374 7b3e 635c f33f cd0d 1a3f
000002a0: a469 0a3c f9d3 10bf 8898 473e b0a1 c53e
000002b0: 163e 663f f2d3 a53e ebeb e23e e900 013f
000002c0: eae5 d5bd 054a a3be 4488 9b3f a86c 4abf
000002d0: 4557 6ebf 8ea1 32bf 2489 24be bb4b 803e
000002e0: 8e85 783e ea09 403e b6fe 223e fdc9 053e
000002f0: 1b2c 12be 8f60 73bf 4a18 3e3e d9b2 1fc0
00000300: d39f 3a3e 5029 9e3c 0b52 a33e 1fd8 68bc
00000310: fea1 a2be c959 6c3e e063 133f 6694 fd3d
00000320: d82e 1abd d006 333f 6366 59be 8418 d83d
00000330: 7542 9a3f 17e4 88bf 5fa2 8dbf f4bf 21bf
00000340: d908 11c0 7afb 94be c91f 9ebd 2480 fabd
00000350: bfab 6f3d ba8a 0abe 943d 453c 2118 2e3c
00000360: 6a1f ddbe 78b6 063f b2de a1bf 009c 3fbf
00000370: 7896 5bbe 933f 9bbf 8b5c 973c b4c1 dabf
00000380: 4eee 65bd 4069 623f 87de e2be f236 3abf
00000390: b207 883e 9b95 e9be 2f3f 91be 5bc0 463f
000003a0: dfb0 fabe de57 21bf 37d7 9abe 4202 eabf
000003b0: 5be2 4fbd 89ee 743d 72e4 3b3e 9831 853e
000003c0: 3375 c9bd c49d 4d3e 026a acbe 9300 f4be
000003d0: f5da 57bf 1e25 14bf cc47 22bf f17c 5940
000003e0: 7c13 1d3f 1db8 2dbd fada 5cbd 8f36 403e
000003f0: ec62 923e 3007 f33e f251 92bc bd09 28bc
-0.357279 -3.435285 0.17825164 -0.99119246 1.3081387 0.32062414 0.0092791505 -0.32468736
0.021095624 0.94629294 0.7234051 -1.0443326 0.73239446 0.6936976 0.2935623 1.5178357
1.2451173 -0.3615833 0.28344434 1.3805953 0.00245377 -0.1819664 -0.024813727 0.09231228
-0.28874803 -0.016145889 0.105161585 2.361887 0.41120234 2.569517 0.76737815 -5.027787
0.006284148 0.025300942 0.018371396 0.2552332 -0.24434121 -1.0343034 0.103779815 0.02735497
0.18251464 0.30773988 -1.8298956 -1.3101493 0.33034188 0.25446665 0.7129431 0.36682314
-0.23340267 -0.27683088 -0.033619456 -0.2637646 -0.10032929 0.021336205 -2.2174647 0.050545026
-2.9600854 0.073826365 1.061393 0.5418177 0.0060099284 -0.49053258 -0.37672365 -0.2659454
0.30801752 1.3277892 0.5690204 0.41237232 0.2158428 1.095447 -0.28099796 -0.020716172
-0.64155024 -1.0203243 -0.9595989 -0.006433758 0.3845659 -0.1414074 0.1327929 0.43764937
0.28802335 -1.2392108 0.020828765 0.53223026 0.7184531 -0.13442142 1.0722604 -0.002702288
0.66961664 -0.18120478 -0.5060846 0.14690048 0.381615 0.30068088 0.0020667932 0.45819753
-1.3108361 -1.0074673 -0.24632883 0.07672237 -0.03495361 -0.9237832 0.08437434 0.38815975
0.49320987 -0.17031594 0.3017671 0.087046675 0.53137124 1.6820569 -1.0755492 -0.5908017
0.7410921 0.11332435 -0.0012838762 0.47247985 0.4871994 -1.3212218 -0.37441933 0.50092614
0.42866904 -0.15730762 -0.6754899 -0.745982 -0.31452912 0.5023348 -0.54235244 -1.6753606
-0.62328935 -0.057852253 -0.4378465 0.13025513 0.44595623 0.1850656 -0.083726525 -1.6956024
-0.38022044 -1.3349842 -2.4424732 1.0653914 -0.38459185 0.00037785352 0.9575868 -0.15760896
-0.35124898 0.274187 -0.44315153 -0.23475868 -0.38444442 -0.17116454 -0.9072502 0.40435165
0.4864666 -1.408989 0.3957399 0.18262647 0.16728248 0.051865585 0.17401412 0.06784427
-0.2830557 -0.28035942 -1.3627167 0.5609185 -0.89420664 0.24556069 1.9012569 0.6017731
0.008448038 -0.56573445 0.1949178 0.3859992 0.89938486 0.32388264 0.44320616 0.50392014
-0.10444243 -0.3189241 1.215096 -0.79072046 -0.9310191 -0.6977776 -0.1606794 0.25057778
0.24269697 0.18753782 0.15917477 0.13065334 -0.14274637 -0.9506921 0.18563953 -2.495291
0.1822503 0.019306809 0.3189853 -0.0142116835 -0.31764215 0.23081125 0.5757427 0.123818204
-0.03764233 0.6993227 -0.21230464 0.10551551 1.2051531 -1.0694607 -1.1065177 -0.6318352
-2.266165 -0.2909811 -0.07720906 -0.12231472 0.0585134 -0.13529482 0.012038607 0.01062587
-0.4318803 0.52622175 -1.2646086 -0.7484741 -0.21444118 -1.2128776 0.018476745 -1.7090364
-0.05613547 0.8844185 -0.443104 -0.7274009 0.2656837 -0.45621952 -0.28368518 0.7763726
-0.48963067 -0.630247 -0.3024232 -1.8281939 -0.05075298 0.059797797 0.18348864 0.260144
-0.09836807 0.20079714 -0.33674628 -0.47656688 -0.84318477 -0.57869136 -0.63390803 3.3982508
0.61357856 -0.042411912 -0.05391977 0.18770812 0.28591096 0.4746642 -0.01786134 -0.010256228

bias f4 [128]
00000000: 27e5 f1bd 752d abbe 839d 473d 9644 9fbe
00000010: 436f 80bd d56f fc3d 8de0 05bf dd11 8abd
00000020: 7e5e d63d 1399 cebe 35eb 84bc 46c1 95bc
00000030: 37c1 42be 6d64 24be 72df c7be e416 cabb
00000040: c449 0cbe 894f 78bd 024e 9bbe a3e9 333c
00000050: 2bef 0bbe 0afc b9be 3969 933d dc41 71be
00000060: 98a3 a6bd ff60 5d3e bd8b 4bbd c43a 093e
00000070: 1c0c c6bd ebdb 353e f401 8dbe 815d 79be
00000080: 5ec5 1a3e c28b c93d 9f93 67bd 7da6 713e
00000090: a717 30bf 8383 3ebe c89e 9f3c 8a07 643d
000000a0: ab51 d53c 60dc 353e 9964 84be 1094 0f3e
000000b0: 9c59 b3be b590 17bf a15f 9dbe 5610 113d
000000c0: e5d9 903d 3d31 33be e6b5 a9be 3637 cabd
000000d0: 9d66 af3d 30b4 66be c236 bbbe 952f babe
000000e0: 1858 ccbe 3d01 233e 26dc babd 2cd1 d23d
000000f0: 07cd 323e 89fa 06be f5f9 12bf b747 a23d
00000100: f415 d53d 6d6a 0bbe d320 35be 9a2e 21be
00000110: 8281 86be 51b3 a6be ee48 15be 3869 f4be
00000120: 260d 40bd b3ad 39be dab4 1dbe 35db 93be
00000130: 7424 bfbe 9721 c73e f0b0 cdbe 8019 ccbc
00000140: fda2 0b3e 78f0 aabe aa95 0cbf 5b37 12bd
00000150: 5a9c f33b 2243 acbe 6b6d 69bc 3ba3 0ebe
00000160: 7756 b2bd 41cf 113e 107a c7bd 996a 1dbe
00000170: 6fb7 e5be b1b6 48be 7ca2 eabd 0240 2bbe
00000180: 9ee4 523d 4b12 203e 1443 363d 5431 20bd
00000190: 6650 6cbc f5ca 59bc 52f5 92be ad7f 1dbe
000001a0: 5fa5 563e 3e00 153e 5ec7 7dbe f2b2 cebe
000001b0: 80d8 ccbd 6717 4dbe 20e6 ac3b 53e2 da3d
000001c0: c0d4 cebe c1a0 4fbe 4b79 94be 90fb e3be
000001d0: 43f2 91be 2bf7 75be 8b0d bfbe c30b 29bf
000001e0: 7051 ae3d 51e1 ae3c c906 bdbe 0d3f 5dbe
000001f0: 47df 9ebe efa5 743e 87b6 843d 3097 01be
-0.118112855 -0.33433118 0.0487342 -0.31107014 -0.062712215 0.12326018 -0.5229576 -0.067416884
0.10467242 -0.4035116 -0.016225437 -0.018280637 -0.19019018 -0.16053934 -0.39037663 -0.0061672796
-0.13700014 -0.060622726 -0.30332953 0.010980996 -0.13665454 -0.36325103 0.07197804 -0.2356028
-0.08136672 0.21619032 -0.04969381 0.13401324 -0.096702784 0.17759673 -0.27540553 -0.24352075
0.15114352 0.0984111 -0.056537267 0.23598666 -0.6878609 -0.18604855 0.019484892 0.055671252
0.026039919 0.17759848 -0.25858 0.14021325 -0.35029304 -0.5920518 -0.30737022 0.03541597
0.0707281 -0.17499252 -0.3314659 -0.09873812 0.08564494 -0.22529674 -0.36565214 -0.36364427
-0.3991096 0.15918441 -0.09124021 0.102938026 0.17461024 -0.13181509 -0.57412654 0.07923835
0.10404578 -0.13614817 -0.17688303 -0.15740433 -0.26270682 -0.32558683 -0.14578602 -0.47736526
-0.04688754 -0.18132667 -0.1540102 -0.2887818 -0.373325 0.38892815 -0.40174055 -0.024914503
0.13636394 -0.33386588 -0.5491587 -0.035697322 0.00743441 -0.33644968 -0.014247279 -0.13929455
-0.08707898 0.14239217 -0.097400784 -0.15372695 -0.4486651 -0.19600941 -0.11456773 -0.16723636
0.051487558 0.15631978 0.044497564 -0.039109543 -0.014423465 -0.013293018 -0.2870279 -0.15380736
0.20961522 0.14550874 -0.24783084 -0.403709 -0.100022316 -0.20028459 0.0052764565 0.10687699
-0.4039669 -0.20276166 -0.2899879 -0.44527864 -0.28505144 -0.24020068 -0.3731502 -0.6603357
0.08511627 0.021347674 -0.3691924 -0.21606083 -0.31029722 0.23891424 0.06480127 -0.1265533

weight f4 [64, 128]
00000000: 147f c2be 0ee1 a43c 2b6c 9c3d a076 69be
00000010: 315c 64bd ea51 c13d 7004 c7be 288c e3bd
00000020: 9e09 f5bd 2bab e13d 980c 05be 809c ad3e
00000030: 39a2 5d3c d033 1cbe 8cf4 e3bd baf2 693c
00000040: 0508 07bd 3a3b 83be f569 3abd 6de8 71be
00000050: d632 01be c0bf 6ebe 048b 94be b014 e3bd
00000060: a33d b5bd 2b92 933d b629 7ebe f1ab 1d3e
00000070: 197e 8ebe c5c4 42be 9fb1 a0be 870d 8cbe
00000080: d652 243b 9c6c 49be 3aa4 3dbe f457 ddbc
00000090: cf1e 06be 2885 ce3d 3196 10bd 4048 c23e
000000a0: d935 633e f0d1 9c3d 779f 55be c94a ce3d
000000b0: 2489 25bd d510 9d3d 07bd 96bd 45cb 65bd
000000c0: 6918 89be 9c5b 92bd 08af 403c 0472 5dbe
000000d0: df2d 18bd 58bd 8cbd 9567 05bd 990e 0dbe
000000e0: 583c ae3d 08ea dd3d 2c16 823e 6283 36be
000000f0: 89ba 873c f256 64be 8973 9ebe 513e bdbd
00000100: b1f3 9b3b 8381 3ebe cb80 26be 01e8 303e
00000110: e3df b5bd a3d4 11be aeea 1ebe 5df8 6bbd
00000120: d383 a1be a22b 14be c8e8 28bd 3c1d 3cbe
00000130: 43fc 00be c55b 9fbd c703 4cbe cede 123e
00000140: 3930 4f3d 45e2 e93b 103c 44be 5585 7ebe
00000150: f51a 213e 9b16 16bd fb20 2fbd 2082 ae3d
00000160: 7e22 2bbe 758d b9bd 3f14 4fbe 0bbc c5bd
00000170: bb02 6f3b 4ae2 9cbd fe49 513d 4c67 d83d
00000180: 9a1a a13d b9af 50be b4c4 5a3c f26d 8e3d
00000190: a431 763d 0dda dc3d 8b88 eebd d1a4 fcbd
000001a0: da58 7c3e 3203 203e f498 e7bd 35ea dc3d
000001b0: f8d9 72be 1038 29be 0abd 953d 3a23 8cbd
000001c0: 1f71 163c f824 dcbe ce8b c9be 27dc 403d
000001d0: deda 463b 19d7 0bbe 2ec9 1fbd ab24 76bf
000001e0: ba14 053e dced b6bd 345d b3bd 41eb 75bd
000001f0: 731d 3bbd 7add b43d 17a5 84bc 8891 4b3d
00000200: b69f 2dbf 909a 22bc 0fe7 ab3b c53d ddbd
00000210: 95e6 44be 8f49 9ebd 9a44 f0be 24d9 123e
00000220: c2b8 673e 8510 99be 7995 223d 0682 033d
00000230: 1a28 3abe 6f46 0e3e 3b72 6bbb c501 c3bd
00000240: 66b7 af3d 8fc9 cebe 2bdf 22be 8b56 273e
00000250: 17a5 bdbd 2260 a7be 90da c03b 7eac 24bf
00000260: d0e9 8d3d de98 143e 6c36 a13e 804d cebe
00000270: 5f44 b33e 5835 463e f7b9 d1bf 92cc 8cbb
00000280: 330e 8abc e44d b93e 8554 ff3d 3f69 853e
00000290: 21dc 30bf d1dd 893d 2524 0c3e ac70 b53e
000002a0: e195 f23b 59dc b33d 6dc0 83bd dd91 0ebd
000002b0: ad7e f2bd de5f 67be 35dc a5bc 4e2e d73d
000002c0: 0141 37bd c7f1 8b3d 011e bbbd 493d f4bd
000002d0: 8f04 01bd 2a23 f0bd c4cf f4bd fb73 edbd
000002e0: e5b5 04be 9ebb a03d 31b3 22bf b5d5 c83b
000002f0: 3875 89bd d4f6 09bf 1b3d 0dbf e32f f8bd
00000300: 868f 09bc a577 08be 2ead 173e f4aa fe3d
00000310: dd39 0fbd 161b 183e a1da 053e 9d9f 5b3d
00000320: 2680 7d3e 42ba fbbc c0f4 afbc 5991 f2be
00000330: 8c4e 81be 8d17 413f 94bb 463e 6af3 acbe
00000340: faaf 39be c8dc 43be 04f8 06bf 0204 143e
00000350: 1ff8 413e 9979 b6bd 8643 4fbd ae28 4dbe
00000360: 93a0 1c3e a15e b0bd 3515 063e 580a 25bf
00000370: b5d5 80bc cf81 07be c457 4dbd a158 14bf
00000380: 74fa 5e3e 522b 403e a76d b33d 2455 99bd
00000390: 15de 9d3e 681c 883d 78f1 6dbd b50a 8ebc
000003a0: 1884 c53d f45c 2f3c cb6d dbbd f877 08be
000003b0: ccf3 80bf e304 02be abf5 9c3d 7bb8 d63d
000003c0: 245e adbc 27d7 52bf 4fad febe 73ae 3cbe
000003d0: 2677 70be aa8d d5be 82e0 c0bd 35d1 61bf
000003e0: 1afa 1c3e ba04 9c3d e3df 87be 3664 d9be
000003f0: 6b20 8a3e 2fbb 7f3d c76d 0bbe 6262 ea3c
-0.37987578 0.020126846 0.07637819 -0.22799158 -0.055751983 0.09439452 -0.38870573 -0.11110717
-0.11964725 0.11018976 -0.12993085 0.33908463 0.013527446 -0.1525414 -0.11130628 0.014279062
-0.032966632 -0.25631124 -0.045511205 -0.2362382 -0.12617049 -0.23315334 -0.2901231 -0.1108793
-0.08849647 0.07205614 -0.24820599 0.15397622 -0.2783058 -0.19020374 -0.31385514 -0.2735407
0.0025073788 -0.19670337 -0.18519679 -0.027019478 -0.1309769 0.10083991 -0.035299484 0.37945747
0.2218851 0.0765723 -0.20861612 0.10072858 -0.04041399 0.07669226 -0.07360273 -0.056102056
-0.26776436 -0.07146379 0.011760481 -0.21625525 -0.03715312 -0.06872052 -0.032569487 -0.137751
0.085076034 0.108356535 0.2540754 -0.17823556 0.01656844 -0.22298792 -0.3094752 -0.092404015
0.004759275 -0.18604092 -0.16260068 0.17276002 -0.08880594 -0.1424127 -0.1551921 -0.057609905
-0.31545886 -0.1446977 -0.041237622 -0.18370527 -0.1259623 -0.077811755 -0.19923316 0.14342806
0.050583098 0.007137569 -0.19163537 -0.2485555 0.1573294 -0.036642652 -0.042756062 0.08520913
-0.16712376 -0.09060184 -0.20222567 -0.09655007 0.0036470133 -0.07660349 0.051095955 0.10566577
0.07866402 -0.20379533 0.013352562 0.06954564 0.060105935 0.107837774 -0.11647137 -0.12336124
0.24643269 0.15626219 -0.1130847 0.10786859 -0.23715961 -0.16525292 0.07311447 -0.068426564
0.009182244 -0.42996955 -0.39364475 0.047084954 0.0030342857 -0.13656272 -0.03901022 -0.961497
0.12996188 -0.08932087 -0.087580115 -0.06003881 -0.04568238 0.08831306 -0.016192002 0.049699336
-0.67821825 -0.009924546 0.00524605 -0.10802797 -0.19228585 -0.07728874 -0.4692734 0.14340645
0.22629073 -0.29895416 0.03969333 0.032106422 -0.1817936 0.13894056 -0.003592624 -0.09521822
0.08579902 -0.40388152 -0.15905444 0.16341607 -0.09260004 -0.3269053 0.0058854297 -0.643257
0.06929362 0.14511439 0.31486833 -0.40293503 0.350131 0.19356287 -1.6384877 -0.0042968476
-0.016852474 0.36192238 0.12467293 0.2605686 -0.6908589 0.06731761 0.13685663 0.35437524
0.007403121 0.08782262 -0.06433187 -0.034807075 -0.11840568 -0.22595164 -0.020246604 0.10506879
-0.044739727 0.06833225 -0.09136582 -0.11925752 -0.031498488 -0.11725457 -0.11953691 -0.11594387
-0.12960012 0.07848285 -0.63554674 0.0061289915 -0.06711811 -0.53892255 -0.55171365 -0.12118509
-0.008396035 -0.13326891 0.14812157 0.124349505 -0.034967292 0.14854082 0.13071682 0.053619016
0.24755916 -0.030728463 -0.02147901 -0.47376516 -0.2525524 0.7542656 0.19407493 -0.3377946
-0.18133536 -0.1912719 -0.5272219 0.14454654 0.18942307 -0.08909912 -0.050601505 -0.2003505
0.15295629 -0.08611799 0.13094027 -0.6446891 -0.015726903 -0.13233112 -0.050132528 -0.57947737
0.21775228 0.18766525 0.08761149 -0.074869424 0.30833498 0.06646043 -0.05809161 -0.01733909
0.096443355 0.010703314 -0.10714301 -0.13327014 -1.0074401 -0.12697177 0.07664045 0.104844056
-0.021163054 -0.82359546 -0.497416 -0.18425922 -0.23482952 -0.41709644 -0.094178215 -0.8820985
0.15329781 0.07618089 -0.26538 -0.42459267 0.26977858 0.06243437 -0.13616095 0.028611366

bias f4 [64]
00000000: 8f74 5fbe 0522 013d bc62 18be 646b 87be
00000010: 2d10 97bd f505 90be ce9a 6fbe fcd5 1cbe
00000020: d9d2 b63d cec4 b83d ca37 4ebe 5c74 cabc
00000030: 3318 35be 71c8 65be ec2f 61be 2f78 293c
00000040: fc42 283c 363a 4cbc 526b 073e be8b 83bc
00000050: 4801 18bd 05fa 0ebe 9bef 37be 25c5 3ebe
00000060: 87d5 62be 7a24 5b3d d282 a03d 99d7 8dbd
00000070: 3c8c 063d ca1e 01be 740a 54be 289b 89bd
00000080: 6136 9bbc e047 61bd e0dc bbbd dc68 4bbe
00000090: 0c92 10be b9cc 9dbd 5225 30bb 8aba 44be
000000a0: d5c6 1d3d 8dd3 eabd dd16 a63d 3523 6dbe
000000b0: 04be cfbc 0433 0fbe 9176 ce3c f244 32bd
000000c0: 2b9d 523b 20d3 b3be 181d 16be 10da 1f3d
000000d0: be88 35be 5d8b 89bd 9fa6 28be 7379 9ebe
000000e0: 9d07 83be 42c9 d5bb a7cb 1fbe 1e3b f5bc
000000f0: f92b 68bd e6ae 7d3c 6f81 8c3d 274a cdbd
-0.21821807 0.031526584 -0.14881414 -0.2644912 -0.07376132 -0.28129545 -0.23398897 -0.15316004
0.08926935 0.090219125 -0.2013847 -0.024713688 -0.17685013 -0.22439744 -0.21990937 0.010343595
0.010269877 -0.01246505 0.13224533 -0.016057845 -0.037110597 -0.13962562 -0.17962496 -0.18629892
-0.22151767 0.053501584 0.07837452 -0.069258876 0.03284858 -0.12609401 -0.20707113 -0.06719047
-0.018946828 -0.055000186 -0.09172988 -0.1986422 -0.14118212 -0.077050634 -0.0026877713 -0.19211784
0.0385197 -0.11466131 0.081098296 -0.23157962 -0.025359161 -0.13984305 0.025203021 -0.043522783
0.0032137136 -0.35122013 -0.14659536 0.03902632 -0.17727944 -0.067160346 -0.16469811 -0.30952033
-0.25591746 -0.006524236 -0.15605031 -0.029935416 -0.05668256 0.015483594 0.06860625 -0.10023909

weight f4 [32, 64]
00000000: 1afe b0bd 84f2 82be d21d 1ebd f2ad 85be
00000010: 8cdd 4a3e f695 8b3d 9638 183e 318a 36be
00000020: b6f5 783e 790e 3e3d 4d23 8bbd 6a22 38be
00000030: 5318 09bd 21fa b2bd 39c2 54bd 1712 df3d
00000040: 8d5b 7abd 5620 02bd 36eb 6ebd 846d 673d
00000050: d716 11bd a6a1 98bd 77d5 54bd d432 be3d
00000060: 6f47 6b3d f9bb 943c 643b d73d 1f9d c53d
00000070: fc77 8bbd 88fe bb3d 69a0 b43d dbef 823d
00000080: f17b 89be 26df 06be 16af 48be b108 3fbe
00000090: 8b75 65bd 03df 15be cf02 583b d20e 0e3e
000000a0: b18c 8abd 0b41 383e 4422 d33c 6650 323d
000000b0: f23d c9be 7db1 073e 7b9b ce3d 11f3 0e3d
000000c0: dc4d 31be b985 36bd ab42 4ebc 98d7 de3c
000000d0: 86a5 aa3e 9d1d 01be c470 14be 6cff 2bbe
000000e0: 5952 e53d 5471 e3bb 560c 9b3d 7e9f 76bd
000000f0: 4701 bebc 6555 953e fb2c 213e 59ff 203e
00000100: 42eb a8bc ab25 b5be 559e 52be 06ae 2bbe
00000110: 0462 fdbd 3fef d43d 5905 5dbe 9ed2 fcbd
00000120: 813c 7c3d e023 27be d61a b63d 8501 e5bd
00000130: 475e a2bd c758 7bbb 1f98 423d 690f dd3c
00000140: 3e89 ce3d 9807 f83d eb7a a7be c261 ecbd
00000150: d6ce b43d 57e0 803d a6f6 6b3d bfcf 9f3d
00000160: f67f 08be 54db a2bd 35cb dbbd b23d 39be
00000170: 1faf a4bc 853b 40bc 91f2 ee3d 811c 523d
00000180: 1096 113e 8732 f83d 8921 77bc 18a4 01bb
00000190: a97f fbbd 2f8d fb3d ad6e 25bd 9616 21bd
000001a0: 8a27 0abe bb13 1b3d d4d9 3ebe f9c0 af3d
000001b0: 35ab 833d cced 343e 5358 6ebe ccd7 d9bb
000001c0: 6fdf 043e ce12 3abe c47a fc3d 75d5 8a3b
000001d0: a474 1fbe 077b 66bd 9d6b 85bd c8bd cfbd
000001e0: 5f9d 09be cd8f 053c 8825 e13c 9242 3b3e
000001f0: 8562 c33d 96a2 c93d 5496 0abe 9de0 2abd
00000200: c61b 0d3d 6d9c 27be 8fdb 6dbd cfc0 67be
00000210: 7c35 893d 7ae8 683d d00c 98bb 69f4 d13d
00000220: e782 593c 9027 41ba 2b47 263d b89c 30bd
00000230: e94f 353d 895a d9bd ae9c 9ebd 42c1 7d3d
00000240: 5cea 22be d62b b73d b1e6 06bd 922d 75bd
00000250: 7e44 e4bc 308e f33d f260 35bd 6a45 823d
00000260: 7233 37be 6cee 173e 40fa c23d 3b49 e13d
00000270: 1639 22be e5c4 bebc e01d 923d da4f b5bd
00000280: a2aa 77bd ff11 413d cb1e 623e ab5c 7bbd
00000290: 13b4 293e 20db 4dbd 159c 3e3d 4684 b33e
000002a0: 0046 36be 89b4 5c3d 698d afbd 5214 72bc
000002b0: 4742 43be 240d f63c 02b7 88bd c1fd 49be
000002c0: 0767 aebd d239 ffbd 6fc8 cabc ccd8 b6bd
000002d0: cf45 b9bd 35cd cfbe f1f8 1abe aca9 5c3e
000002e0: df7c 10be 064b 4d3e 8670 89bd a1d7 153e
000002f0: d928 3ebe 888c f4bd 2408 ddbd fee7 df3d
00000300: cf20 4cbd 8db9 b63d bf78 323e 2a9c 0b3e
00000310: 1c8b 10be 16d0 853d 4bfc 0abe 40fe 00be
00000320: 1af2 47be a235 4c3e ab96 debc 5ffc 693c
00000330: 3359 36bd 6131 ce3d 36d0 913d 3566 253d
00000340: 3800 143c 371b bfbd cc3a 3c3d 663a cdbc
00000350: 8e29 2cbe 4765 08be 90a3 5c3b 6448 443c
00000360: 83bf 323d 9950 62be 7e2d bdbd c4b6 83bd
00000370: 72e0 373d 31e4 0b3d 617c b1bc 7f73 b53d
00000380: 3421 d33d feaf 7cbe 9e10 483e 191e 0fbc
00000390: 438e 89be a9d9 df3c d0f7 b6bd 66e0 113d
000003a0: 616b 543e 17a9 343e cfa7 4bbd dd3e 9a3d
000003b0: c6b7 c03d 3623 9fbc abd3 9abe 4edf f3bd
000003c0: bbed bc3d 8378 7a3c 2a18 283e 217e b6be
000003d0: fe3d e0bc c74d 5dbe 152c 853c 71ec 143d
000003e0: 39a3 873c 4251 10be 100b 493e 19e0 36be
000003f0: 9bd7 043d 105e 48be 81fd c93d 5659 4abe
-0.08642216 -0.2557565 -0.038602658 -0.26109272 0.19811076 0.06815712 0.14865336 -0.17826153
0.24312481 0.04640052 -0.067938425 -0.17981878 -0.033470463 -0.087391146 -0.051943038 0.10892122
-0.061122466 -0.03176912 -0.058329783 0.056500927 -0.035422172 -0.07452707 -0.05196139 0.092870384
0.05744117 0.018156039 0.10509375 0.09649109 -0.068099946 0.09179407 0.08819658 0.06393405
-0.26852372 -0.13171062 -0.1959804 -0.1865566 -0.0560203 -0.14635853 0.0032960658 0.13872841
-0.06765116 0.17993562 0.025773175 0.043533705 -0.39305073 0.132513 0.10088249 0.034899775
-0.17314857 -0.04456112 -0.012589137 0.027202412 0.3332941 -0.12608953 -0.14496142 -0.16796654
0.11197347 -0.006941 0.07570712 -0.060210697 -0.023193968 0.29166713 0.15739815 0.15722407
-0.020619992 -0.353803 -0.20568211 -0.16765603 -0.123722106 0.10397195 -0.21584071 -0.123448595
0.06158114 -0.16322279 0.08891837 -0.111819305 -0.07928138 -0.0038352476 0.047508355 0.026984887
0.100847706 0.121108234 -0.32710966 -0.11542083 0.08828513 0.062927894 0.05760827 0.07803296
-0.13330063 -0.0795199 -0.10732118 -0.18089941 -0.020103035 -0.011732941 0.116673596 0.051296715
0.142174 0.12119012 -0.015083679 -0.0019781645 -0.122802086 0.12282788 -0.04038875 -0.03932818
-0.13491645 0.037860613 -0.18637782 0.085817285 0.064291395 0.17668837 -0.2327588 -0.0066480394
0.12975858 -0.18171236 0.12328103 0.004236872 -0.15571839 -0.05626967 -0.06514666 -0.1014362
-0.13438939 0.008151961 0.027483717 0.18287113 0.095402755 0.09845464 -0.13533908 -0.041718114
0.034450315 -0.16368265 -0.058070716 -0.22632144 0.066996545 0.056862332 -0.0046401992 0.10251696
0.013275838 -0.0007368261 0.040595215 -0.04311821 0.04426566 -0.10612971 -0.07744728 0.061951883
-0.15909714 0.08943908 -0.03293485 -0.059857912 -0.02786469 0.118923545 -0.044281907 0.06360896
-0.17890719 0.14837044 0.09520388 0.11000296 -0.15842089 -0.023287246 0.071346045 -0.08853121
-0.060465463 0.047136303 0.22082059 -0.061367672 0.16572599 -0.050257802 0.04653557 0.35061854
-0.1780014 0.05388311 -0.08571894 -0.014775353 -0.19068252 0.030035563 -0.06675531 -0.19725706
-0.08515745 -0.124622 -0.024753777 -0.089280695 -0.09046518 -0.40586248 -0.15134026 0.215491
-0.14110135 0.2004815 -0.06710915 0.14633037 -0.1857027 -0.11940867 -0.10792568 0.10932921
-0.049835976 0.0892211 0.17428873 0.1363379 -0.14115566 0.0653383 -0.13572805 -0.12596989
-0.19525948 0.19942334 -0.027171453 0.014281361 -0.04451866 0.10068012 0.07119791 0.040380675
0.009033255 -0.09331363 0.04595451 -0.02505226 -0.16812727 -0.13319884 0.0033666827 0.01198015
0.04363967 -0.22101058 -0.092371926 -0.06431344 0.044891782 0.034153167 -0.021665754 0.0885992
0.10309067 -0.2467651 0.19537589 -0.008735203 -0.2686635 0.027325468 -0.08933985 0.035614394
0.20744087 0.17642628 -0.04972058 0.075315215 0.09410052 -0.01942597 -0.30239615 -0.11907826
0.09225031 0.015287521 0.16415468 -0.35643104 -0.02737331 -0.21611701 0.016256372 0.0363583
0.016557323 -0.14093497 0.19633126 -0.17858924 0.03243218 -0.19567132 0.09862805 -0.19760641

bias f4 [32]
00000000: e4e8 a5bd 86b6 5e3d bbd5 08be c320 afbd
00000010: acb1 293e d088 3abe 98f8 13bd d8ac 55be
00000020: ff15 b4be e208 8bbe 0114 b2bd 72e9 943e
00000030: b0dd 9abe 0dd3 4bbd 51a9 9fbd 94b5 a8be
00000040: 942c fdbd 574d 9f3d 383d ffbc 89c0 06be
00000050: 71aa 77be 535e 5a3d 938e b3be c3da e9bd
00000060: 00de 42be 73f8 26be 6c5b 3abe 36d2 b13e
00000070: 408b 5e3b 0bd8 57be fca0 813e aade c2bd
-0.08101061 0.054373287 -0.13362782 -0.08551171 0.16571683 -0.18216252 -0.03612575 -0.20866716
-0.35173032 -0.27155215 -0.08695222 0.29084355 -0.3024726 -0.04976182 -0.077959664 -0.32951033
-0.12362018 0.07778423 -0.031157121 -0.13159384 -0.24186112 0.05331261 -0.35069713 -0.114186786
-0.19029999 -0.16305713 -0.18198937 0.3473069 0.0033957511 -0.21078508 0.25318134 -0.09515126

weight f4 [6, 32]
00000000: a40d 9a3d bad6 2abc 9cf5 60bd 05b6 c13c
00000010: 521f 87bd 343d b2bc d836 a53c f373 dc3d
00000020: 8989 2ebb f74d 653d ee5c 993d e419 d2bd
00000030: 7795 183e e404 b63c fff0 48bd f354 ec3c
00000040: 92bc 9bbd 84f8 fdbc b1c0 6fbd bb73 a6b9
00000050: 83e9 693d e628 3d3c bb13 0cbc 180f 22be
00000060: 335e c73b 38d0 0cbd 265b cf3c ec85 91bd
00000070: 81af 86bd 7ad3 043c 7f6e 88bd d7e1 e13b
00000080: ab86 03bc c460 d33d 75b7 9dbd 21b9 de3c
00000090: 8cd1 963d 6cdb 19bd 9969 da3d 6fa9 793b
000000a0: 9f9d 0ebe 608c 01bd 0767 743c ffa7 acb9
000000b0: c114 b03c 29c2 a73d fd8e 93bd cbe8 cdbc
000000c0: 093c bbbc b6b5 5cbd b5da 31bd 0329 933c
000000d0: ec8a 21bd 19af 653c 9595 b7bd 6183 fbbc
000000e0: 6ec7 693d 85b7 b33c e92c 00bd 6bef 683d
000000f0: 32b8 b0bd ac0a e0bb e6ab b23d 5177 263c
00000100: 995c ccbd 06cc 603e a505 783d 9ae9 13be
00000110: 1137 8d3d 98e9 383d e498 03be 4123 853d
00000120: ce04 89be 9a34 6a3e 5ff7 0fbd b156 7cbe
00000130: a931 843e ab35 d63d 0464 57bd 1cb4 653e
00000140: 647a 993e 7b63 083e 5b44 9f3d 456f 37be
00000150: 8cfc 6ebd 3c7b 43be f6f4 513d 9691 a2bd
00000160: 275c efbd 480b fe3d 5845 92bd 90c1 dbbd
00000170: 5d84 5f3d 76cd 87bd 72f9 4c3d 1191 933c
00000180: 39a4 80bd 6c30 41bd d875 0dbd 7065 9bbd
00000190: 9856 95bb a4f6 733d 3c61 88bd 587f 9bbd
000001a0: 9417 2e3d 6b58 a83d de2c 8bbd c267 c2bd
000001b0: e871 323e 7ce3 ddbb deb7 5fbd e0cc 6e3d
000001c0: 3fa2 83bd 4863 9dbd 2e72 9e3c 82f2 303d
000001d0: f25f a03c c64c 54ba 4093 15bd 23a0 073e
000001e0: 0577 b33c 718e a03d 43b3 2e3d 5c66 01bd
000001f0: bf7b ddbd e1bf 4bbd a642 b4bd a12f fdbb
00000200: 7a0a 553d 2cb1 ab3c 275f 493c 6b77 1dbd
00000210: 35f4 513d 2ed7 39bd 300e b13b b64c 063c
00000220: 719b 36be af23 0d3d ccb8 9e3d 7495 013c
00000230: a81b 23bd 7070 823d ca67 f8bc 19e3 bdbc
00000240: 3eb6 c0bc 28d2 0fbd 3e5f 61bd 9553 413c
00000250: 6e30 44bd e663 493d dbea c5bc 3d04 5a3d
00000260: 6aa7 153d c37d 1bbc c020 8d3d 0ea3 fb3d
00000270: 6390 60bc 5ec0 d9bc 5793 12bd c5a8 833b
00000280: 88c3 253e ea19 e13d 2dfc cf3b 19b3 eebd
00000290: 0745 8fbd f5e2 5cbe 41da 0f3e 27dd a7bd
000002a0: cc60 83be d431 1a3d bb10 3bbe 711b 59bd
000002b0: 635e 9d3e 4f36 ab3d 5084 2cbe 9950 c83d
000002c0: 218f 153e 2410 ba3d f967 3ebd 53ea 973d
000002d0: d5c4 ca3d 67d3 103e e8f9 463e 7530 473d
000002e0: c182 6ebe e756 d5bd b130 95bd a6b7 17bd
000002f0: 8d7b bd3b 0e9e 77bd 4371 68bd 4703 3c3e
0.07522133 -0.010427171 -0.05492173 0.023646364 -0.06597771 -0.0217577 0.020167753 0.10764303
-0.002663227 0.055982556 0.07488428 -0.102588445 0.14900766 0.022219129 -0.049057957 0.0288491
-0.07604326 -0.03100229 -0.058533374 -0.00031748213 0.05710746 0.0115453955 -0.008549626 -0.1582607
0.0060842275 -0.03437826 0.025312018 -0.07105622 -0.065764435 0.008107061 -0.066617005 0.0068933773
-0.008027713 0.10321191 -0.07701007 0.027187886 0.07364187 -0.037562773 0.106646724 0.0038095375
-0.13927315 -0.031628013 0.014917142 -0.00032931563 0.021494271 0.0819133 -0.07205007 -0.025135418
-0.022855775 -0.05388423 -0.043421466 0.017963892 -0.039439127 0.014018797 -0.089640774 -0.030702295
0.057074957 0.021938095 -0.03129283 0.05686895 -0.086288825 -0.0068372097 0.08724193 0.010160283
-0.09978599 0.21952829 0.060552258 -0.1444458 0.06895269 0.045144647 -0.12851292 0.06500865
-0.26761478 0.22871628 -0.03514802 -0.24642445 0.25819138 0.10459455 -0.052585617 0.22431988
0.2997619 0.13319199 0.0777671 -0.1791354 -0.058346316 -0.19089979 0.051259004 -0.079379246
-0.116874985 0.124044955 -0.071421325 -0.107302785 0.05456959 -0.066309854 0.050042577 0.018013509
-0.06281323 -0.04716532 -0.034536213 -0.07587707 -0.004557442 0.059561387 -0.06659171 -0.07592648
0.042502955 0.082199894 -0.06795667 -0.094924465 0.17426264 -0.006771503 -0.05461871 0.058300853
-0.0642743 -0.07684952 0.019341554 0.043200023 0.019577 -0.00080985983 -0.03651738 0.13244681
0.021907339 0.078396685 0.042651426 -0.031591758 -0.10814618 -0.049743537 -0.08801775 -0.007726625
0.052011944 0.020958506 0.0122907525 -0.038443964 0.051258285 -0.045371227 0.0054033026 0.008197
-0.17832734 0.03445786 0.07750091 0.007909168 -0.039821297 0.06369102 -0.030322928 -0.023179578
-0.0235244 -0.03511253 -0.05502247 0.011799713 -0.04789775 0.049167536 -0.02415984 0.0532267
0.03653661 -0.009490433 0.06891012 0.122869596 -0.0137062995 -0.026580986 -0.035785045 0.0040179216
0.1618787 0.10991271 0.0063472004 -0.11655254 -0.06995588 -0.21570952 0.14048101 -0.08196478
-0.25659788 0.037645176 -0.18268101 -0.053004686 0.30736074 0.08359968 -0.16847348 0.09780998
0.1460538 0.0908511 -0.046485875 0.07417741 0.09900824 0.14143144 0.19431269 0.048630197
-0.23292066 -0.10416966 -0.07284678 -0.037040375 0.0057825507 -0.060453467 -0.05674864 0.18360625

bias f4 [6]
00000000: 28e2 cdbe bf38 fc3e 41d6 2bbe c628 94be
00000010: d0e9 a93e 8e73 0fbe
-0.40211606 0.49262044 -0.1678095 -0.28937358 0.33186197 -0.14008924
