models/policy_asm.pt (torch, 67720 bytes, 8 tensors)

weight f4 [128, 27]
00000000: 49aa 07bf 3038 68c0 6645 0cbd 125b fbbe
00000010: 5008 9c3f e96a 973e 4185 7d3c bd15 8cbe
00000020: 6c6a 713c 6ee2 6a3f c0c3 253f 911d 88bf
00000030: 8a1a 3f3f 22d1 3e3f b8ef 8e3e 6fb6 c53f
00000040: 8966 8d3f 0ccd b2be 35a3 923e 0845 c43f
00000050: 5147 edbb f6da 2dbe 0a00 23bd dcd9 e53d
00000060: 12ac 87be af23 7cbd e362 fa3d cddc 2940
00000070: cf22 d33e 5a86 3140 144a 283f f03f 96c0
00000080: 70bf ce3a 2d97 993c cf5e 143e 41e0 7b3e
00000090: 433d 86be e20a 78bf 7570 9f3c 0baa 29bd
000000a0: 00f3 6c3d 361f a83e 7a7a f4bf d235 97bf
000000b0: 4b4a 9c3e 9de4 6e3e dd0d 383f e9b4 b53e
000000c0: d151 8ebe 1c3e 9abe ba5d 6fbd 6526 83be
000000d0: 1328 ecbd 56b1 113c d066 fbbf a56b 8ebc
000000e0: ba92 3bc0 fa35 bc3d 4efe aa3f 1727 143f
000000f0: fc49 663c 9487 04bf dc59 d1be f0ec 83be
00000100: 4f02 a63e 6f4b ad3f c675 033f 47be 9e3e
00000110: f3b2 063e 3551 8d3f e708 8fbe ac83 42bd
00000120: ea1a 38bf ade5 80bf 4993 7abf 978e 8e3c
00000130: de97 bd3e 34c3 11be c217 2e3e fa59 de3e
00000140: 9017 853e e26f a0bf d59b 10be 85f6 f13e
00000150: c02d 2a3f a728 7ebe 7dff 873f 0794 a8bb
00000160: 29aa e23e 71c9 47be 8993 06bf 0ff7 fa3d
00000170: 3ede dc3e 4335 7a3e 5d6c 83bd c03a 0b3f
00000180: 4c10 afbf 3ffd 81bf a3fb 46be 5586 043e
00000190: 76b5 2abe 98fc 64bf 0156 a93d 9197 ab3e
000001a0: b806 053f e172 22be d864 933e 64ef d93d
000001b0: 5f84 243f f214 da3f ad2a 85bf 0bd8 1cbf
000001c0: 0cd8 683f ca6e f03d db86 d13b de21 ae3e
000001d0: 4ad3 ee3e dccd a3bf 63b3 bcbe b614 e33e
000001e0: ab37 d53e 4ded 6abe 443a 2fbf 18f8 49bf
000001f0: 2d1d 87be 1263 083f d05c 0dbf 1e53 d7bf
00000200: eb3e 1ebf b332 89bd c015 dbbe f863 243e
00000210: 9fc6 f53e 3b23 623e caa5 84bd 6609 ddbf
00000220: a22d bfbe 1fbf 9fbf 26f4 09c0 303d 803f
00000230: 5012 bbbe 6f7f 8c3b 7f29 593f 1dab 28be
00000240: 52dc acbe 3446 973e ca1d d1be 2452 83be
00000250: b50a c1be c28f 00be 408a 6dbf 0291 eb3e
00000260: fb2e 003f 324e cbbf f7f0 d53e 8479 363e
00000270: 326f 223e b796 1b3d 4dd7 3c3e 2699 4e3d
00000280: d3f0 96be 8e83 96be 524b cdbf 3da7 fa3e
00000290: af6b 93bf c2ee 053e 9b41 d93f 82b5 1d3f
000002a0: c4ed 6db5 a7f6 08bf 1512 103e b708 b53e
000002b0: fc5f 583f 321c 9e3e f122 eb3e 00fb f83e
000002c0: a6e3 66bd b84e e8be 6654 903f 4952 4fbf
000002d0: 19a7 63bf 69bc 2dbf 4164 36be 76c3 7f3e
000002e0: 7a6b 8a3e 49dd 293e 3f4f 013e 3c4f b83d
000002f0: 16b6 2fbe 832a 7abf 6452 3c3e b70c 22c0
00000300: d94f 52be 8471 053d 207c a43e a6af a1bc
00000310: c6f6 81be c50f 4a3e 197e 143f d2f0 223e
00000320: 6a27 37bd a8b5 343f fb33 73be c3d1 313e
00000330: 8612 a63f a975 90bf 70df 8ebf f575 0bbf
00000340: 3ba2 13c0 2c26 8ebe 9f75 aabd e8bc b8bd
00000350: 6692 8e3d 3852 02be 4689 353d 341e 823c
00000360: 9b60 f3be 2dc6 0b3f c7b7 b5bf 7246 2fbf
00000370: e12f 84be 20bb 9cbf cd7a 363c 6544 c0bf
00000380: 9c95 5dbd 16aa 593f 4585 e0be e8be 39bf
00000390: eb62 983e 0a8a d9be 5527 8abe 4fe9 443f
000003a0: 2566 17bf 21cd 22bf 9c1a 6bbe 480d eabf
000003b0: fd2c 4abd 4a26 943d 966e 483e 9018 833e
000003c0: ebc0 01be e933 273e b30c b4be 6a55 2dbf
000003d0: 2181 70bf e10e 20bf c1d8 9dbe fde3 3f40
000003e0: 5532 203f bc7a 25bd 1a2c 8ebd 7d61 1a3e
000003f0: 28c2 7f3e a1cf bd3e bbd7 b03c 21ef b7bc
-0.5299421 -3.6284294 -0.03424587 -0.4909292 1.2190037 0.29573753 0.015473665 -0.27360335
0.014734846 0.91751754 0.64751816 -1.0634023 0.7464987 0.7453786 0.27917266 1.5446299
1.1046916 -0.34922063 0.28640142 1.5333567 -0.0072411676 -0.16978058 -0.03979496 0.11223194
-0.26498467 -0.061557468 0.122258924 2.6541016 0.41237494 2.7738252 0.65738034 -4.695305
0.0015773606 0.018748844 0.14489292 0.24597265 -0.26218614 -0.96891606 0.019462803 -0.04142193
0.05784893 0.32836312 -1.9099877 -1.18133 0.3052543 0.23329397 0.71896154 0.35489586
-0.27796796 -0.3012551 -0.058438994 -0.2561523 -0.11531081 0.008892378 -1.9640751 -0.017385313
-2.9308305 0.09189983 1.3358858 0.57872146 0.014055725 -0.51769376 -0.4088887 -0.25766706
0.32423636 1.3538646 0.51351583 0.31004545 0.13154201 1.1040407 -0.2793648 -0.047488853
-0.7191607 -1.0070091 -0.9788099 0.017401977 0.37029928 -0.1423462 0.1700125 0.43428022
0.2599454 -1.2534144 -0.14121945 0.47258392 0.6647606 -0.24820195 1.0624844 -0.0051445994
0.44270447 -0.19510438 -0.5256887 0.12254154 0.43138307 0.2443438 -0.06417153 0.5438652
-1.3676848 -1.015541 -0.1943193 0.12941869 -0.16670784 -0.8944793 0.08268357 0.33514073
0.51963377 -0.15864135 0.28787875 0.10641363 0.6426448 1.7037642 -1.0403649 -0.61267155
0.9095466 0.11739881 0.00639425 0.34010214 0.46645576 -1.2797198 -0.3685561 0.4435174
0.41644034 -0.22942086 -0.6844828 -0.78894186 -0.26389447 0.5327617 -0.55219746 -1.682224
-0.61814755 -0.06699123 -0.4279003 0.1605376 0.48003098 0.22083752 -0.06476934 -1.7268493
-0.37339503 -1.24802 -2.1555266 1.0018673 -0.3653741 0.004287652 0.84828943 -0.16471525
-0.3376184 0.29545748 -0.4084304 -0.25648606 -0.3770348 -0.12554839 -0.9278908 0.4600907
0.50071687 -1.5883238 0.41785404 0.17819792 0.1586273 0.03798553 0.18441506 0.050439022
-0.2948061 -0.29397243 -1.6038611 0.48955718 -1.1517237 0.1307936 1.6973146 0.61605084
-8.8635375e-07 -0.5350136 0.14069398 0.3535821 0.8452146 0.30880886 0.45925096 0.48628998
-0.056369446 -0.45372558 1.1275756 -0.8098493 -0.88926846 -0.67865616 -0.17811681 0.24976906
0.27035123 0.1658832 0.12627886 0.08999488 -0.17159304 -0.9772112 0.18390805 -2.532026
-0.20538272 0.03257896 0.3212595 -0.019737076 -0.25383586 0.19732578 0.5800491 0.15912178
-0.044715323 0.70589685 -0.23750298 0.17365174 1.2974403 -1.1285907 -1.1161938 -0.54476863
-2.3067768 -0.27763498 -0.08323216 -0.09020406 0.06961517 -0.12726676 0.044320367 0.015883543
-0.47534642 0.5459927 -1.4196709 -0.68466866 -0.2581778 -1.2244606 0.011137676 -1.5020872
-0.054097757 0.85025156 -0.43851677 -0.72556925 0.29762968 -0.42488128 -0.26983133 0.769185
-0.59140235 -0.6359425 -0.2295937 -1.8285303 -0.04935931 0.072338656 0.19573435 0.25604677
-0.12671249 0.16328396 -0.3516594 -0.67708457 -0.93947035 -0.62522703 -0.30829433 2.9982903
0.625768 -0.04040025 -0.069420055 0.15076251 0.24976408 0.3707247 0.021587243 -0.022452893

bias f4 [128]
00000000: 4c5b babd 08ed a6be 336f c33b 4573 98be
00000010: 42ec 7cbd 89ba d23d 7d24 08bf 5bc3 86bd
00000020: 01c9 e93d 15d4 d1be 5f5b 88bc 65db 06bd
00000030: 3f22 4cbe da96 38be 873e c0be 488b b1bc
00000040: 1001 17be 04f5 88bd 3c1e 91be 496b 343c
00000050: 7417 08be 5142 afbe 7615 af3d 6224 5ebe
00000060: 9f00 babd c25a 693e 1b0e 80bd a19b f33d
00000070: 226f bfbd 6998 2f3e 835d 7bbe ba2b 78be
00000080: bc90 0a3e 464e a03d af87 95bd 3075 693e
00000090: e678 2abf 2197 48be 7e87 423c 7f27 813d
000000a0: e657 6e3b 9e9a 2b3e 4c39 7cbe fa97 083e
000000b0: 57d1 b0be 4a43 10bf 0e19 86be 6490 f43c
000000c0: d213 8d3d 9a27 2abe 322a a4be b0a5 86bd
000000d0: 8f21 783d 68ab 43be 149c b9be 9b86 bebe
000000e0: e510 c0be e59e 0e3e 447a a9bd dfd9 c33d
000000f0: 189f 303e acca 01be 2007 0fbf 5b7c c13d
00000100: aba3 c83d de6c edbd f7c4 18be 7fa3 3bbe
00000110: 61db 82be c2ec b0be 0540 f4bd 9e6f f3be
00000120: 3840 5ebd 90b2 43be e11e 2cbe 5f2b 5ebe
00000130: a8fc aebe 06dd c23e 4945 cbbe 17f0 cdbc
00000140: f743 123e 406c a9be ccf1 08bf 3406 28bd
00000150: 3a1c 69bc 60bb a6be 71f7 50bd 048c fbbd
00000160: 2b3c abbd db53 0a3e f24a b3bd e711 16be
00000170: a571 d9be 8ccd 41be aa1f e3bd 6e69 23be
00000180: bd5b 503d 49e5 193e 32d7 353d d61e 4dbd
00000190: a632 1ebc 71c4 70bc 7de7 97be 5314 31be
000001a0: 17e3 573e dd2a 083e 4a59 44be bd48 cabe
000001b0: 5936 d8bd c219 3ebe fd48 bebc 0286 be3d
000001c0: 5e4e c9be 57d8 41be 498a 9cbe 177f e1be
000001d0: 80d8 86be efe8 7cbe a287 c4be afa1 1dbf
000001e0: 3c1d ab3d 5a6d 393a f420 babe 7453 67be
000001f0: 7562 99be 3779 773e 4768 b63d 1fb5 fcbd
-0.09099445 -0.32602715 0.0059641837 -0.29775444 -0.06174875 0.10289485 -0.53180677 -0.0658023
0.114152916 -0.40982118 -0.016645132 -0.032924075 -0.19934939 -0.18026295 -0.37547705 -0.02167286
-0.14746499 -0.06687358 -0.2834338 0.011011907 -0.13290197 -0.34230283 0.08549015 -0.21693566
-0.0908215 0.22788528 -0.062526904 0.11894918 -0.09347369 0.17147984 -0.2454739 -0.2423543
0.13531774 0.078274295 -0.0730127 0.2279861 -0.66590726 -0.19588901 0.011873124 0.063063614
0.003636831 0.167582 -0.24631232 0.13339224 -0.34534714 -0.56352675 -0.2619099 0.029854007
0.06888546 -0.1661667 -0.32063442 -0.06574571 0.06057888 -0.19108355 -0.3625189 -0.3721207
-0.3751289 0.13927801 -0.082752734 0.0956304 0.1724819 -0.1267497 -0.55870247 0.09447547
0.09796842 -0.115930304 -0.14918886 -0.18324088 -0.25557998 -0.34555632 -0.11926273 -0.47546095
-0.054260463 -0.19111085 -0.16808654 -0.21696232 -0.34177136 0.38059253 -0.39701298 -0.025138898
0.14283739 -0.330904 -0.5349395 -0.04102154 -0.014227921 -0.3256483 -0.05101723 -0.12282565
-0.083610855 0.13508551 -0.08754529 -0.14655267 -0.42469516 -0.18926066 -0.11090024 -0.15958187
0.05086874 0.15028872 0.04439468 -0.050078236 -0.00965563 -0.014695273 -0.296688 -0.1729291
0.21082722 0.13297601 -0.19174686 -0.3950862 -0.10557241 -0.18564513 -0.023228163 0.09302904
-0.39317602 -0.18930183 -0.30574253 -0.44042274 -0.2633705 -0.24698232 -0.3838473 -0.61574835
0.083551854 0.00070734846 -0.36353266 -0.22590429 -0.2995793 0.24167334 0.08906608 -0.123392336

weight f4 [64, 128]
00000000: 634e cebe 7e2c d63c 04cd 8e3d e350 5dbe
00000010: b33d 6d39 aef3 913d 884d b3be b984 10be
00000020: 2b8d 0cbe acf7 ce3d e717 04be e7aa b63e
00000030: 38ef 353d c60f e1bd 60a2 afbd 4e26 a83c
00000040: f52e f7bc fa5d 7fbe e961 d5bc 71fd 74be
00000050: 07a7 04be 8bdb 58be 0ddb acbe f1ec c4bd
00000060: b490 3dbd e0fa c73d ac59 8ebe 125f 2c3e
00000070: c970 8fbe 2002 21be 290b 9bbe a9e2 8ebe
00000080: d735 08bc f413 50be 23ce 1abe cb1a 24bd
00000090: c21e f1bd 0d68 a93d 39d2 28bd 2149 b13e
000000a0: df15 3c3e 1d92 c73d 1a97 5fbe 88ef 433d
000000b0: d278 03bd e4fc c13d 7d62 84bd 6124 27bd
000000c0: 7576 a6be e09e ccbd 1c6f e2bb 9bb2 4cbe
000000d0: 6b40 48bc 50eb 99bd e496 3bbd a2d8 cfbd
000000e0: 97f1 ed3d 5d3d a43d cc0f 853e 581f 24be
000000f0: f6ff 473d 7e39 5bbe 5ccc 95be c713 b5bd
00000100: 8f15 68bb 29be 28be 2ff0 34be 804e 2e3e
00000110: 0551 9abd 3b98 0ebe 80b1 1bbe c2c1 2abd
00000120: e067 a4be 6e34 e6bd 9316 07bd f4b7 2fbe
00000130: 77d6 d4bd 486e c4bd bcb2 67be 3328 ea3d
00000140: a6da e7ba e531 acbb 49b2 3cbe 9d4e 61be
00000150: 2c91 193e 0abd 28bd 7d91 5cbd 33d7 b93d
00000160: 82c2 38be 5a99 bdbd 7d6b 5abe fe0e 62bd
00000170: b0f4 883c 439a 65bd f95f 653d ea85 d73d
00000180: 9ecf a33d 46f7 72be 9c36 ecbb eee7 66bc
00000190: e4ad 693d 32cc e93d e083 d4bd d37a 18be
000001a0: 602a 6f3e 8eff 013e 6a77 d5bd 853b 9c3d
000001b0: 2ae4 87be 88cc 1bbe c922 153d 5e80 5abd
000001c0: c569 c13c 4582 d6be b6b5 c6be d1f2 9c3d
000001d0: 493e 073c c360 1ebe a477 22bb 7914 74bf
000001e0: 3994 fd3d b4d3 d5bd 94b2 d9bd b4c6 54bd
000001f0: 21d1 3fbd a711 8c3d 6d4d c3ba e6c2 513d
00000200: 2170 2abf 601b c0bc 5d6b 8d3c a796 d1bd
00000210: 6c6b 4dbe d058 b5bd 1959 f1be ffb3 083e
00000220: a62d 673e d6e3 a2be b200 463c 0eec 213d
00000230: 6a7c 45be d61a bf3d eab0 1bbd a2b5 c1bd
00000240: 31a2 953d 11ab cebe aff6 2cbe 02b6 203e
00000250: f67c cebd 8dd5 a4be 39ae b93c 4699 22bf
00000260: 213f 8b3d 6cf7 083e 11c3 a13e c0d7 d3be
00000270: a59e ae3e b17c 3f3e 1da8 d0bf 1674 013b
00000280: 50f5 e4ba ebf6 bf3e 908b f83d 9a33 883e
00000290: ff87 2cbf dd9b 8e3d 3422 053e 77d3 c03e
000002a0: 79f3 153b 9530 b63d 2cb7 11bd 4561 14bd
000002b0: 757a f6bd ced1 7cbe d778 aebc f3d8 d63d
000002c0: 0ec7 17bd 590a 773d f8af adbd 85d5 fdbd
000002d0: ed59 c2bd 32e2 f8bd 5199 efbd 9844 dcbd
000002e0: 14b4 e7bd c3a3 363d 6728 1ebf 52ce c8bb
000002f0: 1f3c a8bd a49a 07bf 2eb0 0bbf 4620 f3bd
00000300: 87d4 f9bc 29b9 0cbe 5655 1e3e 0356 b53d
00000310: da4d c8bc 46de 123e 645b fc3d 0019 7c3d
00000320: f39d 733e e21a 0abd 71e2 d2bc 7960 f0be
00000330: a663 87be 5c0b 403f 6aa1 643e cef0 c1be
00000340: 88b6 3cbe 396b 48be 3c56 02bf c992 0d3e
00000350: 3499 323e e901 ecbd 3747 55bd ac5a 55be
00000360: 6aad 293e 26e0 aabd bc8f 0b3e 6e2f 22bf
00000370: f575 88bc 6eff 0cbe f57a 34bd 7a82 10bf
00000380: 6901 673e aea4 373e ff31 9b3d 0e9a 01bd
00000390: eaf4 983e 3e18 6d3d 1901 80bd 954c cdbb
000003a0: b20d cb3d 82fc a23c 6ee2 cdbd d29d fdbd
000003b0: 33a9 81bf 02d6 0fbe f48f ae3d 88d7 cc3d
000003c0: 50fe afbc 041a 56bf 4bc2 f7be 7e99 40be
000003d0: 8f4c 68be 2398 d8be fa5f d9bd 9e09 61bf
000003e0: d15d 143e 8ca6 883d be70 7ebe 79fe c2be
000003f0: 8aa1 863e fd57 5d3d 1d0d 0dbe 7d59 093d
-0.4029418 0.026144262 0.069726974 -0.21612887 0.00022625066 0.07126556 -0.3502009 -0.1411313
-0.13725726 0.101058334 -0.12899743 0.35677263 0.04441759 -0.10989337 -0.085758924 0.020526078
-0.030173758 -0.24938193 -0.026047664 -0.23924805 -0.12954341 -0.21177499 -0.33760872 -0.096155055
-0.046280578 0.097646475 -0.2780279 0.16833141 -0.28015736 -0.15723467 -0.30281952 -0.27907303
-0.008313618 -0.20320112 -0.15117697 -0.040064614 -0.11773445 0.08271799 -0.04121611 0.34626105
0.18367718 0.09744666 -0.21834984 0.047835857 -0.032097645 0.09472063 -0.06464098 -0.040806178
-0.3251225 -0.099912405 -0.006910218 -0.19990008 -0.01222239 -0.075155854 -0.045798197 -0.10148741
0.11618345 0.080195166 0.25988615 -0.16027582 0.048828088 -0.2140865 -0.29257476 -0.08841663
-0.003541324 -0.1647879 -0.17669748 0.17022133 -0.075349845 -0.13925259 -0.1520443 -0.041688688
-0.321105 -0.11240469 -0.032980513 -0.17160016 -0.103924684 -0.09591347 -0.22626776 0.11433449
-0.0017689064 -0.0052549713 -0.18427385 -0.22002645 0.14996785 -0.041195907 -0.053849686 0.09074249
-0.18042949 -0.09257765 -0.21330066 -0.05519008 0.016718239 -0.05605532 0.05599973 0.10523589
0.07998584 -0.2372714 -0.0072086584 -0.014093382 0.0570506 0.114159 -0.10376716 -0.14890604
0.23356009 0.12695143 -0.10423167 0.0762854 -0.26541263 -0.15214741 0.036410127 -0.053345077
0.023610005 -0.41896263 -0.3881051 0.07663501 0.008254596 -0.15466599 -0.002479055 -0.9534374
0.12381787 -0.1044077 -0.10629764 -0.05194731 -0.0468303 0.068393044 -0.0014900394 0.05121126
-0.66577345 -0.023450553 0.017263109 -0.10233813 -0.2006051 -0.0885483 -0.4713829 0.13349913
0.22576007 -0.3181445 0.012085127 0.03953176 -0.19285741 0.093312904 -0.038010515 -0.09458472
0.07306326 -0.40364888 -0.16890977 0.1569443 -0.10082428 -0.32194176 0.022666084 -0.63515127
0.0679915 0.13375634 0.31594136 -0.41375542 0.3410541 0.1869991 -1.6301304 0.001975303
-0.0017468128 0.3749307 0.121359944 0.2660187 -0.67395014 0.06963322 0.13001329 0.37661335
0.0022880717 0.08895985 -0.035575077 -0.036225576 -0.120350756 -0.24689409 -0.021297855 0.104905985
-0.037055068 0.060312603 -0.08480829 -0.12394241 -0.09489808 -0.12152518 -0.11699165 -0.10755271
-0.11313644 0.04458977 -0.617804 -0.006128111 -0.08214592 -0.5297034 -0.54565704 -0.1187139
-0.030496849 -0.13742508 0.1546224 0.08854296 -0.024451185 0.14342603 0.12322119 0.06154728
0.23790722 -0.033717044 -0.025742741 -0.46948603 -0.26443213 0.75017333 0.223272 -0.37879032
-0.18429005 -0.19572152 -0.50912833 0.13825525 0.17441255 -0.11523802 -0.05206987 -0.2083537
0.16570058 -0.08343534 0.13629049 -0.6335362 -0.016657809 -0.13769314 -0.044062573 -0.5644909
0.22559132 0.17933914 0.075778954 -0.03164106 0.29874355 0.057884447 -0.06250209 -0.006265233
0.099147215 0.019895796 -0.10052954 -0.123836175 -1.012976 -0.14046481 0.08523551 0.10002047
-0.02148357 -0.83633447 -0.4839042 -0.18808553 -0.22685455 -0.4230357 -0.10614009 -0.879053
0.14488913 0.06672391 -0.24847695 -0.38084772 0.2629512 0.05403899 -0.13774534 0.03353261

bias f4 [64]
00000000: f566 74be 8131 b73c 7187 17be dd57 90be
00000010: d275 20bd cc11 8bbe bf4a 64be 7d54 19be
00000020: bd61 a83d 5815 a03d f5d2 4cbe 06b0 113a
00000030: df08 36be 9f45 61be 4e51 71be 4aa7 b0bb
00000040: 38b6 a6bc bf06 f63b 1fe0 fe3d b26d 74bc
00000050: 8f94 30bd 87e8 ecbd ee47 1dbe 0c29 28be
00000060: 5a0a 6fbe d8f6 543d 992d 843d 0c87 adbd
00000070: dfdd 023d 09d9 0cbe a2ca 4cbe 2d4a 88bd
00000080: b7fd 5dbc bc63 81bd bf73 c2bd 62d3 46be
00000090: 44de 0fbe f701 6cbd db24 99bb e1b6 3abe
000000a0: 07c2 c93c ca0f e4bd bc25 c13d 4013 52be
000000b0: 5ede c9bc 4cc5 16be d4bb a53c 3e5e 8fbd
000000c0: cd00 4c3c 7267 9cbe aa89 19be d3ce bd3c
000000d0: 6abf 34be 2990 95bd 9b6c 23be 8128 99be
000000e0: 3426 83be 233b 77ba 49fe 21be 1afa 0bbd
000000f0: 9942 6bbc af7b be3c 02ef 963d da5e d2bd
-0.238674 0.022362472 -0.1479776 -0.28192034 -0.039174862 -0.27162015 -0.22294138 -0.14973636
0.08221767 0.07816571 -0.20002349 0.00055575406 -0.17776822 -0.21999215 -0.23566172 -0.005391036
-0.02035056 0.0075081284 0.124450915 -0.0149187315 -0.043110427 -0.115677886 -0.1535947 -0.16421908
-0.23343793 0.05199322 0.064540096 -0.08473024 0.031949874 -0.13754667 -0.19999173 -0.06654773
-0.01354926 -0.06317851 -0.09494733 -0.19416574 -0.14049631 -0.05761906 -0.004673583 -0.18233825
0.024628652 -0.11135824 0.094310254 -0.20515156 -0.024642166 -0.147237 0.020231165 -0.07000397
0.012451363 -0.30547673 -0.14993921 0.02316991 -0.17651144 -0.07302887 -0.15959398 -0.29913715
-0.25615084 -0.00094311143 -0.15819658 -0.034174062 -0.01435914 0.023252336 0.07369806 -0.10271998

weight f4 [32, 64]
00000000: 6148 8cbd ec12 8bbe 28e6 2cbd 03b1 8fbe
00000010: 3d0c 2c3e 7eba 0b3e 6135 433d 411e c3bd
00000020: 4bcd 523e f841 86bd 81ed 97bd b7b3 4dbe
00000030: e3b3 c63d 3a78 82bc 7911 94bd bba7 db3d
00000040: 5f0f 7fbd 93d2 59bd a136 8ebd 8bdf 093e
00000050: 8513 393d bbe9 bcbd 024c 393c 08cd bc3d
00000060: 8cf1 4c3d fbe0 e43c 1f98 0e3e 155e 883d
00000070: 9bd9 d0bc 1049 a53d 0213 ab3d dc02 663d
00000080: 5add 5bbe 9904 01be b430 76be 1704 b8bd
00000090: 7354 b5bd e974 4cbe e1d5 cabc d359 af3d
000000a0: 0ce0 44bd b924 383e ff0a 413c 09ed ba3c
000000b0: 7a83 a0be f8b0 4f3d f89b bc3d 2681 8c3d
000000c0: 5eeb 0ebe ceab 82bd 2cf2 ae3b 565e c43c
000000d0: b766 453e ba5f 3ebd 05d8 90bd 0414 28be
000000e0: 1aea 823d afac 88bb cdfa ad3d 88b3 6dbd
000000f0: 8dbd debb 4cb2 6f3e 135f 273e 154e 623e
00000100: 20d1 04bd 01fb b5be a23f 60be 1005 37be
00000110: d0b4 05be 98ba aa3d 55fb 71be 23a4 9cbd
00000120: 8ccf 483d 910e 2ebe 76f3 9a3d b3a6 e1bd
00000130: 4d1f 2bbd 8c1c 59bc 989e 183d ad6b b63c
00000140: fffa da3d 9b02 bc3d 03f9 c5be 8d15 ffbd
00000150: 0c89 d53c 026e 413d 1634 6c3d d289 873d
00000160: 180c cfbd 2b02 95bd 46c1 dcbd e904 54be
00000170: 9c7a 44bd 7feb 6b3d 7fe1 083e f90f 273d
00000180: fcb1 cc3d 436b bf3d 6a56 423d ef02 c7bc
00000190: 0035 13be 5adc e53d d852 53bd 3a68 4fbd
000001a0: b5e0 d3bd 4559 e13c 661b 43be b964 993d
000001b0: d2bb 8b3d 635d 053e b9b9 13be 5225 6d3c
000001c0: e2a4 d43d b459 46be 2e3d 233e e3be f23b
000001d0: 553d 01be b8fb f3bc e649 2cbd d7fa d7bd
000001e0: bda8 06be a26c 01bb cbb7 9bbd 49b2 203e
000001f0: c3ab a63d 4834 153d 8d34 04be 151e 503d
00000200: 87d6 2938 3786 59be 2d21 70bc 25f0 2abe
00000210: 621f e93d 7e5a 873d 22ce 923c 061d d13d
00000220: 8b1f 03bd f896 e93d b36a b53d 6d43 14bc
00000230: e3c1 d63d 90c6 ddbc f4b7 bdbc 475c 043d
00000240: 535f dcbd aa62 223e 6cc6 5ebb 8afd 44bd
00000250: 2858 e13b e317 1f3e 4edc ad3b 4fe4 d73d
00000260: e911 4bbd 2045 953d 2dbb ad3d 567e 743d
00000270: d80a f5bd 2730 aa3c 0dae 083e 84b0 19be
00000280: a10b d1bd 4fb4 90bb 47d7 1c3e e96b b4bd
00000290: 0069 5f3e 4007 a9bb fbe9 7d3d 45dc b03e
000002a0: d718 bfbd a201 a73a 768e 2abd a53b 213d
000002b0: 1246 45be 57dc 013d 41b1 e5bd 7c46 39be
000002c0: caf5 edbd b18c 9abd 4716 9e3c 8417 19bd
000002d0: 17c9 613c 3003 94be 5a82 40be cf31 c13d
000002e0: a57a e4bd 2a1e 2b3e dd0e 13bc 80bd 4d3e
000002f0: 7bcf 14be 88f4 1fbe 2775 37be cd25 403d
00000300: ba42 11bd bff0 b53d aa43 403e 2eab 073e
00000310: af38 0bbe 5368 a43c 7674 37be 059c eebd
00000320: 0a33 59be 8f2e 263e bc5d 1ebd e580 963c
00000330: 39ea 02bc 1b87 933d 15bf 8d3d f380 013d
00000340: 0c9c 463b 0980 89bd f282 603d 1e48 9dbb
00000350: 83fd 0ebe f1a0 17be 1ddd 953a 629f 38bc
00000360: 57c6 013d 600d 65be 5f16 c1bd 616e 88bd
00000370: 8e5f 333d 423e 4f3c d5a7 bfbc 64a8 bc3d
00000380: fa6e d33d 7fff 89be dd4c 403e b1ac 06bc
00000390: 7830 8bbe 633d 5a3d c93b bbbd f3a2 f43c
000003a0: d50a 5b3e 4f1a 3a3e ac31 9ebd 2d78 923d
000003b0: 6cc3 b73d 7f8b 6dbd afc0 95be 0dd0 15be
000003c0: 77ca b93d f82a 3f3c c5ee 103e 1a4a bfbe
000003d0: 262b a2bd fcb5 85be 58e0 333c 0ceb e23c
000003e0: 1b1e 9e3c 6f1e 22be 73d1 453e ba59 30be
000003f0: 3700 383d cbe1 3cbe ff41 d33d c7fd 3abe
-0.06849743 -0.27162874 -0.04221168 -0.28064737 0.16801544 0.1364536 0.047658328 -0.09527255
0.20586126 -0.06555551 -0.07418347 -0.20088087 0.097022794 -0.01592647 -0.07229895 0.107253514
-0.06227052 -0.053179335 -0.069440134 0.13464181 0.04518463 -0.09224268 0.011309626 0.09218794
0.050035045 0.02793931 0.13925217 0.0665857 -0.025494387 0.08070576 0.08353235 0.05615507
-0.21471158 -0.1259941 -0.24042016 -0.08985155 -0.08853998 -0.19966473 -0.024760189 0.085620545
-0.04806523 0.17982759 0.011782407 0.022818105 -0.3135031 0.05070588 0.09209436 0.068605706
-0.13956973 -0.063804254 0.0053389277 0.023970764 0.19277464 -0.04647801 -0.070724525 -0.16413885
0.063923076 -0.004170976 0.08495102 -0.058032542 -0.0067974986 0.23407859 0.16344862 0.22100098
-0.032426 -0.35543063 -0.21899274 -0.17873025 -0.13057256 0.08336371 -0.23631032 -0.07648494
0.049026057 -0.16997744 0.07565968 -0.110181235 -0.041777898 -0.013251435 0.03726062 0.02226814
0.10692405 0.091801845 -0.38666543 -0.12455282 0.026066326 0.047224052 0.05766686 0.06618084
-0.101097286 -0.07275804 -0.107790515 -0.20704998 -0.047968492 0.057597633 0.1336727 0.040786717
0.09994885 0.093466304 0.047445692 -0.024293391 -0.14375687 0.11223669 -0.051592678 -0.050636508
-0.10345594 0.027508387 -0.1905342 0.074899144 0.06822933 0.13023905 -0.14426316 0.01447423
0.103830114 -0.19370157 0.15941307 0.0074080094 -0.12621053 -0.029783115 -0.042062663 -0.10545891
-0.13150306 -0.0019748588 -0.07603415 0.1569301 0.0813823 0.036426812 -0.12910672 0.05080994
4.0492534e-05 -0.21242605 -0.014656347 -0.1669317 0.11382939 0.06609057 0.017920557 0.10210614
-0.032012504 0.11405748 0.08858242 -0.009049279 0.104862 -0.027072221 -0.023159005 0.032314565
-0.10760369 0.1585795 -0.003399278 -0.048093356 0.006876964 0.15536456 0.0053058034 0.10541593
-0.049577627 0.07288575 0.084829666 0.059690796 -0.11964959 0.020774914 0.13347645 -0.15008742
-0.10207296 -0.0044160257 0.15316497 -0.08809645 0.21817398 -0.005158335 0.06199072 0.34543052
-0.0933091 0.0012741575 -0.041639768 0.039363522 -0.19265011 0.031704273 -0.11215449 -0.18093294
-0.11619146 -0.07546366 0.019297732 -0.037375942 0.013780854 -0.28908682 -0.18799725 0.09433328
-0.11156205 0.16710725 -0.008975712 0.2009182 -0.14532273 -0.15620625 -0.17915784 0.04691105
-0.035464026 0.08883809 0.18775812 0.13248894 -0.13595842 0.020069277 -0.1791552 -0.11650852
-0.21210876 0.16228698 -0.03866361 0.018372009 -0.007990413 0.07203504 0.06921212 0.031617116
0.0030305414 -0.06713874 0.05481238 -0.004799857 -0.13963895 -0.14807488 0.0011433695 -0.011268469
0.031683292 -0.22368383 -0.09428095 -0.06661678 0.0437923 0.012649121 -0.023395458 0.092118055
0.103239015 -0.2695274 0.18779321 -0.008219884 -0.27185416 0.0532812 -0.091422625 0.029862856
0.21390851 0.18174098 -0.07724318 0.07151828 0.08972821 -0.057994362 -0.29248568 -0.14630146
0.0907182 0.011667959 0.14153583 -0.37361223 -0.07918386 -0.26115406 0.010978781 0.02769997
0.019301465 -0.15831922 0.1931818 -0.17221728 0.04492208 -0.18445508 0.10315322 -0.18260871

bias f4 [32]
00000000: 5d49 7cbd 3f22 863d 4998 37be 8aca a7bd
00000010: 9d9c 2b3e 433e 3cbe a769 22bd cf4e 4dbe
00000020: 986d b6be 1271 8cbe eec8 b2bd 84c3 943e
00000030: 020c 9fbe e207 41bd bffd a5bd 464a abbe
00000040: 53d9 f1bd 5d5e b03d 4c0d 18bd b687 03be
00000050: 7fd1 77be 047d 653d 0873 b5be ae8e ecbd
00000060: ad2e 41be 0a1f 32be 9807 39be 5afd b03e
00000070: e416 2e3c ebb8 57be 34f7 843e f575 c3bd
-0.061593402 0.06549501 -0.17929186 -0.08192928 0.16758962 -0.18383126 -0.03965154 -0.20049594
-0.35630488 -0.27430016 -0.087297305 0.29055417 -0.3106385 -0.04712666 -0.08105039 -0.33455104
-0.118090294 0.08611748 -0.037122056 -0.12844738 -0.2420101 0.056027427 -0.35439324 -0.115506515
-0.18865462 -0.17394653 -0.18069303 0.34568292 0.010625575 -0.21066634 0.2596985 -0.09543983

weight f4 [6, 32]
00000000: a254 e53c aa1a b5bc 05df 62bd ba86 d63c
00000010: 40b7 c5bd d6db 4bbc 1a83 cd3c 76e9 c53d
00000020: f33b df3b 8463 523d dcef 913d 367f dabd
00000030: 8398 1a3e 7f44 ae3c 32cc 3ebd 3dae 013d
00000040: f01d a8bd 2105 bfbc 39e5 79bd 7604 503c
00000050: 551c d23d fdd2 563c 3a49 ecbb 2c71 21be
00000060: 136e 13bb fad2 76bd 916e eb3c fa66 96bd
00000070: e4ca 95bd 412e 8c3c a2f5 94bd 1787 983c
00000080: 394b d2bc 9fd6 b93d 21b2 a7bd b0cd 273d
00000090: fd7d a33d 3cba bcbc c732 fe3d 850f 7f3c
000000a0: 7d83 1fbe 5153 38bd f550 343c c5f3 83bb
000000b0: b4a6 a83c 0d27 b83d 3ec1 9ebd 5a86 e2bc
000000c0: 7316 15bd 811e 7bbd 8922 3fbd f586 0d3d
000000d0: 0912 95bd 3e3c 0f3d 59d8 cabd eaaa 6fbd
000000e0: 908b 7d3d 2694 b53c 6f33 8dbc f702 873d
000000f0: caed b2bd 58aa 55bb af39 c43d 9673 dc3c
00000100: 84ab 92bd e62f 353e 9c15 3d3d 2b42 19be
00000110: d410 333d 99c2 733c 5dd6 f0bd 2954 a13d
00000120: 641d 8dbe 7dcb 693e 95c5 eebc b8e7 57be
00000130: c650 8c3e fcf6 f63d f9c6 89bd 53a8 683e
00000140: 4afa 913e 59ec 093e 7300 863d c6d6 fdbd
00000150: 7c97 f3bb 6812 26be 1e28 693d 7682 e9bd
00000160: a76f e1bd 8233 e23d d1d8 16bd aa2a dfbd
00000170: 68cf 353d 7312 12bd 517b 263d a0a5 2c3d
00000180: f1f8 58bd 9b82 87bd b00d dbbc ee11 97bd
00000190: 9b04 70bc b4a4 a23d 7fd0 9cbd 7d1b 84bd
000001a0: 8d95 373d e99e a63d 821e 81bd 4ba3 aebd
000001b0: 247d 353e aaa7 6bbb 421d 50bd e122 7b3d
000001c0: 01ee 77bd a1d1 a1bd dc08 0bbc be22 273d
000001d0: fa6d 5aba c154 3fbb d7b6 18bd 7780 f23d
000001e0: 6957 083d 7d27 633d 6233 ee3c 94c7 08bd
000001f0: 14ac e1bd df13 33bd 34bc a9bd 71d4 bbbc
00000200: 88af 903c 901b d13c cb2c af3c 9b56 62bd
00000210: 71af 813d 1e59 07bb f818 75bc 52f3 753b
00000220: 2325 4abe 88b8 323d b5aa 9c3d fa20 6a3c
00000230: c459 06bd 7b48 883d 9cb6 44bd 3acc afbc
00000240: 0efc 15bd 12c9 04bd 4015 6bbd e0c7 763c
00000250: 42e0 27bd 5bf2 613d d08f fcbc 39c8 a63d
00000260: edfb 4b3d 6020 65ba aee8 ae3d 31c8 043e
00000270: 0527 81bc 8826 eebc 2f35 15bd 0f54 12bc
00000280: aae4 f53d 28eb c13d 1f00 c8bb e41d 07be
00000290: d634 9abd bf48 13be 34f7 003e af24 a4bd
000002a0: 1e91 7dbe 226e 373d 2c9a 29be 876c 51bd
000002b0: 59f4 a23e 3656 9d3d bd4e 1fbe 3cc4 c23d
000002c0: ac47 033e 5441 af3d 004b 87bd 6e23 843d
000002d0: f2a0 d43d c40e 153e c19e 483e c47e a13d
000002e0: 7fd5 5cbe 66a1 adbd dbbf d6bc 1031 28bd
000002f0: ce9f 11bc b967 4cbd 832c 86bd b0a6 513e
0.027994458 -0.022107441 -0.05538847 0.02618729 -0.09654093 -0.01244255 0.025086928 0.0966367
0.0068125664 0.051364437 0.07125828 -0.10668795 0.15097241 0.021272896 -0.046581455 0.031660307
-0.08208835 -0.023317875 -0.06100962 0.012696376 0.1025931 0.013111827 -0.0072108777 -0.15765828
-0.002249603 -0.060259797 0.028739246 -0.0734386 -0.07314089 0.0171119 -0.07273413 0.018619103
-0.025670635 0.09074139 -0.08188272 0.040967643 0.07983015 -0.023038022 0.12412029 0.015567665
-0.15577503 -0.04500133 0.01100563 -0.0040268623 0.020587303 0.08991823 -0.07751702 -0.027651954
-0.036398362 -0.061308388 -0.046663795 0.034552533 -0.072788306 0.03496956 -0.09904546 -0.058512606
0.061900675 0.02216537 -0.01723644 0.065923624 -0.08736761 -0.0032602753 0.09581315 0.026910584
-0.0716162 0.17694053 0.046163186 -0.14966647 0.04371722 0.014877939 -0.117596366 0.078773804
-0.27561486 0.22831531 -0.029146949 -0.21084487 0.27405375 0.12058827 -0.06727404 0.2272046
0.28511268 0.13469066 0.065430544 -0.123944804 -0.00743383 -0.16217959 0.056923024 -0.114018366
-0.11007624 0.110449806 -0.036827866 -0.108968094 0.04438725 -0.035662126 0.040644947 0.04215014
-0.052971784 -0.06616708 -0.026739925 -0.07376467 -0.0146495355 0.07941571 -0.07656955 -0.064505555
0.044820357 0.081357785 -0.06304647 -0.085272394 0.17723519 -0.003595809 -0.050809152 0.06131256
-0.060529713 -0.07901312 -0.008485999 0.040804617 -0.0008332428 -0.0029194804 -0.037283745 0.11840909
0.033286486 0.05545758 0.029077236 -0.033393458 -0.110191494 -0.043720122 -0.0828785 -0.022928448
0.017661825 0.025525838 0.021383664 -0.055258375 0.06332291 -0.0020652483 -0.014959566 0.0037529063
-0.19740729 0.043633014 0.07649747 0.014290089 -0.03280045 0.066544496 -0.048025712 -0.021459688
-0.03661733 -0.032418318 -0.057393312 0.015062302 -0.040985353 0.05516277 -0.030830294 0.08143658
0.049800802 -0.0008740481 0.08540474 0.12966992 -0.015765676 -0.029071108 -0.036427673 -0.008931174
0.12006505 0.094686806 -0.00610353 -0.13194996 -0.07529609 -0.14383219 0.125943 -0.08014809
-0.24762389 0.044782765 -0.16562718 -0.05112889 0.31827047 0.07682459 -0.1555738 0.09510085
0.1282031 0.08557382 -0.06606102 0.0645207 0.103822604 0.14556414 0.1959181 0.07885507
-0.21565817 -0.0847805 -0.02621453 -0.041062415 -0.008888198 -0.049903605 -0.06551459 0.20473742

bias f4 [6]
00000000: 8bfb cebe ba96 fd3e 89f1 2dbe ed0a 96be
00000010: 76d8 a83e 99ab 0cbe
-0.40426287 0.49529058 -0.1698667 -0.2930521 0.32977647 -0.13737334
