models/policy_step_3w.pt (torch, 67720 bytes, 8 tensors)

weight f4 [128, 27]
000000 cb 11 53 3f 3f 70 f6 be 28 5c 21 3e cc e7 3e bf
       0.82449025 -0.48132512 0.15757811 -0.74572444
000010 72 a1 d0 bf dc 25 4b 3f 22 79 8f 3b 47 d9 2e bf
       -1.6299269 0.79354644 0.004378454 -0.6830029
000020 4d 57 19 be 00 c5 9c bd 7d 37 4f 3e 91 16 12 be
       -0.14974709 -0.07654762 0.20236011 -0.14266421
000030 16 31 f1 be f7 ae 6d be ed b6 ee 3e 5f ef b4 3f
       -0.47107762 -0.23211275 0.46623936 1.413555
000040 09 0b b5 3e 7c ca 07 be d8 6f 34 bf a0 9c b4 3d
       0.35359982 -0.13260835 -0.7048316 0.08818936
000050 b8 6b f7 3d b1 f0 ed 3d 13 bb 2f 3b 23 41 6a bd
       0.120810926 0.11618174 0.0026814386 -0.057191025
000060 9e 3b 17 be b9 1d 84 3c 4f 83 95 bd 05 72 18 3d
       -0.14768836 0.016127454 -0.07300436 0.037218112
000070 38 ee 0c 3f 9f d0 23 3e b6 5d 3b be 78 ac 1d 3f
       0.5505099 0.15997551 -0.18297467 0.6159129
000080 3b fb b2 bd b3 dd 28 3d f5 2e d2 be b2 d0 15 3e
       -0.08739325 0.041227054 -0.4105145 0.14630392
000090 64 03 0b be 62 7e 90 bd 7c 0b df 3e 78 90 d6 3f
       -0.13575512 -0.070553556 0.4356345 1.6762838
0000a0 08 5f 3a 3e 0b e8 2c 3e 0c 37 63 bf 89 62 f8 bf
       0.18200314 0.16885392 -0.8875587 -1.940507
0000b0 d5 3a d5 3c f1 a7 72 3d 67 c2 d4 bd ac 9d 2c 3f
       0.02602903 0.059242193 -0.10388642 0.6742809
0000c0 9b a1 4a 3e 40 fd 61 bd 2b 32 e4 bd 2c d5 92 bd
       0.1978821 -0.05517316 -0.11142381 -0.071695656
0000d0 a4 ea 1d be e2 ed c9 3c 60 d0 12 40 b6 db b2 3f
       -0.1542154 0.024649564 2.2939682 1.39733
0000e0 8c f7 4e 3d b7 4d dd 3e aa 3a 36 c0 57 21 e1 bc
       0.050529048 0.43223354 -2.8473306 -0.027481718
0000f0 30 a7 94 bb b1 a6 ab 3e 34 35 04 be 95 bb 23 3e
       -0.004536532 0.33525613 -0.1291092 0.15989526
000100 aa 7f 9e 3e 72 de 03 3e f9 e1 29 3f 6c ff c6 bd
       0.30956775 0.12877825 0.6636043 -0.097166866
000110 a6 4f 70 3e a3 72 11 bf 18 6e 98 be 45 62 20 be
       0.23467883 -0.56815547 -0.29771495 -0.15662487
000120 64 81 b6 3e 74 d8 9c bd 23 de d1 be 39 23 81 bd
       0.35645592 -0.07658473 -0.4098979 -0.06305546
000130 26 ca a5 bc 90 65 9d 3d cb 9f 98 3d eb 52 f6 3c
       -0.020237993 0.07685387 0.07452353 0.030068835
000140 94 82 9a 3d e5 c8 c9 3e 9f 66 60 bc 3d 96 e4 bf
       0.07544437 0.39411083 -0.013696342 -1.7858349
000150 5e 49 3a bf cc 0b b5 bf f1 9f fc bd d0 38 82 3c
       -0.727682 -1.4144225 -0.12335194 0.015896231
000160 51 01 eb 3f 61 5b 93 3d bd 21 71 bd a4 34 2e 3e
       1.8359777 0.071951635 -0.058870066 0.17012268
000170 79 47 a8 be 8d db ab be 46 49 cb bd 4c 62 d0 bc
       -0.3286703 -0.3356594 -0.09926085 -0.025437497
000180 69 d0 68 3d e7 f1 a8 3f 2b f9 f9 bd 9e 36 33 3e
       0.05683938 1.3198823 -0.12205728 0.17501304
000190 e2 6e 8e bc a7 e9 08 be fc 57 a5 3d 3f ea c2 3d
       -0.017386857 -0.13370381 0.08073422 0.09517335
0001a0 06 20 eb bd f9 65 fc bd 69 ef a0 bd b6 bb 97 3d
       -0.11480717 -0.12324137 -0.07858164 0.0740885
0001b0 f8 da 5d 3f de c9 eb 3e 20 04 7a 3d fc ee 53 bf
       0.86662245 0.4605245 0.06103909 -0.82786536
0001c0 68 9f 77 bf a0 be 8f 3e d7 58 e5 bc 22 e7 fa be
       -0.9672761 0.28075123 -0.027996464 -0.49004465
0001d0 61 bd 16 3f 74 c7 35 be 2b 4a 33 3c 85 87 d5 bd
       0.5888272 -0.17751867 0.010942976 -0.10426239
0001e0 16 d3 ee bb 44 60 24 3d 25 24 c3 be 55 55 6f bf
       -0.007288347 0.04013087 -0.38113514 -0.9348958
0001f0 dc 5b 72 bf 20 14 31 bd 1b bc aa be 67 8a 9e 3b
       -0.94671416 -0.043232083 -0.33346638 0.004838276
000200 9d 45 30 3f ee 1b 97 3d 93 9d 41 3d 7b 68 10 bd
       0.6885622 0.07378374 0.047269415 -0.03525589
000210 3f a8 f0 bc 02 ac b7 3e fd 04 8f 3d a4 b7 27 3d
       -0.029377101 0.3587342 0.06983373 0.040946618
000220 48 c6 88 bf 16 7a 23 be 59 0c 66 bf 5a fc 9e 3f
       -1.0685511 -0.15964541 -0.8986259 1.2420762
000230 9d e9 97 be 0c 7f 22 3e 1d 70 76 3e 6b e5 7f be
       -0.2967042 0.15868777 0.24066205 -0.2498986
000240 d6 58 4b 3d af 00 84 be 53 a0 6b 3e aa 20 55 3e
       0.049645267 -0.25781772 0.23010378 0.20813242
000250 8f 60 f3 bd 0b 70 a4 bd 9d 0f d3 3e 29 b2 c6 3d
       -0.118836515 -0.08029183 0.4122285 0.0970195
000260 52 c3 b4 3d 54 bc 33 ba ed f7 79 be d3 25 0c bf
       0.08826317 -0.0006856371 -0.24410982 -0.54745215
000270 19 99 68 3c 3e 92 e0 bd 8a d7 82 bd 5e aa 60 3e
       0.014196658 -0.109653935 -0.06388767 0.2193999
000280 b7 b3 f2 bd 58 fb 90 be 64 c6 21 bf 16 c7 5a 3c
       -0.11850684 -0.2831676 -0.63193345 0.01335313
000290 cd 59 91 3e ba 65 7c 3e 68 c0 d9 3e e2 3f 1e 3e
       0.28388825 0.2464818 0.42529607 0.15454057
0002a0 55 7f 75 3c 98 6f 5d 3d 3a 0d 7e bd 5a ec 9f bd
       0.014983972 0.054061502 -0.062024333 -0.07808752
0002b0 9d ec 51 3f 77 a0 ac 3e 36 52 34 3f 17 cc 69 3e
       0.8200167 0.33716175 0.70437944 0.2283176
0002c0 04 e5 e1 3c 4d 2b 30 bf 0b 80 7b 3f 1e 25 3e be
       0.027575023 -0.6881607 0.98242253 -0.18568847
0002d0 de a0 0d 3f c8 81 01 3e 72 34 41 bf e2 9b 9a 3e
       0.5532359 0.12647164 -0.7547065 0.30197054
0002e0 fb 4f 59 3e 9b 1e dd bd ca 0c af 3e 3a ff 78 3d
       0.21221916 -0.10796853 0.34189445 0.060790278
0002f0 43 92 f0 bd 60 c7 1c 3f ad 6e 36 bf ae 2f eb be
       -0.11746647 0.6124172 -0.7126263 -0.45934814
000300 17 db a0 be 34 12 8a bf d0 86 b7 3e f2 e2 96 bc
       -0.31417152 -1.0786805 0.3584504 -0.018418763
000310 72 7d 23 3f 20 a9 2b be 57 7d e9 3d fe 13 ee 3c
       0.6386329 -0.16763735 0.1140086 0.029062267
000320 26 e7 42 3e 14 95 11 3f 12 c2 58 bd 11 06 34 bd
       0.19033489 0.568681 -0.052919455 -0.043951098
000330 5d 3a 39 bf 75 e2 b9 3f 16 51 8a 3c 59 b7 3e bf
       -0.7235468 1.4522234 0.016884368 -0.74498516
000340 a5 f6 2c bf 16 58 6e be 0a 70 22 be d6 9c d5 3d
       -0.6756385 -0.2327579 -0.15863052 0.10430305
000350 d6 7c f9 3b b3 5f 3e bd 16 20 ac 3e b3 b7 d0 bd
       0.0076137586 -0.046477985 0.3361823 -0.10191288
000360 15 b9 b5 3f eb ef 84 3e a3 22 0a 3f f6 b1 1d 3f
       1.4197108 0.25964293 0.539591 0.6159967
000370 99 21 d9 bf 09 38 3c bf 16 a8 71 3d 90 8a 47 bf
       -1.6963378 -0.73523 0.05899819 -0.77945805
000380 03 7b 96 be 2a 5e b9 bd eb 51 83 3e 7f 12 40 3f
       -0.29390725 -0.090511635 0.25648436 0.7502822
000390 3c ae f3 3f f9 89 30 be b9 3a 5e be 08 7a 09 3d
       1.9037547 -0.17240132 -0.21702088 0.033563644
0003a0 e5 1c 60 3f 26 e8 07 be dc 68 4b 3e c6 e7 eb bd
       0.8754409 -0.13272151 0.1986422 -0.11518817
0003b0 ff 78 37 bf 67 da 7a bd 73 ab 2f be 68 95 cc 3c
       -0.71669 -0.06124344 -0.17155246 0.024973586
0003c0 35 d4 9c be 69 ae 76 3c b6 db cd bd 00 df f2 bf
       -0.3063065 0.015056231 -0.10051672 -1.8974304
0003d0 7e cd ba 3e 0e ba cf 3f bf 67 61 bf 6c 05 c7 3d
       0.36484903 1.6228654 -0.8804893 0.09717831
0003e0 02 3d 52 be 77 bf 94 3c 9f 63 02 c0 32 0c ef bd
       -0.20531085 0.018157704 -2.0373304 -0.11672248
0003f0 13 0c 0b be 1a 67 f3 3e ea 71 91 3f 2e 0e 88 be
       -0.13578825 0.47539598 1.1362889 -0.26573318

bias f4 [128]
000000 ea 93 43 3e 53 a3 be be bf 46 d7 3d a4 6b 0c 3d
       0.19099393 -0.37233981 0.105115406 0.03428234
000010 c1 b7 96 bd db b9 6d 3d 40 6b 96 be 94 a6 07 bd
       -0.07359267 0.058038574 -0.293787 -0.033117846
000020 54 4a ca bc 1c 1f aa bd 98 bf 7c bd 3f 3a 4e be
       -0.024693646 -0.08306715 -0.061706156 -0.20139407
000030 4e 96 66 be 8e 7c 91 be 1c ab 45 be c1 f1 f2 3d
       -0.22518274 -0.2841534 -0.19303554 0.11862517
000040 4b 45 a8 be 0d 99 28 bd 78 04 34 be 9a 64 7f bd
       -0.32865366 -0.041161586 -0.1757983 -0.0623518
000050 27 31 c2 bd 18 86 69 bd bd 8b 09 be 8c b7 44 bd
       -0.09482031 -0.057012647 -0.13432212 -0.048026606
000060 6c 2e 0f bd 98 49 ea 3d 01 83 18 be ef d8 f4 bd
       -0.03495638 0.11439818 -0.14893724 -0.11955439
000070 34 99 aa 3d 65 17 19 3d 60 04 17 3e 5b 2f bf be
       0.083300024 0.037375826 0.14747763 -0.37340817
000080 15 aa 61 3d d8 ea ef 3d 72 3b 22 bc 2e 0b 5e 3e
       0.055093843 0.11714715 -0.009901868 0.21683952
000090 b2 13 96 be 92 89 2a be e5 45 70 bd c8 5d 23 bd
       -0.293119 -0.16654041 -0.058660407 -0.03988436
0000a0 23 20 5b be 5b 6b 90 3e 0f 65 4b be 0d f8 a4 3e
       -0.21398978 0.28206906 -0.1986277 0.32220498
0000b0 ed 7d 5e be 91 f4 14 be 16 c0 e1 bc f6 29 b4 bd
       -0.21727724 -0.1454642 -0.027557414 -0.08797066
0000c0 10 a8 3d 3d ed a2 e3 bd 72 4a 97 be c1 fd 29 3d
       0.046302855 -0.1111506 -0.29548985 0.041501764
0000d0 6a ac 95 be c3 73 f2 bc 9a a0 98 be bd b9 20 bf
       -0.29233104 -0.029596215 -0.2981003 -0.62783414
0000e0 be 1c 8e bd 7a 45 46 be fd ae 94 3e ea b9 aa 3d
       -0.06939076 -0.1936244 0.29039755 0.083362415
0000f0 98 6c 2a be 55 e2 4e be 7c 6f a6 be ca 56 22 3c
       -0.16642988 -0.20203526 -0.3250693 0.009908387
000100 d9 5e 36 be 63 0f af bc 1a 4b 97 3e da e3 df bd
       -0.17809619 -0.021369642 0.29549485 -0.10932131
000110 6a 9c 77 be bb 33 b0 be 5e 2a 44 bd b5 16 e2 be
       -0.24180761 -0.34414467 -0.047891967 -0.4415795
000120 c0 26 0c bd 64 4d 6b bd a9 01 35 be 2f 13 57 be
       -0.034216642 -0.057446852 -0.17676415 -0.21003412
000130 88 99 35 be cd 8f 99 ba a2 fc dd 3d bb 92 2f be
       -0.17734349 -0.001171583 0.108392015 -0.17145817
000140 90 8e 85 bd f5 94 09 3c a8 51 ef be 0c 3b 93 3d
       -0.06521332 0.0083973305 -0.46741986 0.07188997
000150 69 6f b1 be af 31 e7 bd 29 54 4d bc b2 9c 05 be
       -0.34655312 -0.11288773 -0.012532272 -0.13048056
000160 26 8f 32 3e 46 50 32 3e c7 d9 4f be d0 5a 5c be
       0.1743742 0.17413434 -0.20297919 -0.21519017
000170 e2 cb c8 be d8 95 8a 3d c2 0c b2 bc 88 21 54 3d
       -0.3921805 0.06766862 -0.021734599 0.05178979
000180 0f 8b 12 3e d5 d6 bc 3c 3c 96 c4 bc 8c 2a 1d be
       0.14310859 0.023051659 -0.023997419 -0.15348262
000190 cc 40 48 3d 53 c0 80 bd 42 2e 68 be 0d 75 6e be
       0.04888992 -0.06286683 -0.22673896 -0.23286839
0001a0 f2 97 b1 bd 14 fa 7b bc 91 d7 21 bc bf b5 44 3d
       -0.086715594 -0.0153794475 -0.009878055 0.04802489
0001b0 19 a2 14 be 4b fd 13 be bd fb 23 3d a8 c7 ec 3d
       -0.1451496 -0.14452092 0.040035 0.11561519
0001c0 2c 81 83 be f3 20 dc 3d ee 39 cd bd dd 5a ac bd
       -0.25684488 0.10748472 -0.10020815 -0.08415768
0001d0 ce d0 c1 3d 94 9a 94 bd 6b 32 24 be c2 8b 5f be
       0.094636545 -0.07256046 -0.16034858 -0.21830657
0001e0 13 28 97 bd 50 25 f2 bb 0f ab 67 be 61 3c f7 bd
       -0.073806904 -0.007389702 -0.22623847 -0.12072063
0001f0 22 20 24 be d2 d6 bf bc 89 ca aa bc 35 3f 0f be
       -0.16027883 -0.023417864 -0.02084853 -0.13988955

weight f4 [64, 128]
000000 46 46 d2 3e fb 24 2f 3e d8 8e 4b 3e 65 64 b6 be
       0.4106924 0.1710395 0.1987871 -0.3562347
000010 b4 ca 1b 3e 69 c2 59 3d 8e 2e 17 be a6 69 14 3e
       0.15214044 0.05316392 -0.14763853 0.14493427
000020 b9 be 7c 3e 1d d4 91 3e d6 3d 17 3d 7b 76 69 3d
       0.2468213 0.28482142 0.036924206 0.056997757
000030 56 e6 32 3d d3 8f 47 be 6d 90 bf bd 47 bd 3e 3e
       0.043676697 -0.19488458 -0.09353719 0.18626891
000040 25 07 1c bd 4d 28 a1 3d d2 f4 3f 3d 34 f5 a8 be
       -0.03809275 0.07869015 0.04686434 -0.32999575
000050 fe 19 aa 3d a1 6f bd 3e 22 29 bb 3e 16 17 e8 3d
       0.08305739 0.3699923 0.3655482 0.11332528
000060 83 ac 53 be 81 61 a8 3e b6 3e 4e be d8 03 cb 3d
       -0.20671277 0.3288689 -0.2014111 0.099128425
000070 85 dc c8 be cd f5 14 3e 66 6d 34 3b 81 c2 f4 3c
       -0.39230743 0.1454689 0.0027531027 0.029877903
000080 76 c3 6a bd b6 9c ad be 04 89 d2 3d 84 ba 46 be
       -0.057315312 -0.33908623 0.1028004 -0.19407088
000090 a2 92 c7 bd a5 72 b6 bc 6e 1c ca 3c 25 b7 14 bd
       -0.09744765 -0.022271464 0.02467176 -0.036307473
0000a0 9a 58 bb 3d a5 e3 70 be e8 e8 15 bf 96 fb 8b 3e
       0.09147759 -0.2352434 -0.5855851 0.27340382
0000b0 0c 9b 28 3e 9a 02 4d bc 07 f6 d1 bd bf 56 92 be
       0.16465396 -0.012512827 -0.10252004 -0.28581807
0000c0 ad 18 42 3e aa d7 10 be cb 7a d9 3e 11 0e f4 ba
       0.18954726 -0.1414477 0.42476496 -0.0018619915
0000d0 2d 4e a4 bd ae c1 38 be ad 41 7f 3c 80 68 57 bc
       -0.08022723 -0.18042633 0.015579623 -0.013147473
0000e0 b3 85 37 3d 46 52 97 be 7c ce c5 bd 30 70 75 3e
       0.04480524 -0.29554957 -0.096585244 0.23968577
0000f0 bb d3 0f 3e da 34 d2 bc eb 44 83 bc e8 e4 53 bd
       0.14045613 -0.025659967 -0.016024074 -0.051731974
000100 63 18 6c 3e 20 91 82 be 10 e4 0f 3f c8 75 14 3b
       0.23056178 -0.25501347 0.5620737 0.002265321
000110 b3 e0 9f bd eb 9d bb 3c 00 cd 77 3e f2 65 5e bd
       -0.0780653 0.02290245 0.24199295 -0.05429644
000120 f4 46 57 be 77 ef d1 3b 5f 93 97 bd 8c cb 02 3f
       -0.2102316 0.0064067203 -0.07401156 0.5109184
000130 8d 90 d8 3b ec 9a 30 3d b4 6a 78 3e 1b 8d 39 be
       0.0066090287 0.043116495 0.24259454 -0.18120234
000140 99 fd ad bd c0 5d fb bc 6c 34 db bc 0b dc 24 bd
       -0.084956355 -0.030684352 -0.026758395 -0.04024891
000150 60 ed 9b bc e8 3c dc 3d e4 00 08 3e 75 10 e1 bd
       -0.019034088 0.107538044 0.1328159 -0.10989467
000160 53 b5 c8 be e1 a0 e8 bd 53 72 8c 3e e5 bf df 3a
       -0.3920084 -0.1135881 0.27430972 0.0017070739
000170 65 81 42 bd 6a 1e 92 3d 11 9f cc 3e 50 79 66 3d
       -0.04748668 0.07134707 0.39965108 0.056268036
000180 e6 fd 86 3d a0 4e 64 3e 53 0e 2f 3e bf 23 95 3c
       0.06591396 0.22295618 0.17095308 0.018205522
000190 13 f9 39 3d 17 02 03 bd c8 41 00 be 1c be 23 bd
       0.04540355 -0.031984415 -0.12525094 -0.039976224
0001a0 95 a0 81 be e1 e6 e4 3c 03 b5 0b 3f e5 ad a9 3a
       -0.25317827 0.027942123 0.54573077 0.0012945501
0001b0 60 bb dc be ae ae f6 3d 7d b0 2a 3d 5b f0 34 3e
       -0.43111706 0.12045036 0.04167222 0.17669813
0001c0 f6 4a da bd 96 ad 76 3d e6 7d 20 3e c3 e5 f3 bc
       -0.10658829 0.06022414 0.15673026 -0.029772645
0001d0 5a 7c 3b bc bd a0 c4 3e a5 98 39 3e c5 98 46 bc
       -0.011443222 0.38403884 0.18124636 -0.012121384
0001e0 aa 2e 39 3c 44 d3 04 bd a1 3a 78 3d 04 b4 96 3d
       0.0113026295 -0.03242804 0.060602788 0.07358554
0001f0 04 56 8c be ee ae 7e 3e f3 ba 2d bd 25 69 f1 3d
       -0.27409375 0.24871418 -0.042414617 0.11787633
000200 59 13 47 be ab 67 e7 be 97 7a 4e bd 59 70 2a 3e
       -0.19440974 -0.4519628 -0.05040988 0.1664442
000210 c3 4d ab 3d 7f 28 b8 3d 5e 45 60 bc 71 6f 9e 3d
       0.08364441 0.08992099 -0.013688413 0.077360995
000220 e9 a0 03 3d e3 a2 fb 3d 79 f2 c3 bc 35 7b 46 3e
       0.032135878 0.122869276 -0.02391933 0.19382937
000230 02 27 4b bd db c9 9a bd 84 48 4f 3e 49 e5 b2 3d
       -0.049597748 -0.07558032 0.20242506 0.08735139
000240 21 6d b0 bc 0f 0e 43 3d b8 71 62 be 7f 60 1f be
       -0.021536412 0.04762083 -0.22113693 -0.15564154
000250 50 42 87 3b 31 7e 53 bf c4 bf a0 be 4f 30 08 bf
       0.004127778 -0.8261443 -0.31396306 -0.53198713
000260 7d dc 0e bd 04 34 fb bd e5 d8 5f 3e b8 d5 3f bd
       -0.034878243 -0.122657806 0.21860082 -0.046834677
000270 15 e9 ff 3e db 85 a2 3d a3 55 9b bd 53 56 18 3d
       0.49982515 0.07935687 -0.07584693 0.0371917
000280 a9 32 75 3d cd 56 96 3d ad 33 f0 3d 97 31 b9 3e
       0.059862766 0.07340775 0.117286064 0.36170647
000290 b5 9c ae bd 61 b5 e7 3d d1 e5 58 3e 1d 10 39 3e
       -0.08525983 0.11313892 0.21181418 0.18072553
0002a0 91 37 ed bd 18 73 b7 3e 85 e3 44 bc 42 8f 31 bd
       -0.11582864 0.35829997 -0.0120171355 -0.043349512
0002b0 0b 7f 5d bd 30 f8 9b 3d 51 0a 81 3d ad 3d d3 3c
       -0.054076236 0.076156974 0.06300796 0.025786245
0002c0 d3 42 57 3d 7b 03 0f 3e 83 33 cd bd 98 d5 a0 3e
       0.052553963 0.13966171 -0.10019591 0.3141296
0002d0 d7 65 81 3d 26 d3 4a bd 2f 3d 13 3d df ae 98 3b
       0.063182525 -0.049517773 0.03594702 0.004659518
0002e0 ea 39 f4 bc c3 69 29 3d 3d cb 5c be bb 19 a5 bd
       -0.029812772 0.041360628 -0.21561904 -0.08061548
0002f0 53 d6 c9 be 8a 23 31 be 5e c5 01 3e 62 67 a2 3c
       -0.3942133 -0.17298713 0.12672946 0.019824687
000300 2c 6b 79 3d b2 3c cd 3d d9 da 95 bf ca af 3a 3d
       0.060893223 0.10021342 -1.1707412 0.0455778
000310 b5 eb 6a 3d d9 7b 95 3e 97 70 83 3d ee 7a c7 bb
       0.057353694 0.2919605 0.06417959 -0.0060876524
000320 1a 88 b5 3e 6b e3 f5 3c 4e 97 75 bd 03 5d a8 3d
       0.354554 0.030015668 -0.05995875 0.082208656
000330 16 8c 22 be 53 bf 60 3e 62 06 09 be 00 48 35 3e
       -0.15873751 0.21947984 -0.13381341 0.17703247
000340 ae 4a ef 3d a5 ac 26 be 85 75 9a bd 08 8d fb 3d
       0.11684166 -0.16276796 -0.07541946 0.12282759
000350 ab dc 44 3e 9b ce 8d bd 99 2c a9 be 0f a8 0d 3e
       0.19224803 -0.069241725 -0.33041838 0.1383364
000360 6f 2d 34 3d 9d f0 41 3c 07 10 22 be 72 47 8e be
       0.04398864 0.011837152 -0.15826426 -0.27788883
000370 51 68 72 3d eb 5a 0d bc 37 0c 60 be dd a3 29 be
       0.059181515 -0.008627634 -0.2187966 -0.16566415
000380 73 c9 0c 3e 62 f6 0e 3b f8 9b 67 be 50 b4 a9 bc
       0.13748722 0.0021814336 -0.22618091 -0.020715863
000390 44 e5 6a bd bd 73 1a be 1e cf d0 bd c4 f9 56 3e
       -0.05734755 -0.15083213 -0.101957545 0.20993716
0003a0 f3 94 03 be 84 5f a9 3c 25 34 79 bf 1e 0c 41 3e
       -0.12849788 0.020675428 -0.9734519 0.18852279
0003b0 af 04 a4 bf 34 c3 38 be 77 2f 4a bd 83 0e f5 3b
       -1.2813929 -0.18043214 -0.049361672 0.0074785366
0003c0 ef 07 93 3e 11 85 8b be ea 74 db bd 99 7d 4e 3d
       0.2871699 -0.2724996 -0.10715659 0.050412748
0003d0 a6 82 5c 3c 03 07 a0 3d a9 50 f6 3d 58 30 e1 3e
       0.013458883 0.078138374 0.120271035 0.43982196
0003e0 6a 5a 78 3e bc aa 02 3c c4 18 82 3d b1 64 ab 3d
       0.2425324 0.007975277 0.0635238 0.08368815
0003f0 54 4d 8a 3d d0 b9 80 3b a9 fc 15 bd 40 c7 e5 3c
       0.067530304 0.0039284006 -0.03661791 0.028049111

bias f4 [64]
000000 65 54 b2 be 85 d0 0b be a9 aa 16 be a1 6f a4 bc
       -0.34830013 -0.13653763 -0.14713539 -0.02007276
000010 47 cf 31 3e 1e f5 1d bd 35 26 0c 3e b2 4f 5a be
       0.17364226 -0.03856384 0.1368645 -0.21319464
000020 56 bc 8e bd 2c ea 08 bd 8f 0f 1e be 45 34 46 be
       -0.06969516 -0.03342645 -0.15435623 -0.19355877
000030 ee 7c be 3c 42 9a 77 be c7 6a 88 be de b3 81 3d
       0.02325293 -0.24179938 -0.26643965 0.06333135
000040 06 7b 10 3d 73 d6 c7 3c 60 e0 4b be 00 3e 41 3e
       0.035273574 0.02439425 -0.19909811 0.18871307
000050 ec 59 bc 3c 0d 95 4c bd 27 a9 f1 bd ae 7d 43 be
       0.022992097 -0.049946833 -0.117998414 -0.19090912
000060 19 ed 14 bd ff bf 2e be 1a 28 2b bd 5d 01 4f 3a
       -0.036358926 -0.17065428 -0.04178629 0.00078966265
000070 b6 9c 9b bd 5c d5 d5 bd 47 f9 08 be 90 0f 49 bc
       -0.075982496 -0.10441086 -0.13376342 -0.012271777
000080 b9 bc 04 be e7 48 ff bd cf 50 97 bd fe d9 43 be
       -0.12962617 -0.12465077 -0.0738846 -0.19126126
000090 eb d6 f8 bd b4 1d 24 bd 8a 33 5e bd b9 ed 82 be
       -0.12150367 -0.04006739 -0.05424837 -0.25571993
0000a0 b1 6e eb 3d 2d 9c 6a bc 73 fc c2 bd 88 a4 b6 bd
       0.11495722 -0.014319462 -0.09520807 -0.089181006
0000b0 cf 54 63 bd ac 5f 17 be 8c 3c 35 bd c7 77 4b bd
       -0.0555008 -0.1478259 -0.044247195 -0.049674775
0000c0 d7 c0 5c 3d 7d d5 69 be da 3c 1e be 5d d0 38 3d
       0.053894844 -0.22835346 -0.154529 0.045120586
0000d0 d3 6b 30 bd 3c db 07 bd 78 8d 2a bd d2 ca f1 bd
       -0.04307158 -0.033168063 -0.04163882 -0.11806263
0000e0 15 06 02 be b1 35 2a be 32 c1 8c bc c5 23 22 3e
       -0.12697633 -0.16622044 -0.017181966 0.15833957
0000f0 51 13 aa bc 8c e9 6b be 3a 27 3c be d8 98 22 bd
       -0.020761164 -0.2303831 -0.18374339 -0.039696544

weight f4 [32, 64]
000000 4c 58 90 be 0c eb 13 bf 08 b3 db 3e 5f f0 aa 3d
       -0.28192365 -0.5778053 0.42910028 0.083466284
000010 52 f6 70 be 75 0b a6 3e 63 9c 1b 3e d2 43 d8 bd
       -0.23531464 0.32430616 0.15196376 -0.10559811
000020 69 cc fe bd 9c 14 bb bb 0b 7d 21 3e 3a c6 ec bd
       -0.12441332 -0.005709244 0.15770356 -0.11561246
000030 2e 3d a2 bc a8 f9 61 be af 81 23 be 5f 64 b1 bd
       -0.019804563 -0.22067893 -0.15967439 -0.086617224
000040 5a a1 16 be f9 42 c2 bd df 4e 98 3d ff c3 80 3d
       -0.14709988 -0.0948543 0.074369185 0.06287383
000050 de 8b 34 3d 59 83 20 be 93 33 e9 3c fb 2f e9 bd
       0.0440787 -0.15675105 0.028466975 -0.11386105
000060 dd 92 8f 3e c2 cc 7c bd 45 fb 37 3e c1 4a 04 3e
       0.28041735 -0.06171871 0.17966945 0.12919141
000070 c4 c4 04 3e 27 0b d6 3e b3 ae 80 3e ee 85 07 3e
       0.12965685 0.41805384 0.25133285 0.13234684
000080 71 3a 02 3e 02 1d 61 3e 3d 6c b7 be 16 84 21 be
       0.12717606 0.21983722 -0.35824767 -0.15773043
000090 88 b7 77 be 5a 86 47 3c 30 b0 e2 3d 7e 07 c8 bd
       -0.24191105 0.012178028 0.11068761 -0.09767054
0000a0 53 3c a1 bd 9b 0d 56 3d 0b eb 68 3e 7b 77 c0 bd
       -0.07872834 0.05225907 0.22745912 -0.09397789
0000b0 64 56 6a bb 2a 5a 70 3e 7d 80 81 3e 69 aa 6f 3d
       -0.003575706 0.23471895 0.2529334 0.058512125
0000c0 84 ab b3 3d 26 a3 c4 bd fb 96 36 be 1c d7 9e 3d
       0.087729484 -0.096014306 -0.17831032 0.077558726
0000d0 cc 09 2f 3e a4 eb 01 3e 9c a4 c9 3d 3d 0a 9a bd
       0.17093581 0.12687546 0.0984585 -0.07521484
0000e0 bb fd 26 3e 43 81 4b bd 49 57 a1 3e f6 00 8c 3e
       0.16307728 -0.04968382 0.31511906 0.27344483
0000f0 d0 8e b4 3d cf 4a 30 be bc dd da 3d f4 c5 12 3e
       0.08816302 -0.17216037 0.10686824 0.14333326
000100 5a 04 09 3d c6 83 19 3d 0c a8 35 be fd d3 0a bd
       0.033451416 0.037479185 -0.17739886 -0.033893574
000110 e4 12 5a 3d ee 2a e6 bb 9a 96 5e 3d 7c 85 70 bd
       0.05324067 -0.0070241606 0.054342844 -0.05872105
000120 2e ed aa bd 77 77 62 bc 3c 42 5a 3c 10 38 99 bd
       -0.0834602 -0.013822428 0.013321456 -0.07481396
000130 3c 88 32 3e 8b 5b 14 3d d0 d9 6d 3e 60 9e ed 3d
       0.17434782 0.036220115 0.2322762 0.11602473
000140 d6 ba 73 bc 53 7d 85 3e 94 4b 13 be 01 1f 90 be
       -0.014876088 0.26072177 -0.143843 -0.28148654
000150 d3 5d 75 be 0d 2e 3d 3e be a8 f1 bd 6f 9b 99 3e
       -0.23961572 0.18474598 -0.11799763 0.300014
000160 f4 fe 34 be b0 ae 23 be c6 14 15 bd eb e2 46 be
       -0.17675382 -0.15984607 -0.036396764 -0.194225
000170 d7 8a c2 3d a2 2e 2a 3e ea 17 03 3e 36 39 d2 3c
       0.09499138 0.16619352 0.12802091 0.025662046
000180 ac e9 bc 3d 28 1e 05 3e 60 a7 86 bd 3e f3 04 3d
       0.09224257 0.12999785 -0.06574893 0.032458536
000190 0b d9 59 bd b2 bc ad 3d 36 50 8f be d3 5a d0 bd
       -0.053185504 0.084832564 -0.27990884 -0.10173573
0001a0 54 66 b4 bd b7 25 fc 3d fe 3b 2c bd f3 c7 c4 bd
       -0.0880858 0.12311881 -0.0420494 -0.0960845
0001b0 c8 b1 e9 3d 6f 99 49 3d 81 1c 1a be d0 22 ea bd
       0.11410862 0.04921859 -0.15049936 -0.11432421
0001c0 e4 20 23 3c 90 50 23 bb 13 91 d3 3d 0d 94 73 3e
       0.009956572 -0.0024919845 0.10330405 0.23786946
0001d0 3f 78 37 be 7a 2d 1d be 0b 61 24 3e 18 ca 26 3e
       -0.17916964 -0.15349379 0.16052644 0.1628803
0001e0 8d b6 bf bc 83 c0 ed 3c 68 5a 8a be 6f 10 c3 3b
       -0.023402477 0.02902246 -0.270221 0.005952887
0001f0 ca 63 78 3e 13 0c bf 3e bd 9b 7b bc 13 53 b0 3e
       0.24256817 0.373139 -0.015356955 0.3443838
000200 f4 69 fd bd df 31 8b 3d 32 c4 07 3e 67 d1 81 be
       -0.123737246 0.067966215 0.13258436 -0.25355074
000210 ca 38 14 be 46 cd da 3c cf a5 b3 3d 11 9e dc 3d
       -0.14474788 0.02670921 0.0877186 0.10772336
000220 42 b5 28 be 57 91 cc 37 3d 40 b7 3c b3 8f fd bd
       -0.16475394 2.4386374e-05 0.022369498 -0.12380924
000230 40 c3 e2 3d 1e 7e 1f be 28 41 69 3e 76 6a 2f 3e
       0.11072397 -0.15575454 0.22778761 0.17130455
000240 27 35 06 be c2 43 bf 3d 42 4c 10 3e 4d 59 39 bd
       -0.13106214 0.09339096 0.1409159 -0.04525118
000250 26 ef fa ba 20 f5 f5 3e c7 1f 4c be f3 63 94 3c
       -0.0019144758 0.48038578 -0.19933997 0.018114066
000260 31 60 4b 3d 1e b2 18 be aa 0f df bb 12 75 dc 3d
       0.049652282 -0.14911696 -0.006807287 0.10764517
000270 49 cb be 3d e4 f2 fd bc ff 6b 7e 3e b4 f3 af bc
       0.09316117 -0.030999608 0.24845885 -0.021478511
000280 8f 2a 3a 3e 79 b6 b7 3d 2a 64 0d bd fd ab 08 be
       0.18180297 0.08970351 -0.034519352 -0.13346858
000290 85 ef c9 bd c0 fc 93 bd 03 b4 4a 38 d8 05 ca 3d
       -0.09860138 -0.072259426 4.8328202e-05 0.09864396
0002a0 6c 39 ca bd f1 48 c0 bc 13 f6 bd be 53 dd 1a 3e
       -0.098742336 -0.023472281 -0.37101802 0.15123491
0002b0 d5 99 22 bd 75 16 f2 3c 9a 48 85 3d 19 2d d0 bd
       -0.039697487 0.029551724 0.06507988 -0.10164852
0002c0 bc ea bf 3e be 80 0e be 22 b7 04 3d 62 d6 e4 bd
       0.37483776 -0.13916299 0.03240121 -0.11173703
0002d0 d6 38 3f 3d d4 a6 3b 3e 61 9e da 3a 0d 15 84 be
       0.046685062 0.18325359 0.0016679281 -0.2579731
0002e0 d4 bc 4e 3e c4 7c b1 3d cf 2e e5 3c 7b cd 48 3e
       0.2018922 0.08666375 0.027976422 0.19609635
0002f0 3d cd c7 bd 20 20 62 3c f4 8d 4f 3c 7f 6d 8b 3d
       -0.09755943 0.0138016045 0.012668122 0.06807994
000300 ec 1a 3e bd f6 37 05 be e8 d8 81 bd 01 57 bc bd
       -0.046412393 -0.13009629 -0.063402 -0.09196282
000310 0c 71 8a be 1b 6d 5b 38 b4 13 a1 be b2 aa e1 bd
       -0.27039373 5.231528e-05 -0.31460345 -0.11018886
000320 c6 f9 99 bd 24 94 d5 3b 9d 0b 01 bd f3 c5 8e bd
       -0.075183436 0.006517904 -0.031505216 -0.069713496
000330 17 93 4b 3d 57 66 07 bd ce 40 b5 bc 19 c7 e0 3d
       0.049700823 -0.033056583 -0.022125628 0.10975475
000340 f8 40 54 3d b4 13 6d bd 96 c7 11 3e ed f7 cf 3d
       0.05181977 -0.05788012 0.14236292 0.1015471
000350 4a 57 ca 3d 2a bb 22 3e 40 d1 d4 be f9 c2 f7 bd
       0.0987993 0.1589171 -0.41565895 -0.12097735
000360 78 35 76 3d 89 62 10 be f0 d3 92 bd 56 35 80 bd
       0.060109586 -0.14100088 -0.0716933 -0.06260173
000370 67 16 99 bd 8b 59 2a 3e 8a 62 2a 3e 9d 8a 2d 3d
       -0.07474976 0.1663572 0.16639152 0.04236852
000380 6e 2d 0c 3d 95 f8 1a 3e 1a 3c ca 3d 0c a0 42 3e
       0.034223013 0.15133889 0.09874745 0.19006366
000390 18 2a 65 be fd 37 84 3e 71 36 05 3e 0f a3 e1 3d
       -0.22379339 0.25823966 0.13009049 0.11017429
0003a0 6c 80 90 bc 30 f8 59 3d d3 f8 ca 3b a7 f1 98 3c
       -0.017639361 0.053215206 0.006194213 0.018669916
0003b0 d7 86 47 3d 56 3a 2e be 66 c8 2b be 93 0f d2 3d
       0.048712578 -0.17014441 -0.16775665 0.10256877
0003c0 cf f3 02 3f 59 22 b5 bd eb 77 8e bd b4 74 96 3d
       0.5115327 -0.08844442 -0.06956466 0.07346478
0003d0 50 3e 3e 3d d5 13 e8 3d 06 40 01 be b6 0e df bd
       0.046446145 0.11331908 -0.12622079 -0.10891478
0003e0 32 06 92 bd 24 f9 fb bd c0 5e 3c 3e 27 fd 12 3d
       -0.07130088 -0.12303379 0.1839552 0.035885956
0003f0 a3 38 4d be d4 68 19 be c8 f7 eb bd 69 45 5b be
       -0.20041136 -0.14981395 -0.1152187 -0.21413197

bias f4 [32]
000000 c4 f6 65 bb ba 02 8a be 9e d7 d9 bc 4b 18 e0 3c
       -0.003508971 -0.26955205 -0.026592072 0.027355334
000010 95 6e 62 be ba 59 92 bd b6 03 14 be 5f 35 15 be
       -0.22112496 -0.0714602 -0.1445454 -0.1457114
000020 6b bc a7 3c 89 af 1b 3d 2f a3 10 bd c9 3e 74 3d
       0.020475587 0.0380092 -0.035311874 0.05963019
000030 96 89 5d 3d 3d 86 9e be eb 27 b4 bd be dd ce bd
       0.05408629 -0.3096179 -0.08796676 -0.10100888
000040 e9 8c f0 3c d3 9e 83 3e 91 bc a0 3d 10 45 1e be
       0.029364066 0.2570711 0.07848466 -0.15456033
000050 9c e7 91 bc 8d 43 0f 3c d5 bf 9d be 65 f2 41 be
       -0.017810635 0.008744133 -0.3081042 -0.18940122
000060 11 94 ef bc 15 8c 85 be a3 07 64 bd aa c0 ff bd
       -0.029245408 -0.26083437 -0.055671345 -0.1248792
000070 82 77 35 bd 40 07 49 bd 85 50 b5 3d 73 7e 01 bc
       -0.044303425 -0.04907918 0.088532485 -0.007903683

weight f4 [6, 32]
000000 9f 6e 08 3d 20 1f c8 bd 26 1e 53 bd 56 d7 f8 3d
       0.03330862 -0.097715616 -0.051542424 0.12150447
000010 ac 26 f1 3c be 24 18 3b f6 a5 7b 3e 4b 6b 6b 3e
       0.029437385 0.002321526 0.24575028 0.22990148
000020 da ad b0 bc 24 61 4c 3e 0a 04 d9 3c ee 6b 69 be
       -0.021567274 0.19958931 0.026491184 -0.22795078
000030 06 fa eb 3d d5 8a 40 3e 97 3a 18 be 79 86 2a bd
       0.115222976 0.1880296 -0.148661 -0.04163215
000040 62 6e fb bd 87 fa 74 be 60 6f 44 be c5 21 37 be
       -0.12276913 -0.23923694 -0.19183111 -0.17883976
000050 c0 2e 5c 3e 27 5b 37 be 9e 9b 2c 3d 29 6a a9 3d
       0.21502209 -0.17905866 0.042140596 0.082722016
000060 59 da 0c bc 45 bb e6 bc 79 bb 73 3e 0c 68 3b 3d
       -0.00859698 -0.028165469 0.23801984 0.045753524
000070 14 b7 de bd ad f4 20 3e c8 d0 41 be c7 82 75 3e
       -0.10874763 0.15718336 -0.189273 0.23975669
000080 d8 5a 32 bd e4 77 8f 3e 67 62 64 3e 4a b1 2b 3e
       -0.043543667 0.28021157 0.22303163 0.16766849
000090 5b fa af 3e 82 dc de bc 51 5e 98 3d 29 1e cd bd
       0.34370694 -0.027204756 0.074398644 -0.10015518
0000a0 1a 70 2a be 65 7c f6 bd 6d 0a 93 3d c1 65 62 3d
       -0.16644326 -0.12035445 0.07179723 0.05527282
0000b0 d4 67 01 bd 4f b4 4d bb c0 f5 10 be 59 2d 5b be
       -0.03159316 -0.003138799 -0.14156246 -0.21404018
0000c0 aa 85 02 bd d7 1d 1b 3b 50 85 88 be cf 28 a2 3e
       -0.031865753 0.002366891 -0.2666421 0.3167176
0000d0 df f1 11 3e 0b f6 32 bd c4 26 bf 3b 3c d5 d4 bd
       0.14252423 -0.043691676 0.0058334786 -0.10392234
0000e0 dc 16 83 bd 3c 79 84 3e 23 10 73 be 8d b1 4a 3e
       -0.064008445 0.25873744 -0.23736624 0.19794293
0000f0 24 00 2d 3e 79 39 91 3e 85 27 29 bc e1 88 75 3d
       0.16894585 0.2836416 -0.010324364 0.05994499
000100 f6 5a 79 3e 47 32 e9 3d 36 d6 ac 3d 1f b2 51 3d
       0.24351105 0.11386543 0.08439295 0.05119526
000110 1e 40 d8 bd 5a 49 fe 3d a9 f0 2f be 74 7f ed 3d
       -0.105591044 0.124163345 -0.17181648 0.115965754
000120 c4 e5 27 be 7d e9 a8 3d c2 fa fb bd 3a a8 93 bd
       -0.16396242 0.08247659 -0.12303688 -0.07209821
000130 6e 2d 5b 3d 7f d8 72 3c 0d 89 f8 bd 9d fb 74 3e
       0.053510122 0.0148221245 -0.12135515 0.23924108
000140 49 ef 31 3e f8 f5 0b bd 7f da 4e bd a8 9e 9a bd
       0.17376436 -0.03417012 -0.050501343 -0.075497925
000150 a9 d1 2f be b5 6b 0f 3d 11 96 af bc 23 95 7b 3d
       -0.17169823 0.035014827 -0.021433862 0.061421525
000160 4b 23 c3 bd 72 7f b5 3d a7 67 d8 3d 50 5a cb bd
       -0.09528216 0.08862199 0.10566645 -0.09929335
000170 3b ce 22 be 9d 73 22 3d 46 33 af bd c7 b0 35 bd
       -0.15898983 0.03966104 -0.085547015 -0.04435804
000180 8d 2c 16 3d 4e e4 50 bd bf fe eb bc ea 2e 00 be
       0.03666358 -0.05099898 -0.028807996 -0.12517896
000190 c9 43 10 bd b3 95 e6 3d 8a 00 51 3e 3a a5 a9 be
       -0.035220895 0.112590216 0.20410362 -0.3313387
0001a0 6e 15 bf 3d 10 bd d8 3d 4b 1d 07 bd 2e 28 44 be
       0.09330259 0.10582936 -0.03298692 -0.19155952
0001b0 1f f3 55 3e 1b fc 57 be c2 6c 92 bd 28 d9 ea bd
       0.20893525 -0.21092264 -0.0714965 -0.114672005
0001c0 f2 d7 90 be 38 79 4d 3d a5 a3 a3 3d b9 1c a1 3e
       -0.28289753 0.05016443 0.07990197 0.31467226
0001d0 07 30 00 be e5 09 48 3e 66 9a 74 be c6 25 50 3e
       -0.12518321 0.19535024 -0.23887023 0.2032691
0001e0 cc c4 9b 3e ec 6f 9f 3e 07 55 fb 3c 68 74 e3 3d
       0.30423582 0.31140077 0.030680193 0.11106187
0001f0 32 ae c7 bd 83 fb 65 3b 8b 01 80 be 0f 99 39 3e
       -0.09750022 0.003509254 -0.25001177 0.18124793
000200 ad 30 b2 bc 86 92 61 3e c6 44 b2 be 80 63 98 be
       -0.021751726 0.2202855 -0.34818095 -0.29763412
000210 c0 a8 3e bd ed 7a 5d be 47 d5 06 3b d3 fd b3 3d
       -0.04654765 -0.21628924 0.00205739 0.087886475
000220 8f 47 7f be 6f a2 3f 3e ca 8d 56 bd 08 95 35 3e
       -0.24929641 0.18714307 -0.052381314 0.17732632
000230 17 ff 8a be ff a3 9e 3d 80 96 38 3e 7b 15 13 bd
       -0.27147743 0.077461235 0.18026161 -0.035909157
000240 1a 44 09 3d 51 a7 00 be b0 40 92 bd 9c e5 76 3d
       0.033512212 -0.12563826 -0.071412444 0.060277566
000250 74 65 04 bd 2d 40 e5 ba 42 79 63 3d e1 d4 40 3e
       -0.032323316 -0.0017490439 0.055535562 0.18831207
000260 b3 ee 62 be eb e5 70 3e c5 f0 67 3c e4 0e 9e 3e
       -0.22161369 0.23525207 0.014156525 0.30870736
000270 0b 6f 11 bd 77 98 18 3e 5c f3 7f 3c cd c7 32 bd
       -0.03550629 0.1490191 0.015621986 -0.043647576
000280 cf 48 8f 3e a3 ca c6 3d 9e 4e 82 bd a0 8f 86 bd
       0.27985236 0.09706619 -0.06362651 -0.06570363
000290 5e 96 dd bc 73 47 8a 3d c0 e1 87 bd 73 05 17 be
       -0.02704924 0.06751909 -0.06634855 -0.14748172
0002a0 7d 5f a5 bd 6f be b4 bd c0 5a 84 3e 59 6f fe bd
       -0.080748536 -0.08825385 0.25850487 -0.12423582
0002b0 78 54 b3 3d b2 94 9a bd da 94 bd bd dd 13 cd 3d
       0.087563455 -0.07547893 -0.09256907 0.10013554
0002c0 17 0a 57 3d 2c 29 7e 3d 8c 15 d0 3d 8e 8a 26 3e
       0.052499857 0.062050983 0.1016036 0.16263792
0002d0 5f f9 6e 3e b6 5e 13 be d4 bf 54 3d a9 07 46 3e
       0.23337315 -0.14391598 0.051940754 0.1933886
0002e0 bd d9 0a 3e 08 91 d5 bc e8 90 84 3d 48 ea 5e bd
       0.13559623 -0.026070133 0.06472951 -0.054422647
0002f0 96 66 f0 bd 62 65 d0 bd 66 6e ed bd a3 e9 56 3d
       -0.11738317 -0.10175587 -0.115933225 0.052468907

bias f4 [6]
000000 33 50 73 bd 3b 6b 54 be c5 83 9f 3d a1 60 2b bd
       -0.059402656 -0.2074403 0.07788805 -0.0418402
000010 7a 6e 62 be 97 50 06 bd
       -0.22112456 -0.0327917
