models/policy_asm_6k.pt (torch, 67720 bytes, 8 tensors)

weight f4 [128, 27]
0	0xbe8013f7	-0.25015232
1	0xc02b7a03	-2.679322
2	0x3eeaf5f5	0.45890775
3	0xc047a654	-3.1195269
4	0x3e729c0c	0.2369234
5	0x3ea20296	0.31642598
6	0x3c168138	0.009186082
7	0xbf33731a	-0.70097506
8	0x3d7dec02	0.061992653
9	0x3f80652b	1.0030874
10	0x3f4310b6	0.76197374
11	0xbeac80e8	-0.33692098
12	0x3f7923fa	0.9732052
13	0x3f154bca	0.5831877
14	0xbd09170d	-0.03346925
15	0x3fab6b6b	1.3392156
16	0x3fa9f6ab	1.3278402
17	0xbe91cb57	-0.28475448
18	0x3e22e089	0.15905966
19	0x3f95066a	1.1642582
20	0x3d8ad6a2	0.06779219
21	0xbe5ab061	-0.21356346
22	0xbdaefe53	-0.08544602
23	0x3d507195	0.05088957
24	0xbefd555e	-0.49479192
25	0xbddd9c12	-0.10820784
26	0x3d16264d	0.03665762
27	0x400ed7cc	2.2319212
28	0x3f0f941a	0.5608536
29	0x403aa247	2.9161546
30	0x3f129cd8	0.57270575
31	0xc0ad1d1b	-5.409803
32	0xbd45ecc9	-0.04832152
33	0x3c83afc1	0.016075017
34	0x3f47f0c5	0.7810176
35	0x3ec39039	0.3819597
36	0xbe51878c	-0.20461863
37	0xbf8962d9	-1.0733291
38	0xbcaeda3f	-0.021344302
39	0x3e6b23a9	0.22962822
40	0x3c33012b	0.010925571
41	0x3e46afea	0.19403043
42	0xbf950e70	-1.1645031
43	0xbf973754	-1.181376
44	0x3e4a3185	0.19745453
45	0x3f23f21f	0.6404132
46	0x3edb47cb	0.4282821
47	0x3ebb1fe1	0.3654776
48	0xbe3d0e8b	-0.18462579
49	0xbcc2ca96	-0.023778241
50	0xbd324abc	-0.043528304
51	0xbc548d9d	-0.012973216
52	0x3e16172e	0.1465728
53	0xbc2ccfe6	-0.010547614
54	0xc00135ed	-2.0189164
55	0xbdd76fde	-0.10519384
56	0xc070177a	-3.751433
57	0x3e34ba41	0.17649175
58	0x3f915abf	1.1355819
59	0x3edc7c69	0.43063667
60	0x3ab24485	0.0013600743
61	0xbfa22b2e	-1.2669427
62	0xbec1f0a0	-0.37878895
63	0xbe8be6b5	-0.27324453
64	0x3ea00d12	0.31259972
65	0x3ec3d416	0.38247746
66	0x3f135523	0.57551783
67	0x3ebcb211	0.36854604
68	0x3f5cfd0c	0.8632362
69	0x3ca883e3	0.020570701
70	0x3ea1f340	0.31630898
71	0x3e146c1f	0.1449437
72	0xbec5d253	-0.38637027
73	0xbf23068a	-0.6368185
74	0xbf8d4a13	-1.1038231
75	0xbe162d9c	-0.14665836
76	0x3dc77928	0.097399056
77	0xbd9e75a6	-0.077372834
78	0xbd73292d	-0.05936544
79	0x3e7f8cb9	0.24956025
80	0x3e7a6a07	0.24454509
81	0xbef8c724	-0.48589432
82	0x3f657e3a	0.8964573
83	0x3e4dc272	0.20093706
84	0x3fc02ddc	1.5013995
85	0xbe37da95	-0.17954476
86	0x3f8ce4b4	1.1007295
87	0xbd10b3c5	-0.03532769
88	0x3f7582e8	0.9590287
89	0xbdb676bd	-0.08909366
90	0xbe1c3502	-0.15254596
91	0xbd3212ed	-0.04347508
92	0x3e96f505	0.2948381
93	0x3f12b1c2	0.57302487
94	0xbe9f52d4	-0.3111788
95	0x3f10af21	0.56517226
96	0xbf59af8c	-0.8503349
97	0xbf29b252	-0.6628772
98	0xbe972649	-0.29521397
99	0x3e88362b	0.26603827
100	0x3f11afb8	0.5690875
101	0xbf7b31b2	-0.98122704
102	0x3e16eb73	0.14738254
103	0x3eeb2e0e	0.45933574
104	0x3ed3da78	0.41377616
105	0xbd881693	-0.06644931
106	0x3eb782b9	0.3584192
107	0x3dbf3142	0.09335567
108	0x3ecdf637	0.4022691
109	0x3fa9e5dd	1.3273274
110	0xbf8f1412	-1.1178
111	0xbead7fd9	-0.33886603
112	0x3ec66e84	0.38756192
113	0x3dd87b36	0.105703756
114	0xb97587c6	-0.000234156
115	0x3f921bc8	1.1414728
116	0x3f186ba4	0.59539247
117	0xbfb4b546	-1.411782
118	0xbe8d9e22	-0.27659708
119	0x3e974c4f	0.29550406
120	0x3ed731e9	0.42030266
121	0xbe6e2d48	-0.23259461
122	0xbed2bd83	-0.4116021
123	0xbf72b149	-0.94801766
124	0xbe6e181c	-0.23251384
125	0x3ee70c0f	0.45126387
126	0xbf02adb8	-0.51046324
127	0xbfcd601d	-1.6044956
128	0xbf2acd29	-0.667193
129	0xbd3970df	-0.045273658
130	0xbeac9111	-0.33704427
131	0x3dbc9fa2	0.09210135
132	0x3ec62445	0.38699546
133	0x3e37ad3c	0.17937177
134	0xbdd09548	-0.10184723
135	0xbfc32de5	-1.5248381
136	0xbe7fedff	-0.24993132
137	0xbfcf173f	-1.6178969
138	0xc04ece4f	-3.231342
139	0x3fc6c63d	1.5529248
140	0xbee080d4	-0.43848288
141	0x3bb1d590	0.00542707
142	0x3fbf5253	1.4946998
143	0xbe36335f	-0.17793034
144	0xbeae6e2e	-0.34068435
145	0x3eacf401	0.3377991
146	0xbeb2770e	-0.34856457
147	0xbe9f2e7d	-0.31090155
148	0xbe2fe440	-0.17176914
149	0xbde4d914	-0.11174217
150	0xbf2f4ae9	-0.6847368
151	0x3e800126	0.25000876
152	0x3edae581	0.42753223
153	0xbf5f9526	-0.8733696
154	0x3e64464c	0.22292441
155	0x3e092f8d	0.13397045
156	0x3e5a5bad	0.21324034
157	0x3dfc57fd	0.1232147
158	0x3df4d94a	0.11955507
159	0x3d5a1d03	0.053250324
160	0xbe2a3303	-0.16621022
161	0xbe847079	-0.2586706
162	0xbf17b4fe	-0.5926055
163	0x3f09f778	0.5389323
164	0xbde00fca	-0.109405115
165	0x3fe994ff	1.8248595
166	0x3fb46ac0	1.4095078
167	0x3f1aefce	0.6052216
168	0x3cf3e33c	0.02977144
169	0xbf0edde8	-0.5580735
170	0x3e989327	0.29799768
171	0x3f0beaf7	0.546554
172	0x3f984022	1.1894572
173	0x3ed22ac3	0.4104825
174	0x3f4196b2	0.7562057
175	0x3f00418a	0.50100005
176	0xbe3b3149	-0.1828052
177	0xbe80eee8	-0.2518227
178	0x3f7a5950	0.9779253
179	0xbf3e15ab	-0.7425181
180	0xbf9ad66d	-1.2096688
181	0xbf38722f	-0.7204923
182	0xbe906fef	-0.282104
183	0x3e46385e	0.1935744
184	0xbab5ae96	-0.0013861235
185	0x3e3f50ef	0.18683217
186	0x3e435544	0.19075495
187	0x3d6efa9e	0.058344476
188	0xbe109028	-0.14117491
189	0xbf08baec	-0.5341022
190	0xbcf39242	-0.029732827
191	0xc0180aa7	-2.3756502
192	0x3f2c28b3	0.672496
193	0xbee09d69	-0.43870094
194	0x3ea66c4c	0.325045
195	0xbaee8eb3	-0.0018200487
196	0xbea605c5	-0.32426277
197	0x3ea7b8d7	0.3275821
198	0x3f227e95	0.634744
199	0x3e436c60	0.1908431
200	0xbdde651f	-0.10859131
201	0x3f6c2161	0.9223843
202	0xbe35b229	-0.17743744
203	0x3e8c8be7	0.27450487
204	0x3f0d7d13	0.55268973
205	0xbf83f168	-1.0308046
206	0xbf878386	-1.0587013
207	0xbf2f3c62	-0.6845151
208	0xc010df0a	-2.2636132
209	0xbe9ed45d	-0.31021395
210	0xbd851b6f	-0.06499373
211	0xbe8fa501	-0.28055575
212	0x3d4bae31	0.04972667
213	0xbe433c53	-0.1906598
214	0xbcc52c73	-0.024069047
215	0x3ce07f42	0.027404431
216	0xbe3aa0ed	-0.18225451
217	0x3f1a4413	0.60260123
218	0xbf6927a2	-0.910761
219	0xbf6709b5	-0.90249187
220	0xbf74ed8a	-0.95674956
221	0xbf8d3a14	-1.1033349
222	0x3ccfe20c	0.025376342
223	0xc01aa75f	-2.4164655
224	0xbdff5c2b	-0.124687515
225	0x3f6ee658	0.93320227
226	0xbec8e9bc	-0.39240825
227	0xbf1a083c	-0.60168815
228	0x3ec7de77	0.39036915
229	0xbefc2ad8	-0.49251437
230	0xbe040be9	-0.12895168
231	0x3f525067	0.82153934
232	0xbedeaf8e	-0.43493313
233	0xbf1a61da	-0.6030556
234	0xbec032b4	-0.37538683
235	0xbfc24628	-1.517766
236	0xbd481cdc	-0.048855647
237	0x3d334f01	0.043776516
238	0x3dfd2e13	0.123623036
239	0x3e891c97	0.26779625
240	0xbcbe8a6d	-0.023259366
241	0x3e976c4c	0.2957481
242	0xbe9380c1	-0.2880917
243	0xbf316d5e	-0.69307506
244	0xbebf72a8	-0.37392163
245	0xbed3266d	-0.41240254
246	0xbfcba8b0	-1.5910854
247	0x403863c5	2.8810894
248	0x3ef9c73b	0.48784813
249	0xbd9971f1	-0.07492436
250	0x3e3f12f2	0.18659571
251	0x3ebbf630	0.36711264
252	0x3e90a236	0.28248757
253	0x3f0eecbf	0.55829996
254	0x3e2e7d19	0.17039908
255	0xbd8dc0eb	-0.06921562

bias f4 [128]
0	0xbe0dbddb	-0.13841955
1	0xbe9ffa46	-0.3124563
2	0x3e45c97b	0.1931514
3	0xbec0760e	-0.3759007
4	0xbdbbead8	-0.09175652
5	0x3e41c800	0.1892395
6	0xbf1059a9	-0.5638681
7	0xbdac0e0e	-0.08401118
8	0x3cb4da20	0.022076666
9	0xbea7e48e	-0.3279156
10	0xbdb408e6	-0.0879076
11	0x3c833810	0.016017944
12	0xbe9f7e55	-0.3115107
13	0xbddb866f	-0.107190005
14	0xbed3482f	-0.4126601
15	0x3d5c9c6a	0.053860106
16	0xbda2885b	-0.07936164
17	0xbd316bca	-0.043315686
18	0xbec718b8	-0.38886046
19	0xbddbbd56	-0.10729472
20	0xbe749341	-0.23884298
21	0xbef43e80	-0.47703934
22	0x3d70fddf	0.05883586
23	0xbe8db041	-0.27673534
24	0xbe48cc80	-0.1960926
25	0x3e609dee	0.21935245
26	0xbd170f46	-0.0368798
27	0x3e135382	0.14387324
28	0xbde281cc	-0.11059913
29	0x3e637d7a	0.22215834
30	0xbed23b25	-0.4106075
31	0xbe912477	-0.28348133
32	0x3e24a954	0.16080219
33	0x3db9c878	0.090714395
34	0xbd3174ad	-0.04332416
35	0x3e4adaac	0.19809979
36	0xbf6e58fd	-0.93104535
37	0xbe439ec8	-0.19103539
38	0xbcecba8b	-0.028897544
39	0x3e27d9df	0.16391705
40	0x3d22b910	0.03972727
41	0x3e3601bb	0.17774098
42	0xbeab0f58	-0.33410144
43	0x3e030b88	0.12797368
44	0xbeb74d39	-0.35801104
45	0xbf39e1aa	-0.7260996
46	0xbeece5f1	-0.4626918
47	0xbdb27700	-0.08714104
48	0x3d8e1922	0.069383875
49	0xbe689b6a	-0.22715536
50	0xbf039b7d	-0.5140913
51	0xbe03b431	-0.12861706
52	0x3de8ffe8	0.11376935
53	0xbe9e6348	-0.3093512
54	0xbec5e8b1	-0.38654092
55	0xbec214b3	-0.37906417
56	0xbf043210	-0.5163889
57	0x3e4dc45a	0.20094433
58	0xbe02a8bf	-0.12759684
59	0xbcad2fe3	-0.021140998
60	0x3e657c32	0.22410658
61	0xbdce8533	-0.100839995
62	0xbf259d43	-0.6469309
63	0x3e2bc182	0.16773036
64	0xbd0120cc	-0.03152542
65	0xbd943bac	-0.07237944
66	0xbe69a31e	-0.2281613
67	0xbdd3e504	-0.10346416
68	0xbe8ffcba	-0.28122503
69	0xbe8a953c	-0.27066982
70	0xbea2ca81	-0.31795123
71	0xbecf45ca	-0.40482932
72	0xbdee97c1	-0.116500385
73	0xbd6750cf	-0.05647355
74	0xbe67fabc	-0.22654241
75	0xbed7b4c8	-0.42130113
76	0xbecc89ac	-0.39948785
77	0x3ed956f4	0.42449152
78	0xbee760ab	-0.4519094
79	0xbd810491	-0.06299699
80	0x3ddf2193	0.10895076
81	0xbea30726	-0.3184139
82	0xbf2043e2	-0.6260358
83	0xbd2fa25d	-0.04287945
84	0x3cd9e115	0.026596585
85	0xbf02e8b1	-0.5113631
86	0xbd9febe6	-0.07808666
87	0xbe191571	-0.14949585
88	0x3ca774bd	0.020441407
89	0x3e0448f2	0.12918451
90	0xbe5ae91b	-0.21377985
91	0xbe2f39bb	-0.17111866
92	0xbef924be	-0.48660845
93	0xbe72633e	-0.2367067
94	0xbe353574	-0.17696172
95	0xbe722b3d	-0.23649307
96	0x3d1d069c	0.03833638
97	0x3e02d2e5	0.12775762
98	0x3de4664c	0.11152324
99	0x3c4982a6	0.012299215
100	0xbd433baf	-0.04766434
101	0xbcf26516	-0.029589217
102	0xbea17ff8	-0.31542945
103	0xbdb1d146	-0.08682494
104	0x3e2a580a	0.16635147
105	0x3e3066c7	0.17226706
106	0xbe9f3d89	-0.31101635
107	0xbeb495f0	-0.35270643
108	0xbdb31955	-0.08745066
109	0xbea4afe8	-0.32165456
110	0x3dcbcefc	0.099515885
111	0x3e0c0e81	0.13677408
112	0xbecdb593	-0.40177593
113	0xbe8983e6	-0.26858443
114	0xbe9907c6	-0.29888743
115	0xbef90102	-0.4863358
116	0xbe6f415e	-0.2336478
117	0xbe869d35	-0.26291814
118	0xbecfd7c9	-0.40594319
119	0xbf47fc7c	-0.78119636
120	0x3de40ed6	0.11135642
121	0x3d77e69b	0.060522657
122	0xbec9e6f8	-0.39434028
123	0xbe66829f	-0.22510765
124	0xbebe12f8	-0.37123847
125	0x3e1d7a10	0.15378594
126	0x3cdf70c3	0.027275449
127	0xbe82ef5b	-0.2557324

weight f4 [64, 128]
0	0xbeb9fbab	-0.3632482
1	0xbddd5fdd	-0.108093
2	0xbb394c1a	-0.002827412
3	0xbe8744b8	-0.26419616
4	0xbe8c0798	-0.27349544
5	0x3df0a5d6	0.11750381
6	0xbefed997	-0.49775383
7	0xbd7e4781	-0.06207991
8	0xbdcb068f	-0.0991336
9	0x3e98fb30	0.2987914
10	0xbb28ee74	-0.0025776895
11	0x3eb08832	0.3447891
12	0x3e20f70f	0.15719245
13	0xbe9ec444	-0.31009114
14	0xbe0bfed2	-0.13671425
15	0x3dbb62f3	0.091497324
16	0x3d9cb233	0.07651176
17	0xbeaaf162	-0.33387285
18	0xb9a4d31d	-0.0003143781
19	0xbead00bc	-0.33789623
20	0xbdf7ce76	-0.12099926
21	0xbe8c11f1	-0.27357438
22	0xbe887821	-0.2665415
23	0xbdd56a2a	-0.1042064
24	0xbe26a077	-0.1627215
25	0x3e349ab9	0.17637147
26	0xbe2518a0	-0.16122675
27	0x3e8121d4	0.2522112
28	0xbe88bca7	-0.2670643
29	0xbd5181fc	-0.051149353
30	0xbe97fd17	-0.2968528
31	0xbea40eda	-0.3204258
32	0x3e4de9d3	0.20108728
33	0xbe3ce644	-0.18447214
34	0xbdf1f962	-0.11815144
35	0xbd592b23	-0.053019654
36	0xbe035225	-0.12824304
37	0x3e044764	0.12917858
38	0xbcef366f	-0.02920076
39	0x3ef8fd12	0.48630577
40	0x3e0c918d	0.13727398
41	0x3e15b3a7	0.14619313
42	0xbe3ac366	-0.18238601
43	0x3e0530af	0.13006853
44	0xbdd5022c	-0.10400805
45	0x3d1430dc	0.03617941
46	0xbd811fb0	-0.06304872
47	0xbd94b82e	-0.07261692
48	0xbdd540a6	-0.10412721
49	0xbdab4d3a	-0.08364339
50	0x3da2abc4	0.07942918
51	0xbe5e1ace	-0.21689913
52	0x3cd20f9f	0.025642214
53	0xba21c2a1	-0.00061706646
54	0x3d80b4f0	0.06284511
55	0xbe49e43d	-0.19715972
56	0x3ce31b60	0.027723014
57	0x3e329a6f	0.17441724
58	0x3e8d7c18	0.2763374
59	0xbe3083c0	-0.17237759
60	0xbe119fcf	-0.14221118
61	0xbe122c1b	-0.14274637
62	0xbe88fa97	-0.26753685
63	0xbdceaf5d	-0.10092042
64	0xbcc682b2	-0.024232242
65	0xbe37afa3	-0.17938094
66	0xbcf00356	-0.029298466
67	0x3e0cb432	0.13740614
68	0xbd840079	-0.06445403
69	0xbd5ee129	-0.05441395
70	0xbdb03f04	-0.08605769
71	0xbdb21138	-0.086946905
72	0xbe9cd375	-0.3063008
73	0xbe5c92b2	-0.21540335
74	0x3e334012	0.1750491
75	0xbe57f256	-0.21088538
76	0xbe41892d	-0.18899985
77	0x3b008100	0.001960814
78	0xbdd8b43b	-0.10581251
79	0x3e8275f6	0.25480622
80	0xbcda123e	-0.026620027
81	0x3d96c34e	0.0736147
82	0xbe362e56	-0.17791113
83	0xbee4f1b9	-0.4471567
84	0x3dcaaf2a	0.09896691
85	0x3daea23f	0.0852704
86	0xbdee1822	-0.11625697
87	0x3e1f6759	0.15566768
88	0xbdd7ff9f	-0.10546803
89	0xba83e841	-0.0010063724
90	0xbe8eb7ff	-0.27874753
91	0xbe29a7e5	-0.16567953
92	0x3c053a21	0.008131535
93	0x3bc48d39	0.0059982804
94	0x3d7f2b40	0.062297106
95	0x3d5c8ddb	0.05384622
96	0x3d884b12	0.066549435
97	0xbe05252b	-0.1300246
98	0x3dbe88be	0.09303425
99	0x3e4eb9ce	0.20188066
100	0x3cba4221	0.02273661
101	0x3e6424b9	0.22279634
102	0xbe6791b5	-0.22614177
103	0xbd6f9513	-0.058491778
104	0x3e7d1063	0.24713282
105	0x3e11a693	0.142237
106	0xbdb17b41	-0.08666087
107	0x3e32bc8e	0.1745474
108	0xbe61fee7	-0.22069894
109	0xbe921581	-0.2853203
110	0x3d89a031	0.06720007
111	0xbdd63595	-0.10459439
112	0x3dc388f9	0.0954761
113	0xbeb2e96f	-0.3494372
114	0xbec72f89	-0.38903454
115	0x3d961fd9	0.07330293
116	0x3db8ffbb	0.09033152
117	0xbe830de5	-0.25596538
118	0xbd2d40d4	-0.042298153
119	0xbf725b1d	-0.9467028
120	0x3def34c3	0.116799854
121	0xbd0afe2e	-0.03393381
122	0xbd9ce362	-0.07660557
123	0x3e17dcd9	0.1483034
124	0x3d7bd189	0.061479125
125	0x3dc699a9	0.09697277
126	0xbe4bd64e	-0.1990597
127	0xbc766b4c	-0.01504023
128	0xbf13f6e5	-0.57798606
129	0xbca53ad9	-0.020169662
130	0x3d2c90c3	0.042130243
131	0xbd64bc7d	-0.05584382
132	0xbda5b9ee	-0.08092104
133	0xbdbb21e4	-0.091373235
134	0xbeb2f5c7	-0.34953138
135	0x3e509a17	0.2037128
136	0x3e581471	0.21101548
137	0xbeacdcaf	-0.33762118
138	0x3d8ee0d6	0.06976478
139	0x3db63073	0.0889596
140	0xbe216691	-0.15761782
141	0x3b1496a4	0.0022672797
142	0x3e23d6be	0.15999886
143	0x3c8369eb	0.016041717
144	0x3d958013	0.07299819
145	0xbee0f589	-0.43937328
146	0xbddcd2cb	-0.10782393
147	0x3dfd9e2c	0.123836845
148	0xbe4412e5	-0.19147833
149	0xbe85a624	-0.26103318
150	0xbd0ecbdf	-0.034862395
151	0xbf22e089	-0.63623863
152	0x3e17d18c	0.1482603
153	0x3e1c4918	0.15262258
154	0x3ea047fd	0.31304923
155	0xbee3f62f	-0.4452376
156	0x3eaea5e2	0.34110934
157	0x3e486a2b	0.1957175
158	0xbfd09273	-1.6294693
159	0xbd75b04d	-0.059982587
160	0x3d63483c	0.05548881
161	0x3ea0fa27	0.3144085
162	0x3de0e8a8	0.10981876
163	0x3e88b929	0.26703766
164	0xbf2f4bb5	-0.68474895
165	0x3dce857b	0.10084053
166	0x3dff1318	0.12454814
167	0x3ed6d6f9	0.41960886
168	0xbce9a0a4	-0.028518982
169	0x3dc5200b	0.09625252
170	0xbd46b27c	-0.04851006
171	0x3d8d599d	0.06901858
172	0xbd7c80de	-0.061646335
173	0xbe0215dc	-0.12703651
174	0x3d9aef94	0.07565227
175	0x3ddfa178	0.109194696
176	0xbdf32162	-0.11871602
177	0x3dda132b	0.10648187
178	0xbdf251a3	-0.11831977
179	0xbc43981e	-0.011938123
180	0xbd8ee4c0	-0.06977224
181	0xbd0e5a41	-0.03475404
182	0xbda038ea	-0.078233555
183	0xbd9e62f6	-0.07733719
184	0xbd311dfd	-0.04324149
185	0x3d8183d0	0.06323969
186	0xbf1ec393	-0.6201717
187	0xbce5b22e	-0.028039064
188	0xbd0e744a	-0.03477887
189	0xbf066986	-0.52504766
190	0xbef5a3d7	-0.47976562
191	0xbda9b3c1	-0.082862385
192	0xbc9805ca	-0.018557448
193	0x3c91f10b	0.017815134
194	0x3e30bf9c	0.17260593
195	0x3e2cc428	0.16871703
196	0x3cc1743c	0.023614995
197	0x3df40d38	0.11916584
198	0x3e217b5c	0.15769714
199	0x3d31ab59	0.0433763
200	0x3e573979	0.21018018
201	0x3c088b77	0.008334032
202	0xbc5367c3	-0.012903157
203	0xbf03413c	-0.51271415
204	0xbe6c75fc	-0.23091882
205	0x3f401c50	0.750432
206	0x3e25110b	0.16119783
207	0xbea637f5	-0.32464567
208	0xbe17d7e9	-0.14828457
209	0xbe47a8af	-0.19497941
210	0xbf0ab63f	-0.54184335
211	0x3e18b399	0.14912261
212	0x3e35830c	0.17725772
213	0xbd8c8573	-0.06861391
214	0xbd2f33ad	-0.04277389
215	0xbe3dc0bf	-0.18530558
216	0x3e1dc99d	0.1540894
217	0x3c44732e	0.011990352
218	0x3de177b1	0.110091574
219	0xbf096ca9	-0.5368143
220	0xbd2f134a	-0.042743005
221	0xbd665794	-0.056235865
222	0xbd1bb483	-0.038013946
223	0xbf0c3998	-0.5477538
224	0x3e222098	0.15832746
225	0x3e88cbb9	0.26717928
226	0x3dad15f9	0.084514566
227	0xbdb16d9c	-0.086634845
228	0x3ea895bf	0.32926747
229	0x3e5d5032	0.21612623
230	0xbd1fe553	-0.03903706
231	0xbd805fb4	-0.06268254
232	0xbce87ce0	-0.028379858
233	0xbdaba77d	-0.08381555
234	0xbd7ad8ef	-0.06124204
235	0xbe192c5e	-0.14958331
236	0xbf7c6fa9	-0.9860788
237	0xbe112102	-0.14172748
238	0x3d9218dc	0.07133648
239	0x3df3edd8	0.119105995
240	0x3cc6ad28	0.02425249
241	0xbf50fe15	-0.816377
242	0xbf0426e4	-0.5162184
243	0xbe0cb0fb	-0.13739388
244	0xbe172507	-0.14760219
245	0xbe9eaabb	-0.30989632
246	0xbb28bb88	-0.0025746543
247	0xbf592d29	-0.84834534
248	0x3e17478c	0.14773387
249	0x3e0bbaf0	0.1364553
250	0xbe672faf	-0.22576784
251	0xbeb9cfa4	-0.3629123
252	0x3e4b5210	0.19855523
253	0x3d894a2c	0.067036
254	0xbe4855e1	-0.1956401
255	0xbc7318d6	-0.014837464

bias f4 [64]
0	0xbe547a63	-0.20749812
1	0x3d20b4c2	0.039234884
2	0xbe4a64df	-0.19765042
3	0xbecd5395	-0.4010283
4	0xbe621b2b	-0.22080676
5	0xbe8c98ba	-0.2746027
6	0xbe942e45	-0.2894155
7	0xbe39c80b	-0.18142717
8	0x3db100d2	0.086427346
9	0x3ce790e5	0.028267333
10	0xbe3a0155	-0.1816457
11	0xbd02a552	-0.031895943
12	0xbe29fcfc	-0.16600412
13	0xbe745e71	-0.23864152
14	0xbe82fdb9	-0.255842
15	0x3d08b2ae	0.033373527
16	0xbc12fb94	-0.008971114
17	0xbd5bfae9	-0.053706083
18	0x3e00b6e7	0.12569772
19	0x3d2d35d4	0.042287663
20	0x3beb1124	0.007173674
21	0xbe8cb008	-0.2747805
22	0xbe562df6	-0.2091597
23	0xbe4b30d3	-0.19842844
24	0xbe529e31	-0.20568158
25	0x3ddb5e20	0.10711312
26	0x3dae01c1	0.08496428
27	0xbe0956ab	-0.13411967
28	0x3d5e971f	0.05434334
29	0xbdd9578c	-0.10612401
30	0xbe62a4bd	-0.22133155
31	0xbd7e3a49	-0.062067304
32	0xbd645fd1	-0.05575544
33	0xbc587e77	-0.013213745
34	0xbe02f750	-0.12789655
35	0xbe511618	-0.20418584
36	0xbe10aa4a	-0.1412746
37	0xbe1a61a7	-0.15076314
38	0x3d9f5d9d	0.07781527
39	0xbe0fda6f	-0.1404817
40	0x3dfd2a5f	0.12361597
41	0xbde3f2c7	-0.111302905
42	0x3d0e6a2c	0.034769222
43	0xbeb2f9f7	-0.34956333
44	0xbcabe1a6	-0.020981621
45	0xbe1831c4	-0.14862734
46	0x3d58f2d1	0.052965943
47	0xbd2cb9ba	-0.04216931
48	0xbce12d48	-0.027487412
49	0xbebdf97a	-0.37104398
50	0xbddf5254	-0.10904375
51	0xbd529d0b	-0.0514193
52	0xbe163b64	-0.14671093
53	0xbd1d3bd8	-0.03838715
54	0xbdde11e2	-0.108432546
55	0xbeb1d811	-0.34735158
56	0xbe883aa0	-0.26607227
57	0xbcd0f106	-0.025505554
58	0xbe20bd95	-0.1569732
59	0xbc8ac744	-0.01694072
60	0xbd2d268f	-0.0422731
61	0xbdc49b14	-0.09599891
62	0x3ced0d82	0.028937105
63	0xbdeae9f8	-0.11470407

weight f4 [32, 64]
0	0xbcccf0ca	-0.02501716
1	0xbe6f236d	-0.23353358
2	0xbc8937ea	-0.016750295
3	0xbd9c0ba0	-0.07619405
4	0x3e0d51f4	0.13800794
5	0xbd874aeb	-0.06606086
6	0x3e8f32b6	0.27968377
7	0x3cdf3075	0.027244786
8	0x3ead9c9f	0.33908555
9	0x3e045f3f	0.12926959
10	0xbc66a7d9	-0.014078104
11	0xbdf1afd9	-0.118011184
12	0xbdebe931	-0.11519087
13	0xbd5e1d4d	-0.054227162
14	0x3d3c069d	0.045904744
15	0x3de3cbad	0.111228324
16	0x3d370c9e	0.044689767
17	0x3c8acff7	0.016944868
18	0x3c6a72df	0.014309614
19	0xbe980419	-0.29690626
20	0xbe374e73	-0.1790102
21	0xbe094b3f	-0.1340761
22	0xbe8b11ee	-0.27162117
23	0x3e692080	0.22766304
24	0x3e344850	0.1760571
25	0xbe96eb03	-0.29476175
26	0x3d878427	0.06617003
27	0x3e21f022	0.1581426
28	0xbd930966	-0.07179527
29	0xbddcf76f	-0.10789382
30	0x3e51c2a4	0.20484406
31	0xbcb05a98	-0.021527573
32	0xbe89022c	-0.2675947
33	0xbed9c40a	-0.42532378
34	0xbe03d7bc	-0.12875265
35	0xbe98eee5	-0.29869762
36	0xbc9f18ab	-0.019420942
37	0x3d12fac8	0.035883695
38	0x3b741bae	0.0037247944
39	0xbdf95b5b	-0.12175628
40	0xbe2efd30	-0.17088771
41	0x3ded06c4	0.11573556
42	0x3e90d9aa	0.28291065
43	0xbd02929f	-0.03187811
44	0xbe92bca9	-0.2865956
45	0x3ea4045d	0.3203458
46	0x3e734822	0.23757985
47	0xbe64ee8f	-0.22356628
48	0xbec1fdc1	-0.3788891
49	0x3ddf72af	0.10910546
50	0x3cc0d8f4	0.023540951
51	0xbba9f11f	-0.0051862146
52	0x3f603821	0.87585646
53	0xbd9c9652	-0.07645859
54	0xbeb72d48	-0.35776734
55	0xbe6e3416	-0.23262057
56	0x3e04f669	0.12984623
57	0xbcdcd85e	-0.02695864
58	0xbc73a8dc	-0.014871802
59	0xbed3e67c	-0.41386783
60	0xbd3a7f72	-0.045531698
61	0x3ebac169	0.36475685
62	0x3d8aae82	0.06771566
63	0x3ed0d944	0.4079076
64	0x3d9cd6b0	0.07658136
65	0xbea7b45a	-0.32754785
66	0xbe2629f6	-0.16226944
67	0xbe76f50d	-0.24116917
68	0xbd9f5298	-0.077794254
69	0x3e98c511	0.2983785
70	0xbdff8f17	-0.12478464
71	0x3c80b2c8	0.01571025
72	0x3dacd686	0.084393546
73	0xbdc0f399	-0.094214626
74	0x3e35b52c	0.17744893
75	0xbe8ff198	-0.2811401
76	0x3e0d57cb	0.13803022
77	0x3c32b9d2	0.010908561
78	0x3d9deb1e	0.07710861
79	0xbe1e1488	-0.1543752
80	0x3e5171b4	0.2045353
81	0x3e2ac517	0.16676746
82	0xbe515552	-0.20442703
83	0xbe673a19	-0.22580756
84	0x3d798290	0.06091553
85	0xbc312da8	-0.010814108
86	0xbd5cd560	-0.053914428
87	0xbddfd7de	-0.10929845
88	0xbe0f78b0	-0.14010882
89	0x3cc40081	0.023926022
90	0xbd989cca	-0.0745178
91	0xbcf48d2d	-0.029852474
92	0xbd6a876a	-0.057258047
93	0x3d9ca0f0	0.07647884
94	0xbc9a0f36	-0.018806081
95	0xbd641d35	-0.055691916
96	0x3e0c6426	0.13710079
97	0x3d978c1d	0.07399771
98	0x3e6a0979	0.22855176
99	0x3c165a47	0.009176797
100	0x3d066ebc	0.03282045
101	0x3e131c4a	0.1436626
102	0xbd2cba46	-0.04216983
103	0x3e8afb48	0.27144837
104	0xbd4d6fd0	-0.05015546
105	0x3d39efc1	0.045394663
106	0xbed3b0c0	-0.41345787
107	0x3dffc326	0.124883935
108	0x3e36e169	0.17859425
109	0x3d9fdf4c	0.078062624
110	0x3caab952	0.02084032
111	0xbdf569e1	-0.119830854
112	0xbc822ec6	-0.015891444
113	0xbe4a33f1	-0.19746377
114	0xbbba5d72	-0.005687409
115	0xbd848cb8	-0.064721525
116	0xbe6582b4	-0.2241314
117	0xbde2e937	-0.110796385
118	0x3dbf6534	0.09345475
119	0x3c9beb8c	0.019033216
120	0xbe0263bb	-0.12733357
121	0x3d9383bd	0.072028615
122	0x3e81046c	0.25198686
123	0x3e69a954	0.228185
124	0x3e63fd32	0.22264555
125	0x3d1f76a4	0.038931504
126	0xbe19b0a8	-0.15008795
127	0x3dc66205	0.096866645
128	0x3ed62aaf	0.4182944
129	0xbe41e99d	-0.18936773
130	0xbdb71084	-0.08938697
131	0xbe6944dc	-0.22780174
132	0xbd8a91b5	-0.06766073
133	0x3c5a037b	0.013306494
134	0x3defd594	0.11710659
135	0x3cb669c5	0.022267232
136	0xbe0f9714	-0.14022475
137	0xbe8a134e	-0.26967853
138	0x3d42283c	0.04740165
139	0x3cf0d537	0.029398544
140	0xbd0a9c9b	-0.033840757
141	0x3e337b9e	0.17527625
142	0xbd41c78d	-0.047309447
143	0x3e956b62	0.2918349
144	0xbdce5a8f	-0.100758664
145	0x3e331bac	0.17491025
146	0x3e2c9813	0.16854887
147	0x3e04700a	0.12933365
148	0x3d8fea70	0.07027137
149	0x3e46d86d	0.19418497
150	0xbca31021	-0.019905152
151	0xbcbfb9eb	-0.023404082
152	0xbe2ecf22	-0.17071202
153	0x3f5f8f5c	0.87328124
154	0x3de64acf	0.11244737
155	0x3d56d0b1	0.052445117
156	0x3d79895e	0.06092202
157	0xbe149748	-0.14510834
158	0x3be884d7	0.007095914
159	0xbea6c77c	-0.3257407
160	0xbe4c63ca	-0.19959942
161	0xbe220f31	-0.15826108
162	0x3d812582	0.06305982
163	0x3e07a6ae	0.13247177
164	0x3d8e1d6e	0.06939207
165	0xbd8c04fb	-0.068368874
166	0x3e153c64	0.14573818
167	0x3d83be2a	0.06432755
168	0x3c8f9b59	0.01753013
169	0x3d5e0d9a	0.05421219
170	0x3cb07da4	0.021544285
171	0x3d5463d9	0.051853035
172	0xbe39cf42	-0.18145469
173	0xbd79b51f	-0.060963746
174	0x3e145256	0.14484534
175	0x3c0d86c6	0.0086380895
176	0xbdcd26a2	-0.10017134
177	0xbdfc8af6	-0.12331192
178	0x3df168ab	0.11787542
179	0xbdca6903	-0.09883311
180	0x3d9fb14e	0.0779749
181	0xbe3d7c0d	-0.18504353
182	0x3bbaa697	0.0056961286
183	0x3e4662e8	0.19373667
184	0xbe43ce87	-0.19121753
185	0x3dba193d	0.09086845
186	0x3e01561f	0.12630509
187	0xbd2842f0	-0.04107946
188	0xbe2086f6	-0.15676484
189	0xbe855d9c	-0.2604798
190	0xbe44b529	-0.19209732
191	0x3da77a3d	0.08177612
192	0xbd2c60e6	-0.042084597
193	0x3da426f3	0.080152415
194	0x3e059dbe	0.13048455
195	0x3e226bc0	0.15861416
196	0xbe572c16	-0.21012911
197	0x3d478a33	0.04871578
198	0xbd2da536	-0.042393886
199	0xbe143fbd	-0.14477439
200	0xbe284e2c	-0.1643607
201	0x3eb63341	0.3558598
202	0xbb17a30b	-0.0023137953
203	0x3c8e7944	0.017391808
204	0xbcca5ff0	-0.02470395
205	0x3dcecd40	0.10097742
206	0x3e04726b	0.12934272
207	0xbdd207f5	-0.10255424
208	0x3d60618c	0.054780528
209	0xbab15e85	-0.0013532197
210	0x3c3f3dd9	0.0116724605
211	0xbd4a98b3	-0.04946203
212	0xbe4e16f9	-0.20125951
213	0xbdd036d1	-0.101667054
214	0xbc73c605	-0.0148787545
215	0x3de9dcd1	0.114190705
216	0x3dad06c3	0.08448555
217	0xbdf802bb	-0.12109896
218	0xbd99fa08	-0.07518393
219	0xbdf247ef	-0.118301265
220	0x3c22791f	0.009916573
221	0x3d94028f	0.072270505
222	0x3d2d4924	0.04230608
223	0x3d880a89	0.066426344
224	0x3dc657a3	0.09684684
225	0xbe940f02	-0.289177
226	0x3e03ca5b	0.12870161
227	0xbe059cea	-0.13048139
228	0xbe3e47b6	-0.18582043
229	0x3d2a0728	0.04151073
230	0xbcb81d9a	-0.022475053
231	0x3d4819d1	0.048852745
232	0x3e3ca83f	0.18423556
233	0x3d49f264	0.049303427
234	0xbc0de272	-0.008659946
235	0x3dcbc2ab	0.09949239
236	0x3ac59469	0.0015074137
237	0x3d6f00e2	0.05835045
238	0xbe8e998e	-0.27851528
239	0xbd09c3b3	-0.0336339
240	0x3dd73823	0.10508754
241	0x3d7e844e	0.062137894
242	0x3e35805e	0.1772475
243	0xbeb52dbd	-0.35386458
244	0x3da05d7d	0.078303315
245	0xbe1974ac	-0.14985913
246	0xbcd496b9	-0.025950776
247	0x3d574813	0.05255897
248	0xbce70358	-0.028199837
249	0xbe3baf3a	-0.18328562
250	0x3e643cf6	0.2228888
251	0xbdbf0256	-0.093266174
252	0x3c081083	0.008304718
253	0xbd489efa	-0.048979737
254	0x3dc8503b	0.09780928
255	0xbd1b9429	-0.037983093

bias f4 [32]
0	0xbe835004	-0.25646985
1	0x3c95bbf9	0.018278109
2	0xbdc9312e	-0.098238334
3	0xbdccd2ca	-0.10001142
4	0x3e012536	0.12611851
5	0xbe7895a5	-0.24275835
6	0xbd147609	-0.03624538
7	0xbe561078	-0.2090472
8	0xbe9debc8	-0.3084395
9	0xbea2bd0a	-0.3178485
10	0xbdc93b4b	-0.09825762
11	0x3e9c0e0c	0.30479467
12	0xbe8d6244	-0.27614033
13	0xbd8ed9a8	-0.069751084
14	0xbdad0c26	-0.08449583
15	0xbebee394	-0.37283003
16	0xbdef1e0d	-0.116756536
17	0x3d408a22	0.047006734
18	0xbd86211b	-0.06549283
19	0xbdd8584b	-0.105637155
20	0xbe832dc2	-0.25620848
21	0x3d0b65f8	0.03403279
22	0xbeace568	-0.33768773
23	0xbe05cf2b	-0.1306731
24	0xbe49feae	-0.19726059
25	0xbe4d5c70	-0.20054793
26	0xbe7c4a1d	-0.24637647
27	0x3ea4f0be	0.32214922
28	0xbc0f66da	-0.008752549
29	0xbe59f036	-0.2128304
30	0x3e6bdac0	0.23032665
31	0xbe1cd55f	-0.1531577

weight f4 [6, 32]
0	0x3da530e2	0.08065964
1	0xbcced5be	-0.025248405
2	0xbdaa9fac	-0.08331236
3	0x3c5986d1	0.013276772
4	0x3cfc9163	0.030831045
5	0xbcf2af19	-0.029624509
6	0xbce32d50	-0.027731568
7	0x3d488ce8	0.048962504
8	0x3c337df5	0.010955323
9	0x3d7a238e	0.061069064
10	0x3ce60226	0.028077196
11	0xbd8fbbdb	-0.070182525
12	0x3e0fc3ee	0.14039585
13	0xbcada4d1	-0.021196755
14	0xbce02a13	-0.027363813
15	0x3cb631ff	0.022240637
16	0xbd6a75a9	-0.057241116
17	0xbd338cc5	-0.04383542
18	0xbdb7196e	-0.08940397
19	0xbdbce939	-0.09224171
20	0xbd5240be	-0.051331274
21	0xbb0e7fed	-0.002174373
22	0x3b14545a	0.0022633285
23	0xbdd934c1	-0.10605765
24	0x3c40e590	0.011773482
25	0x3da79928	0.08183509
26	0x3d23c786	0.039985202
27	0xbd5f7455	-0.054554302
28	0xbd7e0d30	-0.062024295
29	0xbcf32cfd	-0.029684538
30	0xbd329a0f	-0.043603953
31	0x3cf96ce0	0.030447423
32	0xbc961f60	-0.018325508
33	0x3d665062	0.056229003
34	0xbce0d148	-0.027443543
35	0x3c978e5f	0.018500505
36	0x3d8ffd9a	0.070307925
37	0xbd5f0cf4	-0.054455712
38	0x3da56420	0.08075738
39	0xbc8328f2	-0.016010735
40	0xbe09698a	-0.13419166
41	0xbcc44039	-0.023956405
42	0xbd10d8a8	-0.03536287
43	0x3ca2a0fb	0.019852152
44	0x3ce57873	0.028011536
45	0x3dca5bad	0.09880767
46	0xbdc33627	-0.09531813
47	0xbc759b63	-0.01499066
48	0xbd2049f4	-0.039133027
49	0xbcfb3683	-0.030665642
50	0xbd3228a2	-0.04349578
51	0xbd7345d9	-0.059392784
52	0xbd9decfd	-0.077112176
53	0xbcd4f529	-0.025995808
54	0xbd88be8c	-0.06676969
55	0xbc99aad0	-0.018758208
56	0x3d746e99	0.059675787
57	0x3dafe32e	0.08588253
58	0xbd7dcc36	-0.06196233
59	0x3d2ac2a5	0.041689534
60	0xbda7dd18	-0.08196467
61	0xbd0b944e	-0.03407698
62	0x3db11cd4	0.08648077
63	0x3cc81e74	0.024428584
64	0x3bedf20d	0.0072615207
65	0x3e96d91b	0.29462513
66	0xbd4f4abc	-0.05060838
67	0xbdd9d78b	-0.10636815
68	0x3e12413c	0.14282697
69	0x3e1f0f32	0.1553314
70	0xbe21483c	-0.15750211
71	0xbbbe5d13	-0.005809435
72	0xbe825418	-0.25454783
73	0x3e4497c7	0.19198523
74	0xbd45b348	-0.04826668
75	0xbe8068d8	-0.2507999
76	0x3e66ebac	0.22550839
77	0x3dbe4d3e	0.092920765
78	0xbc7030ab	-0.014660041
79	0x3e7f9f49	0.24963106
80	0x3e913ea1	0.28368095
81	0x3e3df582	0.18550685
82	0x3d935cc7	0.0719543
83	0xbe386d9b	-0.18010561
84	0xbdff604b	-0.12469538
85	0xbe5848e0	-0.2112155
86	0x3ceff8d3	0.029293453
87	0xbcf932b8	-0.030419692
88	0xbe1b9b44	-0.15195948
89	0x3e1cfb3b	0.15330212
90	0x3b2942ad	0.0025827095
91	0xbd6f496d	-0.058419634
92	0x3cee49cd	0.029087925
93	0xbde16f9d	-0.11007617
94	0x3c9d0d16	0.019171279
95	0xbd9fc884	-0.07801917
96	0xbdb4b259	-0.088230796
97	0xb90ab04f	-0.00013226386
98	0xbd8dfc48	-0.069328845
99	0xbd11f6d4	-0.035635784
100	0xbd87cabc	-0.066304654
101	0xbbe3f36d	-0.006956509
102	0xbd081208	-0.03322032
103	0xbd394fa7	-0.045241978
104	0x3d1ee0e3	0.038788687
105	0x3d57851a	0.05261717
106	0xbbb41722	-0.0054959217
107	0xbda12337	-0.07868045
108	0x3df5dbcf	0.12004816
109	0x3c2746db	0.010209764
110	0xbd4b358d	-0.049611617
111	0x3dafdb8f	0.08586799
112	0xbd8e887e	-0.069596276
113	0xbcf2aad0	-0.029622465
114	0x3dea60da	0.11444254
115	0x3db16267	0.08661347
116	0x3dac1a3d	0.08403442
117	0xbc892b18	-0.016744182
118	0xbca2a9c5	-0.019856343
119	0x3dc0a4af	0.09406411
120	0x3bd55b9e	0.0065111658
121	0xbd934a45	-0.071919
122	0x3bf821cf	0.0075723897
123	0xbd11046e	-0.035404615
124	0xbd932ce7	-0.07186299
125	0xbcd5f3f0	-0.026117295
126	0xbda1254b	-0.07868441
127	0xbce99115	-0.028511563
128	0x3cd42dc0	0.025900722
129	0x3d2d41ce	0.042299084
130	0xbc030d6f	-0.007998808
131	0xbcbbde39	-0.022933112
132	0xbb8d4317	-0.0043109762
133	0x3c580d1a	0.013186717
134	0xbca53e24	-0.020171233
135	0x3c89f7ed	0.016841853
136	0xbe32cb53	-0.17460375
137	0x3d4116e3	0.047140967
138	0x3da31afd	0.07964132
139	0xbc4a811b	-0.012359883
140	0xbd207831	-0.039177123
141	0x3dcb29e8	0.09920102
142	0xbd18868c	-0.03723769
143	0xbcffb286	-0.031213056
144	0xbbf2c524	-0.007408755
145	0x379cd795	1.8697037e-05
146	0xbd3acb66	-0.045604132
147	0x3d12f7f7	0.03588101
148	0x3cee012e	0.029053297
149	0x3d4fcf92	0.050735064
150	0x3ba7f3c1	0.0051254933
151	0x3d349b85	0.044093627
152	0x3d0dbd41	0.034604315
153	0xbcebcf4d	-0.028785372
154	0x3de45f2e	0.111509666
155	0x3e1474d5	0.14497693
156	0x3cf553a8	0.029947117
157	0xbd4dc2fe	-0.050234787
158	0xbd8ecb89	-0.06972415
159	0xbcdd3a67	-0.027005387
160	0x3e918608	0.2842257
161	0x3e20dfd8	0.1571039
162	0xbdba5f0d	-0.09100161
163	0xbd3a6d49	-0.04551438
164	0xbda0eb8e	-0.078574285
165	0xbe209995	-0.15683587
166	0x3e02c311	0.12769724
167	0xbd878f8e	-0.06619178
168	0xbe650541	-0.22365285
169	0x3d82b4c9	0.06382138
170	0xbe3f6dc1	-0.18694212
171	0xbe0ed64c	-0.13948935
172	0x3e9dc98b	0.30817828
173	0x3df30e54	0.11867967
174	0xbe1d11d0	-0.15338826
175	0x3d7e0d90	0.062024653
176	0x3e3d5ab5	0.18491633
177	0x3e6242a8	0.2209574
178	0xbd9458e1	-0.07243515
179	0x3deb3ff8	0.114868104
180	0x3dccd465	0.100014485
181	0x3d99779e	0.07493518
182	0x3e35e8d1	0.17764594
183	0xbd8622f4	-0.065496355
184	0xbe881137	-0.26575634
185	0xbe01ed28	-0.12688124
186	0xbd0173c1	-0.031604532
187	0xbd810c85	-0.06301216
188	0x3c9a2821	0.018817963
189	0xbe81c159	-0.25342825
190	0xbda3f702	-0.080060974
191	0x3e32e501	0.1747017

bias f4 [6]
0	0xbec86a55	-0.39143625
1	0x3ef7527e	0.48305124
2	0xbe468596	-0.19386896
3	0xbea1a970	-0.31574583
4	0x3eb0bb18	0.3451774
5	0xbde04cac	-0.10952124
