models/policy_asm_real_pd.pt (torch, 67720 bytes, 8 tensors)

weight f4 [128, 27]
000000 f8 37 25 3c 63 ce 3b c0 24 f1 15 3f 65 4f 28 c0
       0.010084145 -2.9344718 0.58571076 -2.6298459
000010 7a 01 f2 bc 2b 3c c0 3e 66 1c 93 bb 7d fb 07 bf
       -0.02954172 0.37545905 -0.0044894693 -0.53118116
000020 2a b2 30 3d a6 99 7d 3f 11 47 82 3f 82 c2 1f bf
       0.04313866 0.99062574 1.0177938 -0.6240617
000030 a5 bf 36 3f a8 a4 89 3e f2 d9 bd 3e 01 e5 c4 3f
       0.71386176 0.26883435 0.37080342 1.5382386
000040 5d 63 93 3f bd 27 9d be 03 70 07 3f 93 6d aa 3f
       1.1514698 -0.3069438 0.5290529 1.3314689
000050 0d c9 4f bc 98 6a 82 be 8a a0 b9 bd d1 eb 13 3d
       -0.012682212 -0.2547195 -0.090638235 0.036113564
000060 55 29 ce be 6d 88 c0 bd 37 66 79 3d 61 96 03 40
       -0.4026591 -0.09401021 0.060888495 2.0560534
000070 87 ee e6 3e da 29 14 40 a0 44 1b 3f 07 2b c4 c0
       0.45103857 2.3150544 0.6065159 -6.1302524
000080 72 28 da 3c 13 ae de 3c 2e 24 72 be 12 cc a4 3e
       0.026630614 0.027182614 -0.23646614 0.32186943
000090 bc 8b 31 be 29 7e 89 bf 9b 1f ea 3d 8f dd 90 3e
       -0.1733846 -1.0741626 0.114318095 0.28294036
0000a0 e7 2e c4 3d af 86 67 3e c9 11 cd bf e7 ae af bf
       0.095792584 0.22609971 -1.6021053 -1.3725251
0000b0 0e 1b 95 3e 35 ea 46 3f 78 66 17 3f c8 10 95 3e
       0.29122204 0.7770112 0.5914073 0.29114366
0000c0 42 1e b0 bd 87 6f 24 bd 5c 0d 83 bd 40 a4 4a be
       -0.08599521 -0.040145423 -0.063990325 -0.19789219
0000d0 b9 ae 12 3d 0b 51 48 bc 6d b1 1e c0 e2 6f b1 3e
       0.03581116 -0.012226353 -2.4795792 0.34655672
0000e0 eb 83 4b c0 76 29 8a 3e d1 9f 0c 40 9e f2 02 3f
       -3.1799266 0.26984757 2.1972544 0.51151454
0000f0 6f df cc bc a5 a5 c4 be 54 6a c6 be 4e d8 43 be
       -0.025008885 -0.38407627 -0.38752997 -0.19125482
000100 33 73 86 bd 32 06 50 3f 7c f3 3b 3f 20 ff 47 3f
       -0.06564941 0.81259453 0.734184 0.78123665
000110 53 56 00 3f 18 80 15 3f c1 e4 9f 3e d0 b2 77 3d
       0.5013172 0.5839858 0.31229213 0.060473263
000120 fe f1 7f bf 93 ca 71 bf fb 21 6f bf 5f 07 80 3d
       -0.99978626 -0.9444973 -0.93411225 0.06251406
000130 48 89 7d 3e 17 8c 86 bd 15 7e e3 bd a7 6e 96 3e
       0.247594 -0.06569689 -0.111080326 0.29381296
000140 7e 00 7a 3e 46 5a 45 bf 84 36 ed 3e e4 55 ce 3e
       0.2441425 -0.7709087 0.46330655 0.40299904
000150 25 44 7b 3f 8a 06 24 3e ae 3b 8a 3f 53 f7 51 ba
       0.98150855 0.1601812 1.0799463 -0.00080095715
000160 14 3d 88 3f 33 5e dd bd 96 7a a5 be d0 0a c4 bc
       1.064364 -0.10808983 -0.32320088 -0.023930937
000170 30 47 7e 3d 3c 4b 08 3f 1e 1a e0 bd 7d a6 d1 3e
       0.06207961 0.532398 -0.109424815 0.40947333
000180 af d1 15 bf 03 50 6a bf ad a0 b5 be e0 d8 8c bc
       -0.58523077 -0.9152834 -0.35474148 -0.017193258
000190 bd 27 a6 3e 20 69 82 bf c1 77 8a 3e 00 71 e1 3e
       0.32452193 -1.0188332 0.2704449 0.44031525
0001a0 5e 0a e6 3e c3 c4 1c be 40 44 e4 3d d0 df 82 3d
       0.44929785 -0.15309434 0.1114583 0.06390345
0001b0 42 df f3 3e 48 56 ae 3f 76 18 85 bf f3 8c a7 be
       0.4763127 1.3620081 -1.039809 -0.32724723
0001c0 78 37 0a 3f db 59 bd 3d 3b 85 cb 3b aa 5f 57 3f
       0.5399089 0.09245654 0.0062109507 0.84130347
0001d0 2a 71 0d 3f 67 9f b2 bf 05 29 a6 be 38 27 e0 3e
       0.552508 -1.3954896 -0.3245317 0.43779922
0001e0 25 4e 02 3f 23 70 00 be 81 8b 07 bf f6 f9 57 bf
       0.5090049 -0.12542777 -0.5294724 -0.84365785
0001f0 37 4d 8d be e1 7c f0 3e ce 18 2c bf aa 32 d9 bf
       -0.27597973 0.46970275 -0.6722535 -1.6968586
000200 77 4a 23 bf 11 99 ed 3b ee 57 b7 be 81 a9 a4 3d
       -0.637855 0.007250913 -0.35809273 0.08040143
000210 21 e2 bc 3e bf 73 01 3e e4 4c e6 bd 4c 5c c7 bf
       0.36891273 0.1264181 -0.112451345 -1.5575042
000220 9f fa 8a be 36 a1 c2 bf 03 10 38 c0 19 ad d6 3f
       -0.27144334 -1.5205448 -2.8759773 1.6771575
000230 cd c5 e7 be d8 79 dc 3b da 8c 9c 3f 57 18 01 be
       -0.45268098 0.006728392 1.2230484 -0.12606941
000240 0f 79 d7 be 2c 5d 76 3e 82 83 a6 be d9 bf 80 be
       -0.42084548 0.2405898 -0.32522207 -0.25146368
000250 d9 53 e7 bd a6 a5 32 be 22 b9 22 bf 86 aa aa 3e
       -0.112952895 -0.17446002 -0.6356374 0.33333224
000260 7d 1f dc 3e 4a cc 79 bf f4 38 6c 3e db 52 26 3e
       0.42992774 -0.97577345 0.23068601 0.16242544
000270 ae 34 3b 3e c2 a0 0a 3e f1 96 11 3e 87 2b b6 3d
       0.18281814 0.13537887 0.14217736 0.08895021
000280 2c e1 5b be ea 61 83 be f8 15 5c bf ec 2b 05 3f
       -0.21472615 -0.2566064 -0.8597102 0.52020144
000290 b9 ba 85 be 85 40 ac 3f 07 6b fb 3f f5 bc 16 3f
       -0.2611902 1.345719 1.9642037 0.58882076
0002a0 8a 5e 38 3d 11 35 26 bf 66 8c 89 3e c6 af be 3e
       0.045012034 -0.6492472 0.26864928 0.3724348
0002b0 46 42 7f 3f c6 45 8d 3e fd b5 02 3f 33 e4 d9 3e
       0.997105 0.27592295 0.5105894 0.42556915
0002c0 26 6b eb bd 47 ca 32 3e 8a c5 88 3f a4 18 44 bf
       -0.11495046 0.17459975 1.0685284 -0.766001
0002d0 b1 c6 9e bf e2 25 3f bf a4 5a 35 be a5 55 4f 3e
       -1.2404386 -0.7466718 -0.17710358 0.20247515
0002e0 69 21 4e 3d 46 79 41 3e 02 fc 7d 3e cc a0 93 3d
       0.05032483 0.18893918 0.24803165 0.07208404
0002f0 eb 6b 00 be 5e ff 32 bf 01 04 4b bd db b2 12 c0
       -0.12541167 -0.6992091 -0.049564365 -2.2921665
000300 7c 37 5d 3f 8a 7c c8 be 6b 9e b1 3e 78 f3 23 bc
       0.8641279 -0.39157516 0.34691176 -0.010006778
000310 81 3c a8 be fa 89 7b 3e 93 9f 18 3f 9d 6d 23 3e
       -0.3285866 0.24564353 0.5961849 0.15959783
000320 8d 33 9e 3b c5 30 5c 3f eb 2e 51 be 4f 5c b8 3d
       0.0048279227 0.86011916 -0.20428054 0.090019815
000330 08 d9 5b 3f ca d0 8b bf 3f be 8b bf ef 13 72 bf
       0.8587804 -1.0923092 -1.0917434 -0.94561666
000340 88 16 0a c0 aa 01 91 be 2f 9b 2b bd 14 c3 74 be
       -2.1576252 -0.28321582 -0.04189604 -0.23902541
000350 62 12 25 3c 21 2d 03 be cc 05 83 bd 76 43 8c bb
       0.010075184 -0.12810184 -0.0639759 -0.004280503
000360 b7 08 a4 be 95 cf fb 3e 93 88 6c bf b7 0d 3d bf
       -0.320379 0.4918181 -0.92395896 -0.7384905
000370 9d 49 56 bf a8 b2 96 bf fd 6b f3 3a 4f c7 04 c0
       -0.83706075 -1.1773272 0.0018571612 -2.0746648
000380 d5 a6 94 bd 51 8c 7b 3f 36 11 a7 be aa 76 24 bf
       -0.07258383 0.9826098 -0.32630318 -0.64243567
000390 2f 6f 63 3e c7 04 25 bf 64 ce 74 be 10 b9 30 3f
       0.22210382 -0.64460415 -0.23906857 0.6903238
0003a0 5d 90 c8 be ae 09 20 bf 7f a3 de be ca 59 c4 bf
       -0.3917264 -0.6251477 -0.43484113 -1.5339901
0003b0 de 0f 3b bd 2a 5c 80 bc 12 7e 54 3e ec d4 7d 3e
       -0.04566943 -0.015668947 0.20751217 0.24788254
0003c0 42 d0 9a bc 7d 57 a1 3e 8a a9 95 be 34 84 11 bf
       -0.018898133 0.3151206 -0.2923091 -0.5684235
0003d0 b2 bc b1 be 09 fd b0 be 19 fb 9b bf 34 8d 55 40
       -0.34714276 -0.3456805 -1.2186004 3.3367434
0003e0 32 d2 0d 3f 8a 3b e1 bc e4 8b 07 be cd f1 9f 3e
       0.5539886 -0.02749421 -0.13236958 0.31239167
0003f0 f7 dc 8f 3e 67 51 06 3f f9 c3 38 3d ad bd 3a 3d
       0.2809827 0.5246796 0.04510877 0.045591045

bias f4 [128]
000000 e0 dc 43 be d6 af bb be 5a 68 c5 3d c2 87 af be
       -0.19127226 -0.3665759 0.09639044 -0.34283262
000010 02 54 85 bd f9 55 4c 3e 8c f1 09 bf e5 e7 de bd
       -0.06510164 0.19954671 -0.53884196 -0.10884074
000020 66 85 b0 3d 0a 31 c2 be 2a cc 70 bd b9 69 16 3d
       0.08619194 -0.3792804 -0.058788456 0.03672192
000030 e8 e0 67 be 1a 3d 13 be 92 4e c5 be 03 53 9f 3d
       -0.22644389 -0.14378777 -0.38536507 0.07779505
000040 cc 28 83 bd 0d 5c f0 bc 30 c6 bb be 30 ee 7b bd
       -0.06404266 -0.029340768 -0.36674643 -0.06150645
000050 65 18 36 be e6 d3 ed be ea fc 20 3d b8 e7 4e be
       -0.17782743 -0.46450728 0.039303698 -0.20205581
000060 b9 f6 23 be 23 0a 13 3e e6 14 ce bb 8a 41 10 3e
       -0.16012086 0.14359336 -0.0062891124 0.14087501
000070 c5 f1 21 be 47 9e 5f 3e 98 74 9c be 15 4f 7d be
       -0.15814884 0.21837722 -0.30557704 -0.24737199
000080 2c c4 42 3e 13 86 c2 3d 14 54 9e bc 01 d4 64 3e
       0.19020146 0.09498229 -0.019327201 0.22346498
000090 aa dd 48 bf 40 d7 1d be 22 a7 68 3c f2 a2 b7 3c
       -0.7846323 -0.15414143 0.014200004 0.022416566
0000a0 ec bc c4 3d d7 69 60 3e ec 23 8e be 78 2a e4 3d
       0.096063465 0.21915375 -0.2776178 0.11140913
0000b0 48 7a bd be 11 b7 28 bf b2 c3 bb be 6c 63 29 bd
       -0.37007356 -0.6590434 -0.3667274 -0.04135458
0000c0 44 b8 52 3d 21 f6 5e be 2b c7 af be b9 51 d4 bd
       0.05144526 -0.21773578 -0.3433164 -0.1036715
0000d0 c4 bb 02 3e d4 43 a4 be 6f e6 ba be fd ae b7 be
       0.1276694 -0.32083 -0.36503932 -0.35875693
0000e0 35 07 ec be 72 78 40 3e b0 55 e0 bd 2c 1b 95 3d
       -0.4609925 0.18795946 -0.109538436 0.07280573
0000f0 7e bd 5c 3e ce 4d cf bd d6 4b 18 bf 44 d4 07 3e
       0.2155666 -0.10122262 -0.59490716 0.13264567
000100 b0 af 93 3d 1a 22 8d bd 35 7e 7d be 9f 28 bd bd
       0.07211244 -0.0689127 -0.24755175 -0.092362635
000110 48 76 43 be b7 36 91 be 5b 66 97 be 25 e2 cb be
       -0.1908809 -0.28362057 -0.2957028 -0.39820972
000120 03 5e d2 bd e6 8f dd bd 1b c8 29 be 66 b7 da be
       -0.102718376 -0.10818462 -0.1658024 -0.42718047
000130 4a 22 e1 be b9 d1 d5 3e 38 89 e7 be 97 01 3d bd
       -0.43971473 0.41761568 -0.45221877 -0.046144094
000140 1a 4f c0 3d 6f 13 ad be df 3f 17 bf a0 8c 5b bc
       0.093900874 -0.3380389 -0.59081835 -0.013400227
000150 eb 54 ae 3c 14 ec c9 be 30 20 58 bd dc 1a 0e be
       0.021280726 -0.39437926 -0.05276507 -0.13877434
000160 e9 1c df bd 47 2a 23 3e a2 68 29 be b9 3f 3a be
       -0.10894186 0.15934096 -0.1654382 -0.18188371
000170 db af ed be 89 93 66 be ff 8d 01 be c9 78 4b be
       -0.4642323 -0.22517218 -0.12651823 -0.19870295
000180 de bd 95 3d d1 14 05 3e 1e 64 e7 3c 34 21 ad bc
       0.07311605 0.12996222 0.028245982 -0.021133997
000190 7a e5 e5 bb bb f9 54 bd 54 91 9c be eb ed 82 bd
       -0.007015881 -0.051995974 -0.30579627 -0.063930355
0001a0 ef fb 4f 3e 71 be 4f 3e 05 c2 9c be 6d 1a c9 be
       0.20310949 0.20287491 -0.30616775 -0.39277974
0001b0 45 15 d3 bd da 3f 98 be 15 73 c7 3d 02 71 08 3e
       -0.10306791 -0.29736215 0.09738747 0.13324359
0001c0 3a 91 c3 be d4 28 6b be 83 98 80 be 3b c2 f6 be
       -0.38196737 -0.22964793 -0.25116357 -0.4819506
0001d0 81 8d 95 be 3a a7 a3 be b6 01 ae be bb 9c 48 bf
       -0.2920952 -0.3196352 -0.3398568 -0.7836415
0001e0 27 0c b8 3d ba a7 bf 3d 25 a2 ab be d2 aa 72 be
       0.08986693 0.09358163 -0.33522144 -0.23697975
0001f0 f0 72 96 be b1 d2 5b 3e cc 25 3f bc 4a a2 2e be
       -0.29384565 0.21467091 -0.011666726 -0.17054096

weight f4 [64, 128]
000000 bc 54 63 be 5c 07 c8 bd 89 ee 5c 3d b1 bb 5a be
       -0.22200292 -0.09767029 0.053938422 -0.21360661
000010 f0 8b 8f be 37 3f dc 3d 3a 43 ef be 7d 19 c7 bc
       -0.2803645 0.10754245 -0.46730977 -0.024304146
000020 03 8f e3 bd 3f c4 31 3e 36 6f 8e bd 10 99 98 3e
       -0.11111262 0.17360018 -0.069548056 0.29804277
000030 0c 2e 3b 3e 21 91 88 be df 9c 0f be fd ab 09 3e
       0.18279284 -0.26673225 -0.14024685 0.13444515
000040 c4 84 26 3d aa e0 98 be 28 5e fc bc de d1 9c be
       0.04065396 -0.29858905 -0.030806616 -0.30628866
000050 7b 6b 4c bd 78 62 74 be 1c 4b 3f be 8b dc c5 bd
       -0.04990719 -0.23865688 -0.18680996 -0.09661206
000060 13 1d bd bd 2e 4f 0a 3e 06 c1 3a be d0 af 43 3e
       -0.09234061 0.13506767 -0.18237695 0.19110036
000070 25 84 8e be ae cb de bd 72 98 95 be ef 32 86 be
       -0.27835193 -0.108786926 -0.2921787 -0.26210734
000080 e3 4e 43 3d 16 6d 17 be f3 40 d7 bd 24 3f 0c bd
       0.047682654 -0.14787707 -0.10510435 -0.034239903
000090 21 68 c9 bd 14 9d d0 3d c6 75 e1 bc af 71 dd 3e
       -0.09834314 0.1018621 -0.027521979 0.43250796
0000a0 af 0a 03 3e 75 13 f0 3d b9 07 13 be c1 40 58 3e
       0.12797044 0.11722461 -0.14358415 0.21118452
0000b0 94 e2 dd 3c 48 43 79 3d 74 a8 e7 bd 3f e7 a4 bd
       0.02708558 0.06085518 -0.11311427 -0.08051919
0000c0 d8 52 32 bd db 2f 94 bc 32 44 32 bc a7 d7 5f be
       -0.043536037 -0.018089226 -0.010880517 -0.21859609
0000d0 c5 ec b6 3c 7b 8c 85 3c c6 26 6d 3d 12 2a 17 be
       0.022329697 0.016302338 0.057898305 -0.14762142
0000e0 f2 e0 b0 3d d6 22 20 3e 52 e7 90 3e c7 2a 5d be
       0.08636655 0.15638289 0.28301483 -0.2159835
0000f0 be 90 b2 bd fb 15 17 be 6a 77 8a be e9 3a 04 be
       -0.08719014 -0.14754479 -0.2704423 -0.12913097
000100 c9 ee 46 bc d1 a8 2f be 35 5a 35 bd 06 e8 0d 3e
       -0.012141892 -0.17154242 -0.04427548 0.13858041
000110 eb c8 30 bd 3a ac f9 bd ca 0f b1 bd 14 58 d1 bd
       -0.04316036 -0.12191053 -0.0864559 -0.10221878
000120 24 01 8c be 21 6e 56 be 6e d9 b8 3d 08 f6 2f be
       -0.2734462 -0.20940448 0.090258464 -0.17183697
000130 8e fc 03 be 90 9b 44 bd 1c be 1e be a3 4f 42 3e
       -0.1288931 -0.04799992 -0.15502208 0.18975691
000140 fc 81 0e 3b c6 dc c9 3d 39 01 0f be 64 29 98 be
       0.0021744957 0.09856562 -0.1396531 -0.2971908
000150 8d 6f aa 3d 14 5b 99 3d dd 71 99 bd 23 d1 37 3e
       0.08322058 0.07488075 -0.07492421 0.17950873
000160 16 ad 80 bd c3 6f 12 bd 04 de 1c be ce 9c 2a be
       -0.062830135 -0.035751116 -0.15319067 -0.16661379
000170 e9 10 13 3d 9f 66 86 bc f3 bc b6 3d 89 20 e8 3d
       0.0359048 -0.016406355 0.08922758 0.113343306
000180 6e d7 24 3d 5e 69 12 be e0 68 92 3d 26 25 38 3e
       0.040244512 -0.14298007 0.071489096 0.17982921
000190 7b 97 23 3d bb 94 bf 3d ae 34 19 be 7c 1c 70 bd
       0.039939385 0.0935454 -0.14961502 -0.058620915
0001a0 ff 0f 7c 3e 68 6b c1 3d 7a df a5 bd 46 bf 46 3e
       0.24615477 0.09444314 -0.080992654 0.19408903
0001b0 ab 97 21 be d7 4d 67 be 6d 74 98 3d 77 25 a0 bd
       -0.15780513 -0.22588287 0.074440815 -0.07819646
0001c0 1b 82 0f 3e 2c 5b b1 be dc 8b a5 be 22 49 51 3d
       0.14014475 -0.3463987 -0.32333267 0.051095136
0001d0 36 e7 dd 3d 85 95 2e be 32 c3 6f bd 2f 6e 70 bf
       0.108351156 -0.17049225 -0.058535762 -0.93918127
0001e0 f8 40 6c 3d 8e ca 08 be 23 e7 a0 bd db 74 8b 3d
       0.057679147 -0.13358518 -0.07856586 0.06809398
0001f0 c4 fe 25 3b ad 8e 88 3d e5 28 48 be 38 d3 cd 3c
       0.0025328854 0.06667838 -0.1954685 0.025125131
000200 69 21 17 bf be ff 3d bd 99 62 e2 3c e8 a5 b2 bd
       -0.59035355 -0.046386473 0.027634906 -0.0872305
000210 5e 47 4d be a6 12 bb bd d4 2c ce be a0 87 70 3e
       -0.20046756 -0.09134416 -0.40268576 0.23489237
000220 ba 4a 67 3e 66 f8 9b be 48 a3 fc 3d c2 59 51 3d
       0.225871 -0.3046295 0.12335831 0.05111099
000230 bd d8 21 be 84 f6 c2 3d a6 22 38 3d 9d a2 81 3c
       -0.15805335 0.095196754 0.04495492 0.01582461
000240 99 2a da 3d 27 4d d2 be c1 4a df bd 07 1d 0c 3e
       0.10652656 -0.41074488 -0.1090293 0.13682948
000250 fe a9 ed bd 70 a1 a0 be f6 11 79 bc ba d2 24 bf
       -0.11604689 -0.31373167 -0.015202036 -0.64384043
000260 02 34 dd 3d 7f e0 ef 3d 52 e7 b3 3e c0 fd de be
       0.10800935 0.11712741 0.3513742 -0.4355297
000270 4f 8c a0 3e e0 35 44 3e 49 dd d2 bf ea 60 9a 3b
       0.31357047 0.19161177 -1.6473781 0.00471126
000280 81 71 ce 3c 26 62 ab 3e b6 ed d2 3d 84 ce 8a 3e
       0.025200607 0.3347332 0.10299246 0.27110684
000290 b8 18 33 bf a4 99 f8 3d 54 99 1b 3e 81 87 a3 3e
       -0.6995959 0.121386796 0.15195209 0.3193932
0002a0 a9 04 1c 3d 79 e4 cd 3d 1d 68 d5 3b d1 14 7b 3d
       0.03809038 0.10053343 0.0065126554 0.06129915
0002b0 d3 4e dd bd 05 47 d5 bd da 8e 7c 3c 95 10 cf 3d
       -0.1080605 -0.104139365 0.015414918 0.10110585
0002c0 97 7a 2d bd 8f de ba 3d ca d3 f6 bd a4 97 b1 bd
       -0.04235324 0.09124481 -0.12052114 -0.08671501
0002d0 40 3a 04 3d f5 52 c6 bc 26 f8 c2 bd 72 e2 57 bd
       0.032282114 -0.024209479 -0.09519987 -0.05270619
0002e0 6b a2 b2 bd 2e 72 94 3d 9c 47 20 bf 4c e9 31 3b
       -0.08722385 0.072483405 -0.6260927 0.0027147112
0002f0 e3 01 5d bd 94 70 08 bf f4 31 09 bf aa 1b 03 be
       -0.053956877 -0.5329678 -0.5359185 -0.12803522
000300 e2 77 9c 3b 36 2c a5 bc 06 e9 47 3e 61 f3 01 3e
       0.0047750333 -0.020162683 0.19522485 0.12690498
000310 f6 01 6e bc 9d a9 0b 3e c8 17 16 3e ad 3f 14 3d
       -0.014526835 0.13638921 0.1465751 0.03619354
000320 e9 3c 80 3e b6 da 3d bc da 65 2c bd db 23 f4 be
       0.2504647 -0.011587789 -0.04208932 -0.47683606
000330 ae 01 44 be 88 e7 4a 3f 7f 7b 39 3e 8f e6 ac be
       -0.19141266 0.7925954 0.18113516 -0.33769652
000340 ad 09 2a be e9 dc 30 be 3e 7a 0b bf 88 a2 4d 3e
       -0.16605254 -0.1727177 -0.544834 0.20081532
000350 b0 6d 39 3e 6a 16 21 bd 9e c7 5c bd 99 1e 37 be
       0.18108249 -0.039328016 -0.053901307 -0.17882766
000360 0d da 11 3e 7d f8 b7 bc 7b 7a e2 3d 2e ac 21 bf
       0.14243336 -0.022457356 0.110585175 -0.6315335
000370 1a 8b c0 3b db 25 71 bd 77 56 4c bd 43 cf 01 bf
       0.005875957 -0.058873992 -0.049887147 -0.5070688
000380 4b b8 37 3e 80 e9 81 3e 82 f6 70 3d 4e a4 c1 bd
       0.17941396 0.2537346 0.05882884 -0.09455167
000390 cf 51 a8 3e 69 bb 20 3e ee 51 5f bd da dc 90 3b
       0.32874915 0.15696491 -0.054521494 0.004420859
0003a0 27 c4 ed 3c 1b 33 69 bd 00 18 6e bd ae 8a 02 be
       0.029024197 -0.056933504 -0.058128357 -0.12748215
0003b0 04 7e 75 bf d1 21 e0 bd a2 60 9a 3d 88 58 0d 3e
       -0.9589541 -0.1094395 0.075379625 0.13803303
0003c0 5b b0 af bb 8c 8d 49 bf a2 3a 06 bf f5 97 32 be
       -0.0053615994 -0.7873161 -0.52433217 -0.1744078
0003d0 e9 5c 10 be a8 77 b3 be 47 fb a0 bc c7 42 5d bf
       -0.14097942 -0.35052228 -0.019651068 -0.8643002
0003e0 4b 86 06 3e 12 3c 23 bc ac 7e 65 be 8c 44 b9 be
       0.13137166 -0.009963052 -0.22411603 -0.3618511
0003f0 ee 78 82 3e 18 cd 92 3d 0a 31 00 be 46 79 bf 3c
       0.25482887 0.07168025 -0.12518707 0.023373257

bias f4 [64]
000000 c7 8e 60 be 64 a7 10 3d c7 41 2f be 93 78 89 be
       -0.21929465 0.035315886 -0.17114936 -0.26849803
000010 45 e6 10 be 31 96 97 be 16 cd 86 be b5 ae 29 be
       -0.14150341 -0.29606774 -0.26328343 -0.16570552
000020 b3 df c0 3d e1 82 aa 3d 1d 64 28 be 15 96 f3 bc
       0.09417667 0.083257444 -0.1644444 -0.02973465
000030 cc 80 2e be 7c 5d 5d be a0 a4 8d be f3 10 57 3c
       -0.1704132 -0.21617693 -0.2766466 0.0131266
000040 9c f0 60 3d f3 bc 93 bd ae 3c 22 3e b0 3e 11 3d
       0.054916963 -0.072137736 0.1584346 0.035460174
000050 ac c0 b0 bc 64 0d 66 be a0 fc 5e be 18 62 25 be
       -0.021576248 -0.22466046 -0.21776056 -0.16150701
000060 a6 86 47 be f3 42 87 3d 52 da 93 3d 0e ea fa bd
       -0.19484958 0.066045664 0.07219376 -0.12251674
000070 58 2d 66 3d 84 89 09 be d5 0f 4e be 9d d1 55 bd
       0.056195587 -0.13431364 -0.20123227 -0.052201856
000080 96 5a a7 bc 4f 6f dd bb 77 c2 b0 bd 02 c3 5a be
       -0.020428937 -0.006757654 -0.08630841 -0.21363452
000090 e9 47 33 be 5d 6b 8b bd b4 8c a0 3c c9 f8 64 be
       -0.175079 -0.06807587 0.019598342 -0.22360529
0000a0 23 d3 d0 3d be b1 f3 bd 6d 52 7c 3d 08 4b 44 be
       0.10196521 -0.11899136 0.061602045 -0.19169247
0000b0 6a b0 38 bc 92 9d f3 bd 17 a9 35 3d 4b fc 27 3b
       -0.011272529 -0.118952885 0.04435071 0.0025632556
0000c0 79 af 63 bc f3 b9 8d be 41 91 05 be cd 80 b6 3d
       -0.013896816 -0.2768093 -0.13043691 0.089112855
0000d0 85 02 27 be 64 5d 63 bd 1b ea 10 be f4 58 ab be
       -0.16309555 -0.055508986 -0.14151804 -0.33466303
0000e0 d9 e4 79 be 34 0c d7 bc bd 78 1b be 77 34 6c 3c
       -0.24403705 -0.026250936 -0.15182777 0.0144168055
0000f0 e9 ba 09 be 11 18 57 bd 8c ad 86 3d 9e 45 95 bd
       -0.13450207 -0.052513186 0.0657607 -0.07288669

weight f4 [32, 64]
000000 66 73 10 bd e6 26 82 be ff 50 9b 3d 15 af 2e be
       -0.035266303 -0.25420302 0.07583808 -0.17058976
000010 c5 15 94 3e 53 c5 a4 bd 4f 19 43 3e c5 50 0c be
       0.2892286 -0.08045449 0.19052623 -0.13702686
000020 7c b5 89 3e 16 14 9c 3e 86 d4 8a bd 7a bb 35 be
       0.26896274 0.30484074 -0.06778817 -0.17747298
000030 43 a4 90 bd d4 30 0d 3d 41 f8 24 3d e9 29 38 3e
       -0.070625804 0.034470394 0.040275816 0.17984737
000040 e6 65 27 be ef 9f d3 3d b4 c0 b8 bb 43 7b 00 be
       -0.16347465 0.10333239 -0.0056382064 -0.1254702
000050 c8 72 c8 bc 88 46 38 3d d0 30 66 be 85 ba 53 3e
       -0.024468794 0.04498914 -0.22479558 0.2067662
000060 56 c9 80 bd 8a 71 f5 bd 86 1e dd 3d 47 fd ba 3d
       -0.06288402 -0.119845465 0.107968375 0.0913034
000070 c1 56 0b 3d 92 19 c8 3d 7c dc 39 3e f6 86 31 3d
       0.03401828 0.09770502 0.18150514 0.0433416
000080 3c 62 a3 be 96 f9 39 be 4e 99 9b bd 48 c5 76 be
       -0.31910884 -0.18161616 -0.075976 -0.24098694
000090 77 9c e8 3b bc cc 2a bd 30 e9 8f 3d 9b cd fc 3c
       0.00709873 -0.041699156 0.07026899 0.03085976
0000a0 c8 41 e7 bd 5f a2 0a 3e bb 74 35 3e 8a 4c ad 3d
       -0.11291844 0.13538502 0.1772031 0.08461864
0000b0 78 cf 98 be 9d 19 8e 3e 2c 21 31 3e 06 ee a3 bd
       -0.29845786 0.27753916 0.1729781 -0.08004384
0000c0 f2 fa 1c be eb 25 4f bd 9c 7f 8f bd 8a aa 1a be
       -0.15330103 -0.05057327 -0.070067614 -0.15104118
0000d0 c1 ac 24 3f 69 c7 88 bd d4 6e 15 be 04 7e 03 be
       0.643261 -0.066786595 -0.14593059 -0.1284104
0000e0 f4 b5 07 3e ee b6 3b bd 87 3a 17 3e b9 1b 23 be
       0.13253003 -0.045828752 0.1476842 -0.15928544
0000f0 d3 4c 0c bd 7f 0f 92 3e ef 92 0d 3e 70 6e 13 bc
       -0.034252953 0.28527448 0.13825582 -0.008998498
000100 cc e0 ed bb 40 81 ad be 4d 82 64 be 6c ad 42 be
       -0.007259464 -0.33887672 -0.22315331 -0.19011468
000110 d6 51 0d be 44 59 39 3e 25 4e e0 bd 14 25 b2 bd
       -0.13800749 0.18100458 -0.10952405 -0.08698478
000120 5c da 7e 3d f8 59 27 be e8 8c a8 3d cb 7a a8 bd
       0.062219962 -0.16342914 0.08230001 -0.08226546
000130 50 ca ba 3d cb 46 9a 3b 4f 98 ea 3c 8a 16 87 bc
       0.09120619 0.004708146 0.02863708 -0.01649024
000140 0e 6a 76 3e 5b 65 36 3e aa 93 10 be a7 cc 35 be
       0.24063894 0.17812102 -0.1411883 -0.1775385
000150 81 8d 32 3e d9 e1 08 3d 7d e7 f1 3c 94 3b 39 3c
       0.17436792 0.03341851 0.029529328 0.011305708
000160 c3 13 e5 bd 94 68 2f bd 03 30 e9 bd ac 59 42 be
       -0.1118541 -0.042824343 -0.11386111 -0.1897952
000170 e0 1a 27 3d a8 e7 ec 3d 5f 9a dc bc 7e f0 37 3c
       0.040797114 0.115676224 -0.026929079 0.011226771
000180 2a 10 29 3e eb d1 ca 3d 39 03 c5 3d b5 9e a9 3c
       0.16510072 0.0990332 0.09619755 0.02070556
000190 b8 ba cc bc d8 81 fe 3d 4c 7a 53 bd 88 98 57 ba
       -0.024991378 0.124271095 -0.051630303 -0.0008224328
0001a0 9e 33 bc bd 10 07 5e 3d f2 c3 75 be 51 f1 b7 3c
       -0.09189533 0.054205954 -0.24000528 0.022453936
0001b0 d3 17 e0 3d 53 6d 25 3e c3 3e 86 3d b3 be 0c be
       0.10942044 0.16154985 0.065549396 -0.13744621
0001c0 20 2a 04 3e 70 cf 50 be 15 7d 97 3d 90 cb b0 bd
       0.12906694 -0.20391631 0.073969044 -0.086325765
0001d0 a4 ac 61 be cc 62 bb bd 52 90 39 3d 38 9f 6d bd
       -0.22038513 -0.091497034 0.04530365 -0.05801317
0001e0 f1 7d c2 bd 6f 14 51 3c a0 35 50 3e ea e1 4c 3e
       -0.09496678 0.012761219 0.20332956 0.20008054
0001f0 01 9a 19 3e a1 8b b3 3d 21 c4 0f be 31 58 0b 3e
       0.15000154 0.087668665 -0.14039661 0.13607861
000200 de 1a 1a 3d b1 2f 1a be ad 40 e7 bd 9a 40 4c be
       0.03762328 -0.15057255 -0.11291633 -0.19946519
000210 a8 cc 91 3d 58 88 c0 3d 1d ca 72 bd 35 a6 9e bd
       0.07119113 0.094010055 -0.05927478 -0.07746545
000220 09 c4 a8 3c 85 72 9d bd 28 a6 ba bc a6 b3 87 3c
       0.02060129 -0.076878585 -0.022784308 0.016565155
000230 97 6c 9f 3d 78 7e d5 bd 70 3e 87 bd ef 4e 14 be
       0.07784384 -0.104245126 -0.06603706 -0.14483236
000240 b1 70 07 be 9d 2f dc 3d f6 82 0c be 28 94 b9 bd
       -0.13226582 0.10751269 -0.13721833 -0.09061462
000250 a4 28 2f be c5 e8 0c 3e e9 96 18 be 6d c9 e2 bb
       -0.17105347 0.1376067 -0.14901318 -0.0069209845
000260 e8 1e 77 be da eb 03 be 34 59 82 3d 82 24 8e 3e
       -0.24132884 -0.12882939 0.063646704 0.27762228
000270 4b 00 4f be 82 f6 b1 3b 19 46 21 3e f2 1a 2a bd
       -0.20214956 0.0054309973 0.15749396 -0.041529603
000280 84 53 a8 3d 9e dc 99 ba a1 c7 3d 3e d3 31 b9 bd
       0.08219054 -0.0011738723 0.18533184 -0.09042706
000290 69 72 f6 3d 39 c6 82 bb e3 5d 3a 3d d0 6b 35 3e
       0.12033541 -0.003990915 0.045499694 0.17716908
0002a0 6e 60 da be ec 62 cf 3d 08 cf 1a be 44 68 c5 3c
       -0.42651695 0.1012629 -0.15118039 0.02409757
0002b0 7a 09 0a be 42 5f 9a bd b3 74 96 be 6f 1c bd be
       -0.13480178 -0.075377 -0.2938591 -0.36935756
0002c0 19 8d 5a bd 45 03 da bd 72 f8 47 be 30 58 3e be
       -0.053357217 -0.10645155 -0.19528368 -0.18588328
0002d0 fb c8 6f be 20 5b 9c be 72 6e f9 bb 24 b4 61 3e
       -0.23416512 -0.30538273 -0.007612043 0.22041374
0002e0 75 f9 3e bd 43 ed 7e 3e ad d4 ab 3d 71 e9 0d 3e
       -0.04662462 0.24895196 0.08390174 0.13858582
0002f0 50 ae 56 be a3 84 19 bd e2 ac 61 bc dc c9 60 be
       -0.20964932 -0.037480008 -0.013774129 -0.21952003
000300 01 ef 7c 3b 8b c7 8d 3d 46 ec 26 3e ca 71 10 3e
       0.0038594606 0.069228254 0.16301069 0.14105907
000310 14 08 52 be fa 11 4a 3d b7 b9 51 bd b4 3a 31 be
       -0.20510894 0.04933355 -0.051202502 -0.1730755
000320 11 33 26 be d0 bb 61 3e 52 38 8b 3c 89 06 7d 3c
       -0.16230418 0.22044301 0.016994629 0.015443453
000330 13 f5 d3 ba d0 e2 f8 3d 2b 05 c2 3d f2 92 82 ba
       -0.001617106 0.12152636 0.09473642 -0.0009962006
000340 09 34 58 3d f5 41 12 be cf 5e e2 3c 37 d6 77 bd
       0.052784 -0.14282973 0.027633099 -0.060507026
000350 3e 8f 4c be 2c 14 8b bd cb 0f 71 3b 41 63 92 3d
       -0.19976518 -0.06790957 0.0036783095 0.071478374
000360 a3 1f bc 3c 14 4b 41 be 38 f3 d7 bd 23 9b aa bd
       0.022964304 -0.18876296 -0.10544437 -0.08330371
000370 54 7d 2f 3d 08 9d 56 3d 7b 4e 06 3d b7 d2 4b 3d
       0.04284413 0.05239585 0.03278969 0.0497615
000380 24 fa f5 3d 67 08 5c be c3 af 47 3e c2 d6 bb bd
       0.12010601 -0.2148758 0.19500642 -0.09171821
000390 fd df 3c be 78 bf 6e b9 b5 99 96 bc df 7a c8 3c
       -0.1844482 -0.00022768776 -0.01838384 0.024472652
0003a0 25 f3 2b 3e e0 a3 02 3e 45 f7 49 3d b7 b0 cc 3d
       0.16791971 0.12757826 0.04930808 0.09994643
0003b0 1c c5 8c 3d 9e 55 e8 3d 8e 95 b7 be 34 22 63 bd
       0.06873533 0.11344455 -0.3585629 -0.05545254
0003c0 c8 54 16 3e 8d 5a 56 3d a3 07 7b 3e 01 70 c5 be
       0.14680779 0.05233245 0.24514632 -0.38562015
0003d0 64 44 90 3d 31 15 3e be bc 61 ad 3d 38 69 f1 3c
       0.070442945 -0.18562771 0.08465907 0.029469118
0003e0 de 0c d9 ba bc b4 eb bd 91 26 65 3e 71 66 ef bd
       -0.0016559621 -0.11509082 0.22377993 -0.11689461
0003f0 e9 d8 86 3d ee 33 0f be 24 b1 ac 3d 75 79 38 be
       0.06584341 -0.13984653 0.084322244 -0.18015082

bias f4 [32]
000000 7a 44 38 be e0 b8 84 3d 93 44 1d be a4 7a db bd
       -0.17994872 0.064805746 -0.1535819 -0.10716751
000010 31 96 2e 3e 4a 49 36 be 8f 60 9f bc 92 69 5b be
       0.17049481 -0.17801395 -0.019455222 -0.2142699
000020 1e c8 aa be 53 5e 9d be b0 0b b2 bd ab 4d 95 3e
       -0.33355802 -0.30736026 -0.086936355 0.29160818
000030 25 a3 94 be 78 49 2a bd 03 6a a6 bd ab 60 a6 be
       -0.2903072 -0.04157397 -0.08125689 -0.32495627
000040 64 30 e6 bd f7 2e 8d 3c 10 21 27 bd 30 e2 23 be
       -0.112396985 0.017234309 -0.040803015 -0.16004252
000050 9b 3f 69 be 6b 9e 56 3d 6b b7 b9 be 70 fe c1 bd
       -0.2277817 0.052397173 -0.3627275 -0.09472358
000060 3f f6 48 be ef 1e 2a be b5 12 2f be d1 d1 b6 3e
       -0.19625185 -0.16613363 -0.1709698 0.35706952
000070 74 4d 44 bb d6 ea 7f be 06 93 87 3e cd 2f f0 bd
       -0.0029953392 -0.24991927 0.26479357 -0.11727867

weight f4 [6, 32]
000000 b7 17 74 3d 77 0c 0c bc ba 92 23 3c 2f cb 10 3d
       0.05959293 -0.008547894 0.009983713 0.03535002
000010 db 12 04 bd fa 41 71 3b 54 d8 0e bc f4 70 93 3d
       -0.032244544 0.0036813007 -0.008718569 0.071992785
000020 aa 8c ac 3b 75 2c 7e 3d 15 cc 3f 3d 17 90 b8 bd
       0.005265792 0.062054116 0.046825487 -0.09011858
000030 0f b9 09 3e 1e 7d 20 3c d7 cc 1c bd 57 5b 1d bc
       0.134495 0.009795455 -0.038281288 -0.009604297
000040 71 bb 6b bd a7 e7 80 bb 66 d9 f4 bc 5c a0 17 bd
       -0.057551805 -0.003933865 -0.02988882 -0.037018165
000050 b3 60 92 3c 30 ab 34 bc 58 45 02 3b c1 15 dd bd
       0.017868375 -0.011027142 0.0019877758 -0.10795165
000060 f1 84 e9 3a b6 d5 14 39 61 13 7d 3c 37 7e 92 bd
       0.0017816109 0.00014193993 0.015446515 -0.0715298
000070 bd 92 0a bd be 52 b8 bc ad 20 3e bd 2d 63 00 bc
       -0.033831347 -0.022500392 -0.04641788 -0.007836145
000080 6a 0d 88 bc 13 fe 8a 3d 0b c6 b6 bd 7f ac 82 ba
       -0.016607959 0.06786742 -0.089244924 -0.0009969621
000090 bb 28 ac 3d 62 85 cb 3b f5 ab b8 3d 62 86 5c bc
       0.08406206 0.006210969 0.09017173 -0.013459774
0000a0 7b 88 ec bd a0 01 91 bc 52 a2 8b 3b 06 be d3 3a
       -0.11549469 -0.01770097 0.0042612934 0.0016154654
0000b0 63 6e 78 3c a9 a1 a9 3d 74 a6 91 bd 64 41 b7 ba
       0.015163037 0.08282787 -0.071118265 -0.001398128
0000c0 4a d1 e5 bc 9f 79 47 bd 87 15 0f bd fb 63 e8 bb
       -0.028053898 -0.04869997 -0.03493264 -0.0070919967
0000d0 21 96 79 bc bd 8d 11 3c 09 6d 94 bd f0 4c b5 bb
       -0.015233547 0.008883891 -0.07247359 -0.0055328533
0000e0 6c 02 1c 3d 8e 55 24 3d 3c 8f 81 3c fd 68 27 3d
       0.038088247 0.040120654 0.01581537 0.04087161
0000f0 1f 2b 9c bd 6f 8a eb bc 6f 16 ea 3d 4e 03 99 3c
       -0.07625412 -0.028752534 0.1143006 0.018678334
000100 9d b9 52 be 99 a4 7a 3e 34 65 f6 3d 37 47 08 be
       -0.20578618 0.24476852 0.12031022 -0.13308416
000110 63 5d bb 3d 71 17 17 3e 0f fb 1f be 41 25 dd bb
       0.091486715 0.14755036 -0.15623115 -0.006748826
000120 fe 88 8c be 2e 9e 51 3e 1c 87 8e bd 1f 44 8c be
       -0.27448267 0.20470497 -0.06959364 -0.27395722
000130 86 51 63 3e e9 b3 a0 3d f5 6b bb bc 6f f3 7e 3e
       0.22199067 0.07846815 -0.022878626 0.2489755
000140 02 5d 99 3e 44 7b 68 3e 11 a9 51 3e 15 f6 88 be
       0.29953772 0.22703272 0.2047465 -0.26750246
000150 f8 3f 99 bd c7 eb 4c be f5 b6 e0 3c 67 38 95 bc
       -0.07482904 -0.20011817 0.02743099 -0.018215371
000160 39 18 05 be 4d 38 45 3e 1e 4f 0c 3d 30 7e ed bd
       -0.12997521 0.19259758 0.03425514 -0.11596334
000170 53 09 6b 3d 03 b8 f5 bd 5f 2d 9c 3d a5 04 20 be
       0.05738194 -0.11997988 0.07625841 -0.15626772
000180 00 f4 5f bd a4 40 5c 3a 22 19 29 3c 0a 04 70 bd
       -0.054676056 0.0008401966 0.010320934 -0.058597602
000190 38 2f ee bc d5 3d ea 3b 54 e2 0a bd 61 3b 87 bd
       -0.02907525 0.0071484842 -0.03390725 -0.066031225
0001a0 24 ed 28 3d 44 d1 66 3d ba cd 12 bd 7c c8 6f bd
       0.04124178 0.056351915 -0.035840727 -0.058540806
0001b0 f8 7b 0d 3e ea 8a df 3b 4a 00 28 bd b5 89 27 3d
       0.13816822 0.00682198 -0.0410159 0.040902812
0001c0 f3 9e 85 bd 36 73 71 bd 87 2f 83 3d 9a 56 10 3d
       -0.06524458 -0.058947764 0.064055495 0.03523884
0001d0 dc 65 28 3d a7 de 28 3c 85 2d 9b bc ac 04 c8 3d
       0.041112766 0.010306991 -0.018942604 0.09766516
0001e0 3a 33 1f bc b8 dc 99 3c b0 66 e1 3b 1e c5 df bc
       -0.009716803 0.018782005 0.0068786964 -0.027315672
0001f0 45 60 b4 bd 9e 0f 78 bd 62 b9 a8 bd 2c d3 30 3c
       -0.088074245 -0.06056177 -0.08238484 0.010792535
000200 75 e9 45 3d 6c 20 3b 3d a5 c7 8a bd 85 c4 49 bd
       0.048318345 0.045685217 -0.067763604 -0.04925968
000210 60 e9 31 3d b9 f4 83 bc 59 ef d0 bc cb 0f 1e 3c
       0.043435454 -0.016107904 -0.025504755 0.00964732
000220 be d7 0d be 7d 50 68 3c fc 6e a2 3d c8 2d 82 bb
       -0.1385183 0.014179346 0.07931325 -0.0039727427
000230 db df 41 bd 8f cb 89 3d eb 2f a5 bc de ce 82 3c
       -0.047332626 0.06728279 -0.02016445 0.015967783
000240 18 8a 09 bc ac 03 12 bc 57 07 34 bd ec 18 19 3c
       -0.0083947405 -0.008912008 -0.043952312 0.009344321
000250 97 8a 3a bd 0c 86 40 3d e9 e1 8c 3c 9a dc 2b 3d
       -0.045542326 0.047002837 0.017197566 0.04195843
000260 af a2 1d 3d ae 67 94 bc b4 53 54 3d 28 ac 02 3e
       0.038485225 -0.018115845 0.051837638 0.12760985
000270 3c 7a 4f 3c 6e 70 8f bd d9 d5 7c bd 52 64 10 3a
       0.01266342 -0.07003866 -0.06172738 0.0005508113
000280 8d 1e 96 3e 6f 24 1b 3e b4 40 a1 3c 2c 6c 21 bd
       0.29320183 0.15150617 0.019684173 -0.0394098
000290 98 42 2f bd eb ab 3f be d3 3b 04 3e 64 85 5b bd
       -0.042788118 -0.18717925 0.12913446 -0.053594008
0002a0 94 9f 76 be 19 e1 11 3d 7a f9 49 be 5d 8d ba bd
       -0.24084312 0.03561506 -0.19724074 -0.09108994
0002b0 fa b1 93 3e 60 0f ed 3d ed 34 47 be d4 9f 34 3e
       0.28846723 0.11575198 -0.19453783 0.17639095
0002c0 b7 1d 3c 3e cb ee a6 3d ea b3 1e be 90 29 32 3e
       0.1837071 0.08151015 -0.1549832 0.17398667
0002d0 4c b4 bc 3d 91 11 a3 3d f2 fc 45 3e 6b 0a 11 bd
       0.092140764 0.07962335 0.19334772 -0.035410326
0002e0 0c 0b 86 be 5c d2 25 be fe d5 bc bd 55 5d 13 bd
       -0.26180303 -0.16193527 -0.09220503 -0.03597768
0002f0 30 7c 55 3d 6f a2 dc bd 5c 4a 95 bd 6e ff 2e 3e
       0.052120388 -0.10773169 -0.072895736 0.17089626

bias f4 [6]
000000 4a 4c d6 be 88 bd 02 3f 1c a2 45 be db 93 94 be
       -0.4185508 0.5107045 -0.19300121 -0.29019055
000010 a5 d3 ae 3e 72 4e 03 be
       0.34145847 -0.12822893
