models/policy_asm_3k.pt (torch, 67720 bytes, 8 tensors)

weight f4 [128, 27]
000000 0c aa 01 be 05 65 48 c0 f8 5b 00 3f 6d 3b 02 c0
       -0.12662524 -3.1311657 0.50140333 -2.034877
000010 25 75 2e 3f 53 3a b8 3e d2 21 94 39 70 61 0d bf
       0.681475 0.35981998 0.00028253958 -0.552268
000020 b7 0d 26 3d 45 2c 7c 3f 37 b1 5f 3f 34 19 3d bf
       0.040540423 0.9850505 0.87379783 -0.7386658
000030 a8 fd 49 3f 2d 32 f7 3e 9f d2 a3 3e 5b 1c b3 3f
       0.78902674 0.4828047 0.3199663 1.3993028
000040 2f 19 9b 3f ca da a3 be 3e 28 9b 3e 72 31 9e 3f
       1.211706 -0.3200286 0.3030414 1.235884
000050 b8 29 b9 3c b1 c3 78 be 2b 9d 52 bd 6e 0f 84 3d
       0.0226029 -0.242934 -0.05141942 0.064482555
000060 2f 63 c9 be 8b df 0d bc 37 cd 76 3d b8 07 0c 40
       -0.39333484 -0.008659254 0.060254302 2.187971
000070 11 fd dc 3e b9 60 1e 40 fa 03 56 3f 83 94 ae c0
       0.43161824 2.4746535 0.8359982 -5.455629
000080 61 13 83 3b 26 5e e1 3c 00 fe f4 bc f4 9d 9d 3e
       0.004000113 0.027510714 -0.029906273 0.3078457
000090 77 4a 62 be ec 12 93 bf af 0c ea 3c ff dd 48 3e
       -0.22098719 -1.149015 0.028570501 0.19615935
0000a0 e4 9e 42 3e 67 87 79 3e 17 86 d1 bf 90 ed 9f bf
       0.19005924 0.24368058 -1.6369046 -1.2494373
0000b0 cf 3f 96 3e de 13 22 3f 00 af 11 3f ef c7 ac 3e
       0.29345557 0.63311565 0.56907654 0.33746287
0000c0 dd ab 20 be 85 db 3a be 16 9b 2f bd 56 59 20 be
       -0.1569056 -0.18247803 -0.04287251 -0.15659079
0000d0 69 db 26 bd a7 2f 15 3c 93 78 13 c0 66 ff c5 3d
       -0.04073659 0.0091055995 -2.3042343 0.09667854
0000e0 44 8a 4b c0 d6 5f 2a 3e 90 b2 c3 3f e5 82 08 3f
       -3.180314 0.16638121 1.5288868 0.5332473
0000f0 ef 87 02 bc c0 01 e1 be 8d e4 ca be 80 cd 50 be
       -0.007966979 -0.43946648 -0.39627495 -0.20390892
000100 55 7c 30 3e 1a 43 8d 3f db 06 1e 3f 96 39 21 3f
       0.17234929 1.1036103 0.6172921 0.62978494
000110 e9 de f7 3e 26 48 4c 3f 37 f5 12 3d 99 64 44 3d
       0.48412254 0.7979759 0.035878386 0.0479475
000120 2b 4b 3e bf e9 ee 85 bf b3 3a 74 bf 83 82 71 bb
       -0.7433345 -1.0463535 -0.9540207 -0.0036851473
000130 11 85 c9 3e 5c 81 eb bd 9b c0 be 3c 05 95 ad 3e
       0.39359334 -0.11499283 0.0232852 0.33902755
000140 c7 73 86 3e 01 d9 88 bf ba 31 82 3e f3 96 c2 3e
       0.26260206 -1.0691224 0.25428563 0.3800579
000150 ed af 8d 3f 69 e5 d9 3d 56 2a 8d 3f b9 1c 51 bc
       1.1069313 0.1063946 1.1028545 -0.012763196
000160 60 b3 6c 3f 92 a1 1c be 06 57 c6 be c6 ad 0b 3d
       0.92461205 -0.15296009 -0.3873827 0.03410127
000170 6d 13 72 3e 50 b8 b7 3e 29 b9 85 bd 3d e2 d9 3e
       0.23640223 0.35882807 -0.06529457 0.4255542
000180 5c 24 86 bf 07 cb 5c bf de 0c a4 be 31 af 59 3c
       -1.0479846 -0.86247295 -0.32041067 0.013286398
000190 4d 5f 4b 3e 77 76 7a bf 2e d0 08 3e 78 21 db 3e
       0.19860573 -0.97837013 0.13360664 0.42798972
0001a0 f9 15 e3 3e 54 aa 08 be b8 ca 55 3e a6 00 16 3d
       0.443527 -0.13346225 0.20878112 0.036621712
0001b0 fe 65 f0 3e 2b 07 c2 3f 5b d4 87 bf 52 0d f1 be
       0.46952814 1.5158437 -1.0611681 -0.47080475
0001c0 4e d6 16 3f a4 8a d7 3d 71 35 ed 3b 97 11 47 3f
       0.58920753 0.105244905 0.0072390367 0.77761215
0001d0 79 56 0a 3f 2c 13 ae bf 27 ec c4 be 60 5d ea 3e
       0.54038197 -1.3599601 -0.3846142 0.45774364
0001e0 31 8b ea 3e c7 5d 32 be 8e cc 1d bf 2a 94 64 bf
       0.4580932 -0.17418586 -0.6164025 -0.8928858
0001f0 9e 04 88 be be bf f4 3e 8c e7 06 bf bb bd cd bf
       -0.26566023 0.47802538 -0.5269706 -1.6073526
000200 ee 0b 23 bf a8 4d 1e bd 2d c5 cf be a8 1b cb 3d
       -0.6369008 -0.038648278 -0.4058012 0.099173844
000210 18 47 d5 3e 8c 2f 28 3e a8 68 c0 bd 87 8c cb bf
       0.41655803 0.16424388 -0.093949616 -1.590226
000220 6d 03 9e be f5 73 c5 bf b3 14 31 c0 1c 1b a9 3f
       -0.3086199 -1.5426012 -2.7668884 1.3211398
000230 3b 75 da be 80 78 54 3b 8f 5a 98 3f 59 22 1b be
       -0.42667565 0.0032420456 1.1902636 -0.15149821
000240 e5 ce c1 be 89 bd a5 3e c0 c2 b6 be 72 88 7a be
       -0.3785316 0.32371166 -0.35695457 -0.24466112
000250 49 c9 75 be d4 5c 41 be 19 04 4f bf 45 20 ba 3e
       -0.24002565 -0.18883067 -0.8086563 0.36352745
000260 1f 76 ea 3e 0a 77 8f bf ae 9e 98 3e 0f 5d 27 3e
       0.45793244 -1.1208203 0.29808563 0.16344093
000270 55 8f 45 3e 5e 54 ee 3d 8d 63 11 3e 74 9e 2e 3d
       0.19292958 0.116371855 0.14198132 0.04263158
000280 f6 63 73 be 6b 59 89 be d4 e7 84 bf 1f ce 20 3f
       -0.23768601 -0.26826033 -1.0383248 0.62814516
000290 38 28 dc be 44 3f 55 3f 9c 1f df 3f 1c c4 17 3f
       -0.42999434 0.8329966 1.7431521 0.59283614
0002a0 e1 b2 c6 3c 5e 22 30 bf 56 c3 85 3e 9b 6a f3 3e
       0.024255218 -0.6880244 0.26125592 0.4754227
0002b0 80 e4 81 3f 4a 11 a2 3e 29 76 08 3f e0 e9 ce 3e
       1.0147858 0.31653816 0.533053 0.40412807
0002c0 e8 89 11 be af ba f5 bd 38 04 8a 3f 31 2f 48 bf
       -0.14212763 -0.11998498 1.0782537 -0.7819701
0002d0 be dd 85 bf 10 d7 3c bf 73 d8 3c be 9c 5f 88 3e
       -1.0458295 -0.7376566 -0.18441944 0.26635444
0002e0 35 8a 0b 3e 19 e4 35 3e 04 c4 89 3e 44 2a af 3d
       0.1362694 0.17762794 0.2690736 0.085529834
0002f0 fc 75 fc bd 4e 47 53 bf 13 24 dc 3d 65 cf 14 c0
       -0.12327191 -0.8253068 0.10749068 -2.3251584
000300 ea 31 27 3f bf 0a 5b be 0a dc a4 3e b8 58 a7 bb
       0.6531054 -0.21390818 0.32199126 -0.0051070116
000310 79 ea 9f be 44 c5 95 3e 90 ff 1a 3f 14 2d da 3d
       -0.31233576 0.29252064 0.6054621 0.10653129
000320 57 c3 18 3d 81 64 4c 3f a0 73 60 be b0 5d 08 3e
       0.037295666 0.79840857 -0.21919107 0.13316989
000330 b2 71 77 3f a7 80 83 bf 2a a7 8e bf 6e cc 47 bf
       0.9665786 -1.0273637 -1.1144764 -0.7804631
000340 9a ca 0e c0 96 0a 95 be f1 af 30 bd d7 2a 3d be
       -2.2311158 -0.2910964 -0.04313654 -0.18473373
000350 53 a2 b2 3c ed b6 c7 bd 80 1d 59 bb e6 38 29 3c
       0.021805918 -0.09751687 -0.0033129156 0.010328507
000360 8e a6 bb be c7 34 04 3f b7 45 58 bf 5b f0 5c bf
       -0.3665051 0.5164303 -0.84481376 -0.86304253
000370 2d 62 de be 78 8e 99 bf 39 a0 d8 3b b9 66 f8 bf
       -0.43434277 -1.1996603 0.006610897 -1.9406348
000380 aa e3 60 bd 22 c5 66 3f b8 1d d6 be 7e f5 15 bf
       -0.054904617 0.9014455 -0.4181955 -0.58577716
000390 ac 9e 89 3e 0a 4c 04 bf 22 1d 97 be b8 58 54 3f
       0.2687887 -0.51678526 -0.29514414 0.82947874
0003a0 f7 5b be be c1 75 23 bf ef 47 e3 be 2c b5 d7 bf
       -0.3717954 -0.63851553 -0.44390818 -1.6852164
0003b0 74 f5 0d bd 4d 66 84 3b cf fe 1c 3e 24 f8 83 3e
       -0.03465791 0.0040405155 0.15331577 0.25775254
0003c0 31 75 37 bd 42 22 90 3e 55 74 98 be 05 0f be be
       -0.044789497 0.28151137 -0.29776254 -0.37120834
0003d0 22 ec 1d bf 01 1e d7 be d4 90 78 bf a3 bc 5a 40
       -0.61688435 -0.4201508 -0.9709599 3.4177635
0003e0 d1 36 15 3f 1c 15 f0 bc 1e 0d 91 bd cc 8c 8f 3e
       0.5828677 -0.02930694 -0.0708258 0.28037107
0003f0 40 c6 aa 3e 24 a6 0d 3f 13 bc bb 3b 3f b7 18 3d
       0.33354378 0.55331635 0.0057292073 0.037284132

bias f4 [128]
000000 2a 1d 2a be b7 b2 af be 30 27 94 3d 7c e6 b5 be
       -0.16612688 -0.34316036 0.07234037 -0.35527408
000010 4a ac 8d bd 14 a7 2e 3e f2 ac 07 bf cc 35 a2 bd
       -0.06917627 0.17055923 -0.5299827 -0.07920417
000020 8c 22 cf 3d 33 50 c9 be 84 17 45 bd 27 81 80 3c
       0.10114011 -0.39319 -0.04811813 0.015686585
000030 c3 bb 54 be a7 5a 13 be 33 a8 c9 be b1 de 5d 3d
       -0.2077475 -0.1439005 -0.39386138 0.054167453
000040 44 97 b7 bd dc 11 20 bd 9f 11 9c be 76 f9 12 bd
       -0.089643985 -0.039079532 -0.30482194 -0.035882436
000050 ff 1f 2e be 35 32 cf be 05 4b 1b 3d 58 65 77 be
       -0.17004393 -0.40467992 0.03791334 -0.24159753
000060 ed 8a ce bd ba 6b 49 3e 45 2e d2 bc 19 a7 19 3e
       -0.10085092 0.1967 -0.025656829 0.15005149
000070 f8 47 03 be 2b 20 4a 3e e2 89 af be 1e 73 83 be
       -0.12820423 0.19738834 -0.34284884 -0.25673765
000080 93 c4 40 3e 84 07 94 3d 9f 11 8b bc 65 e0 5f 3e
       0.18824987 0.07227996 -0.016976176 0.21862943
000090 7b 5c 40 bf e5 35 2c be 05 3f 46 3c 6a e0 1f 3d
       -0.75141114 -0.16817434 0.012099986 0.039032377
0000a0 39 7e 63 3d 6b ab 37 3e f6 3d 91 be 69 4b 04 3e
       0.055540297 0.17936485 -0.28367585 0.12919392
0000b0 04 be be be 7e 26 1f bf 38 92 cc be ae 73 89 3b
       -0.37254345 -0.6216811 -0.39955306 0.0041946983
0000c0 36 01 89 3d c7 7f 54 be 12 b0 b0 be 5c 6a bd bd
       0.06689684 -0.20751868 -0.3450933 -0.09248802
0000d0 60 3a 0f 3e 64 c7 96 be 53 0b bc be 72 72 b6 be
       0.13987112 -0.29448998 -0.3672739 -0.3563419
0000e0 ac c9 dc be d1 09 50 3e a0 62 cf bd cf 6a 95 3d
       -0.43122613 0.20316245 -0.10126233 0.07295763
0000f0 3d 88 45 3e 52 d5 f4 bd 9d 0e 13 bf c0 f1 ca 3d
       0.19290252 -0.1195475 -0.57444173 0.099093914
000100 72 fa 82 3d 7d a3 c2 bd 6b 99 6f be 1c b1 28 be
       0.06395425 -0.09503839 -0.23398368 -0.16473812
000110 da f4 8c be 7a dd ab be 5d f2 86 be 25 1c e4 be
       -0.27530557 -0.3356741 -0.26356784 -0.44552723
000120 58 a3 86 bd 2d 85 01 be b4 cf 25 be 42 3c bd be
       -0.06574124 -0.12648459 -0.16192514 -0.36960036
000130 b1 95 cd be 59 07 d0 3e eb b9 da be d1 7a a9 bc
       -0.40153268 0.40630606 -0.4271997 -0.020688446
000140 eb 51 dc 3d 3c 15 ad be e3 19 12 bf bb 65 c7 bc
       0.10757812 -0.33805263 -0.5707075 -0.024340501
000150 1e d4 86 3c 94 9e b9 be ac 13 09 bd 56 6b 0f be
       0.016458567 -0.36253798 -0.033466026 -0.14005789
000160 6c 6e 90 bd 4e d0 1f 3e 39 04 1f be b8 02 27 be
       -0.07052311 0.15606806 -0.15528955 -0.16309631
000170 4c 60 f3 be 78 dd 68 be 82 2d eb bd 38 d0 48 be
       -0.47534406 -0.22740734 -0.11483289 -0.19610679
000180 16 60 80 3d 3d a0 f6 3d 69 da 3c 3d fe 0c b8 bc
       0.06268327 0.12042282 0.04610673 -0.022467133
000190 53 0a ce bc f2 75 01 bd 7b 77 88 be 58 d2 e2 bd
       -0.025151407 -0.031606622 -0.26653656 -0.11075276
0001a0 fb 90 4e 3e dd 5f 38 3e 57 ac 94 be 3f 64 c8 be
       0.20172493 0.18005319 -0.29037735 -0.39138982
0001b0 95 ea d1 bd a1 4a 6f be f9 31 76 3d 55 f2 07 3e
       -0.10249821 -0.23368312 0.06010625 0.13276036
0001c0 37 3a cc be f1 02 5d be 62 2a 8c be 4d 59 f1 be
       -0.39888164 -0.21583153 -0.27376086 -0.47138444
0001d0 8f b4 8c be b0 34 8a be 06 3a be be dd b1 3d bf
       -0.27481505 -0.26993322 -0.37153643 -0.7409952
0001e0 65 d5 ad 3d 59 35 a1 3d ae 4e bd be d6 1a 6b be
       0.084879674 0.078715034 -0.3697409 -0.22959456
0001f0 f4 30 ac be ea 60 5f 3e 55 5b e7 3c bc c3 21 be
       -0.33631098 0.21814314 0.028241793 -0.15797323

weight f4 [64, 128]
000000 90 d6 99 be fa 15 93 bc 3f 87 6c 3d 91 7f 56 be
       -0.3004651 -0.017954815 0.05774617 -0.209471
000010 0b e0 47 be 28 84 e8 3d 45 12 ef be 40 60 c7 bd
       -0.1951906 0.11353332 -0.46693626 -0.09735155
000020 06 42 de bd 24 d7 20 3e 96 c7 09 be 6c e3 b3 3e
       -0.10852437 0.1570707 -0.13455042 0.35134447
000030 db ae ce 3d f1 b7 6f be 1d cd d5 bd 74 63 94 3d
       0.10091945 -0.23410012 -0.10439513 0.07245532
000040 35 96 98 bb ef 3f 9d be 70 9f 2f bd e2 d5 85 be
       -0.004656578 -0.3071284 -0.04287666 -0.26139742
000050 5c 72 a2 bd 97 79 7e be 02 e1 75 be 87 de d5 bd
       -0.079319686 -0.2485107 -0.24011615 -0.10442834
000060 3d 72 c3 bd 61 57 00 3e 85 c8 48 be 74 9e 57 3e
       -0.095432736 0.12533332 -0.19607742 0.21056539
000070 da 56 8d be 0f 12 0e be 96 91 9f be 59 84 8e be
       -0.27605325 -0.13874076 -0.3116576 -0.27835348
000080 f0 89 9e 3d ea 91 35 be 89 84 11 be 77 fe 1b bd
       0.07741153 -0.17731443 -0.14210714 -0.038084473
000090 f2 e1 f1 bd 8e 77 c3 3d 1c b8 39 bd 5d 6c dc 3e
       -0.11810674 0.095442876 -0.045341596 0.43051425
0000a0 c8 ff 4d 3e fa 9d f2 3d d5 8a 69 be 73 43 0f 3e
       0.20117104 0.11846538 -0.22806866 0.13990574
0000b0 03 69 b0 bc 1c 00 89 3d 70 18 9a bd d4 19 70 bd
       -0.021534448 0.06689474 -0.07524192 -0.05861838
0000c0 a4 ae 1f be 81 2f 53 bd a1 0c 67 3c bf 4d 62 be
       -0.15593964 -0.051558975 0.014102132 -0.2209997
0000d0 49 e5 c6 bb b9 d9 b6 3c ba 56 ed 3c 49 d7 3f be
       -0.0060698134 0.022320615 0.028972019 -0.18734469
0000e0 91 93 a1 3d b4 c2 2a 3e a4 3e 8c 3e b9 2a 4b be
       0.07889474 0.16675836 0.2739154 -0.19840516
0000f0 c5 2d 79 bc da af 47 be d9 a3 9a be 16 60 fc bd
       -0.015208666 -0.19500676 -0.3020313 -0.123230144
000100 44 32 88 3b 85 b2 30 be 7f 8c d7 bd 18 7c 51 3e
       0.0041563828 -0.172556 -0.105248444 0.20457494
000110 d8 f2 3e bd 14 47 1b be e0 e5 aa bd 2e 38 85 bd
       -0.046618313 -0.15163833 -0.083446264 -0.06504856
000120 e0 3a 9e be 7e 4e 4b be 03 00 41 3d 88 9c 39 be
       -0.30904293 -0.19854161 0.04711915 -0.18126118
000130 da 55 19 be 06 1b 5f bd bb 54 25 be 8c 7f 45 3e
       -0.14974156 -0.05446913 -0.16145603 0.19286937
000140 5d 29 90 3d b5 60 90 3d d2 c8 3b be b2 14 9c be
       0.070391394 0.070496954 -0.18338326 -0.3048454
000150 13 43 02 3e 87 0b 2f 3c 7a 62 a4 bd d8 b1 0c 3e
       0.127209 0.010683901 -0.080265954 0.13739717
000160 f5 ef da bd 7d f3 06 bd e4 c6 36 be 44 16 20 be
       -0.106902994 -0.032947052 -0.17849308 -0.15633494
000170 1b 7b bc 3c 9f 7a 14 bd 87 00 bb 3d 1a 19 90 3d
       0.02300792 -0.036249753 0.0913096 0.07036038
000180 b1 d6 70 3d 31 aa 1c be 48 f1 67 3d 03 2b 31 3e
       0.058798496 -0.15299298 0.056626588 0.17301564
000190 20 7c 34 3d 99 26 b6 3d ab d1 15 be 54 e4 90 bd
       0.044063687 0.08894081 -0.14630763 -0.070748
0001a0 77 f7 7a 3e fc a0 24 3e d6 e1 d9 bd b1 42 25 3e
       0.24508463 0.16077036 -0.10638778 0.16138722
0001b0 0c 8a 49 be 82 c7 49 be ee 43 ba 3d d8 be c2 bd
       -0.19681567 -0.19705012 0.09094988 -0.09509057
0001c0 e0 0e 8c 3d 7a 5a ca be 65 c6 c6 be 37 8c 6a 3d
       0.06838775 -0.39522153 -0.38823238 0.057262626
0001d0 fe e7 22 3d 25 6e 2e be f6 93 2c bd 5f ce 72 bf
       0.039772026 -0.17034204 -0.042133294 -0.9484615
0001e0 b1 14 df 3d d0 1b 09 be 3d 32 76 bd d7 6c 3a bd
       0.108926184 -0.13389516 -0.060106505 -0.045513954
0001f0 21 11 ce bc be 6a d4 3d 36 16 72 bd 6a e0 a5 3c
       -0.025154652 0.10371922 -0.059103213 0.02024861
000200 31 21 29 bf c1 d7 2c bd 21 9b ca 3c 74 0f c6 bd
       -0.6606627 -0.042197946 0.024732174 -0.09670916
000210 2b 41 35 be 72 7e c6 bd 29 52 e4 be a2 47 3c 3e
       -0.17700641 -0.09692086 -0.44593933 0.18386701
000220 51 ab 5e 3e 35 0f 9a be c2 26 78 3d 8c 78 47 3d
       0.2174504 -0.30089727 0.060583837 0.048698947
000230 0d 80 2a be f2 7e ef 3d aa d7 78 3d 97 f3 83 bd
       -0.1665041 0.11694135 0.06075255 -0.064429455
000240 82 90 c7 3d 68 82 d6 be 68 e1 fd bd b9 a6 0b 3e
       0.097443596 -0.41896367 -0.123965085 0.13637818
000250 66 2d 06 be bd 7e 9d be 21 65 09 bc bb 9a 23 bf
       -0.13103256 -0.30760756 -0.008385927 -0.63907975
000260 88 7b d4 3d 77 2c 0f 3e bc 4d a3 3e eb bf d7 be
       0.10375124 0.13981806 0.31895244 -0.4213861
000270 21 35 af 3e ed 4a 45 3e f5 dc d0 bf 98 08 62 bc
       0.34220222 0.19266863 -1.6317431 -0.013795994
000280 96 5e e8 3c 1c d9 ad 3e f6 62 ef 3d e9 18 84 3e
       0.028365415 0.33954704 0.11688797 0.25800255
000290 12 9e 31 bf 26 5f cc 3d 45 a6 17 3e c5 df 9d 3e
       -0.6938182 0.099790856 0.1480952 0.30834785
0002a0 72 33 87 3b 4f b9 ae 3d 95 4f 82 bd ce 46 1c bc
       0.004126006 0.085314386 -0.06362835 -0.0095383655
0002b0 55 51 fe bd 90 60 1d be 1f bb 0d bc 1c 6f cb 3d
       -0.124178566 -0.15368867 -0.00865057 0.09933302
0002c0 5b d4 5e bd fa a7 9a 3d 3a a4 c3 bd 0c 3d 9e bd
       -0.054401737 0.0755157 -0.09552808 -0.077264875
0002d0 1b b9 86 bc f9 53 a1 bd c6 99 eb bd 3e 4a 85 bd
       -0.016445687 -0.07877345 -0.11503939 -0.06508301
0002e0 12 b6 ae bd 32 95 a3 3d bf 37 21 bf a6 3c 02 3d
       -0.08530821 0.07987441 -0.62975687 0.03179612
0002f0 7e fc 01 bd b3 b2 06 bf ee 9e 0b bf 27 a9 e0 bd
       -0.031734936 -0.52616423 -0.5453938 -0.10969763
000300 fa 8d 99 b9 bc 85 65 bd 60 a9 21 3e 54 ea 1a 3e
       -0.00029288215 -0.056035742 0.15787268 0.15128452
000310 57 b0 f1 bc 31 58 fb 3d f5 ba 1d 3e 95 62 52 3d
       -0.02950303 0.122726806 0.1540335 0.051363546
000320 3e 80 77 3e 77 fe 21 bc f3 bf e9 bc 86 45 ef be
       0.24170014 -0.009887329 -0.028533911 -0.4673273
000330 64 6b 59 be 11 71 44 3f 0e 56 34 3e 2b 74 a1 be
       -0.21232373 0.76735026 0.17610952 -0.31533942
000340 8e a6 1f be 7d 86 3d be 14 65 0a bf 7d bf 1a 3e
       -0.1559088 -0.18508334 -0.5406048 0.1511211
000350 55 95 34 3e d7 a1 a4 bd 2a 51 8b bd bc 7e 3d be
       0.1763509 -0.08038681 -0.0680259 -0.18505377
000360 a4 c1 0b 3e d0 cb 6e bd 1c a0 f1 3d 38 aa 24 bf
       0.13648087 -0.05829984 0.117981166 -0.64322233
000370 da 52 d3 bc 12 d0 b9 bd d7 3b 71 bd c8 7e 0a bf
       -0.025796343 -0.090728894 -0.05889496 -0.540997
000380 30 cb 3e 3e 12 ec 55 3e 2a cd 9a 3d 2e b6 30 bd
       0.18632197 0.20890835 0.07558663 -0.04314249
000390 2a 4c a1 3e b0 3e 0c 3e 64 12 83 bd 11 cc 34 bc
       0.3150342 0.13695788 -0.06399992 -0.011034981
0003a0 6f be 50 3d 10 74 b2 bc e3 23 c4 bd f1 b0 07 be
       0.05096286 -0.021783859 -0.09577157 -0.13251092
0003b0 b1 46 7f bf 69 cd ea bd 61 1d 39 3d 98 bb 05 3e
       -0.9971724 -0.1146496 0.045194034 0.13059843
0003c0 cd 2f 17 bc 5b 66 4f bf 1f eb 08 bf 15 76 33 be
       -0.009227705 -0.8101556 -0.53483766 -0.17525513
0003d0 04 ff 42 be 6f 88 c2 be 54 3f 38 bd 7f d5 5e bf
       -0.19042593 -0.37994716 -0.04498227 -0.8704452
0003e0 19 fd 25 3e 10 e6 9b 3d b5 2a 79 be 63 45 d7 be
       0.1620983 0.0761224 -0.24332698 -0.42045125
0003f0 a9 13 81 3e b8 59 a0 3d 25 1a 1a be 6f 00 dd 3b
       0.25210312 0.078296125 -0.15049036 0.0067444365

bias f4 [64]
000000 29 07 59 be fe 70 f1 3c 81 06 2a be c2 fc 97 be
       -0.21194138 0.029472824 -0.16604044 -0.29685026
000010 11 56 e3 bd 64 00 8c be ca df 85 be 4d 3f 1e be
       -0.111004 -0.27344048 -0.261473 -0.15453835
000020 dd 39 b0 3d d1 05 cc 3d ec 3b 4a be c4 ae a9 3a
       0.086047865 0.09962047 -0.19749421 0.0012945761
000030 6f 66 25 be 92 6f 7d be 4c 86 9e be f7 92 c5 3c
       -0.16152357 -0.24749592 -0.30961835 0.02411793
000040 65 c8 1d 3d 3b 0b 29 bd 12 80 21 3e 90 ca 88 3c
       0.03852119 -0.041270476 0.15771511 0.016698152
000050 65 de cc bc 70 08 4f be 7e f0 55 be 4a 3c 28 be
       -0.02500839 -0.20218062 -0.20892522 -0.16429248
000060 53 5a 54 be 48 73 8c 3d 83 a7 9a 3d d6 b8 d7 bd
       -0.20737581 0.06857926 0.075514816 -0.105333015
000070 b5 2d 2d 3d 5b 8e fb bd 1a be 43 be 2a c9 72 bd
       0.042279918 -0.122830115 -0.19115487 -0.059273876
000080 e1 68 fc bc 10 10 ef bc 9b 3a b0 bd af 32 57 be
       -0.030811729 -0.029182464 -0.08604928 -0.21015428
000090 d0 d6 1a be 67 d6 4d bd 3a 20 74 3c 08 73 48 be
       -0.15121007 -0.050253298 0.014900262 -0.19575131
0000a0 c8 22 9c 3d 16 1d ec bd 4f e3 78 3d b3 61 71 be
       0.076238215 -0.11528985 0.060763653 -0.23572426
0000b0 90 ae a3 bc 1d d7 03 be a6 8e 0a 3d 15 12 6b bc
       -0.019980699 -0.12875028 0.033827446 -0.014347573
0000c0 9d 43 22 bc 7f 12 85 be bd 50 0c be cd 70 8d 3c
       -0.009903816 -0.25990674 -0.13702674 0.017265702
0000d0 71 72 25 be fb 0a 54 bd fa 80 19 be 9a ae a6 be
       -0.16156937 -0.051768284 -0.14990607 -0.32555085
0000e0 89 19 80 be a3 02 a9 bc 6e 4c 1b be 01 92 80 bc
       -0.25019482 -0.02063114 -0.15165874 -0.01569462
0000f0 c8 dd 84 bd a1 d1 96 bc 4e 8f 69 3d 9e b6 be bd
       -0.06487614 -0.018410506 0.05702143 -0.09312175

weight f4 [32, 64]
000000 55 5f bf bd 9b d1 77 be 36 cf d5 3c d5 7b 65 be
       -0.09344355 -0.24201052 0.026099782 -0.2241052
000010 7b d2 98 3e 7e 14 43 bd 75 b7 a4 3e db 03 43 be
       0.29848084 -0.047626965 0.32171217 -0.1904444
000020 6b 09 94 3e c1 75 5b 3e 04 f1 d3 bd 98 d4 2c be
       0.28913435 0.21431638 -0.103487045 -0.16877973
000030 bd 6c de bd e3 e7 0a be b2 90 aa bc 7a 9d c6 3d
       -0.10860584 -0.1356502 -0.02082095 0.09698005
000040 2f ed 89 bd 3a b7 da 3c 19 f9 e7 37 11 24 a4 bc
       -0.06734692 0.026698697 2.7653341e-05 -0.020036729
000050 3a 47 d4 bd 33 2c af 3c 72 65 0b be 6c 1a 3f 3e
       -0.10365148 0.02138338 -0.13612917 0.18662423
000060 ce c0 9a bd cc fa c4 bc 69 77 98 3d a0 a2 5d 3d
       -0.07556306 -0.02404537 0.07444651 0.05411017
000070 72 10 b3 bc 4f 61 8e 3d ad 1e cc 3d b2 a3 20 3d
       -0.021858428 0.06952154 0.099667884 0.039218612
000080 a4 54 96 be b0 17 2d be 7f da c6 bd 54 5b ab be
       -0.2936145 -0.16903567 -0.097096436 -0.33468115
000090 3e 17 5a 3c 22 c3 dc bd 6e f8 20 3d 6d 75 ea 3d
       0.013311205 -0.10779406 0.03929942 0.114481784
0000a0 09 3f 0a be 33 9d 19 3e 84 b5 14 3e c0 6f 64 3d
       -0.13500609 0.15001373 0.14522368 0.055770636
0000b0 16 b1 aa be 75 2d 83 3e be 80 23 3e 2e a9 87 3a
       -0.3333823 0.25620618 0.1596708 0.0010350102
0000c0 0d 5f 47 be 22 1b 10 bd 6a 02 93 bd 7d d9 58 bc
       -0.19469853 -0.035182126 -0.07178195 -0.013235447
0000d0 97 95 00 3f dd eb fc bd 8d 58 15 be 3e 4f 2c be
       0.50228256 -0.12349675 -0.1458456 -0.16827103
0000e0 74 09 13 3e 99 26 bb bc fd c5 df 3d f9 d3 84 bd
       0.14359075 -0.022845553 0.10926435 -0.06485743
0000f0 bc 5b b2 bc c2 b7 9b 3e b5 3c 12 3e 23 8a e6 3c
       -0.021772258 0.30413634 0.1428097 0.02814204
000100 d8 1d d0 bc 94 8a af be 3e eb 5b be d1 ff 2f be
       -0.025404856 -0.34285414 -0.21476457 -0.1718743
000110 c3 6f de bd 43 5a 33 3e 94 73 df bd cb cd ee bd
       -0.108611606 0.17514901 -0.10910717 -0.11660346
000120 67 cb a2 3d 0d 84 2a be e7 32 b9 3d ae 13 b9 bd
       0.07948952 -0.16651936 0.09042912 -0.09036957
000130 11 8f 1e 3c 0a 81 08 3c bd 2a 48 3d b7 fb ed 3b
       0.009677664 0.008331547 0.048868883 0.0072626728
000140 21 01 46 3e 7d 14 20 3e eb 36 e6 bd 6a 79 fe bd
       0.19336368 0.15632816 -0.112409435 -0.12425502
000150 fe 1b 82 3d db ec 22 3d 8c 48 87 3d 20 80 7d 3d
       0.06352995 0.039776664 0.06605634 0.061889768
000160 5f ba 24 be f3 4c 50 bd f1 b6 8c bd 01 b1 38 be
       -0.1608672 -0.050854634 -0.06870831 -0.18036272
000170 80 c2 0a 3d e8 5d 0f 3e 8d b4 9f 3d 8b d9 6b bc
       0.033876896 0.14000666 0.07798109 -0.014395128
000180 56 81 2c 3e 06 1d bc 3d e7 d1 59 3c f6 ec 83 3d
       0.16846213 0.09185223 0.0132946735 0.06441681
000190 a5 5a 94 bd 47 ab 1b 3e bc c3 05 bd e1 ba 45 bb
       -0.072438516 0.15202056 -0.03265737 -0.0030171203
0001a0 2d 18 ea bd ad d3 4c 3d cc f1 69 be 15 8a 8e 3d
       -0.114303924 0.050006557 -0.22846144 0.06959931
0001b0 20 94 05 3e a3 be 0e 3e 83 1c 0c be 20 90 8c bd
       0.13044786 0.1393991 -0.13682751 -0.06863427
0001c0 cd 76 13 3e 14 d4 2a be 66 1d a4 3d ff c6 88 bd
       0.14400788 -0.16682464 0.0801342 -0.066785805
0001d0 bd ec 70 be 69 88 c6 bd 13 ab bc bc ea c4 ae bc
       -0.23527808 -0.09693987 -0.023030793 -0.02133413
0001e0 5d ee 1b be c5 c0 06 3d e1 10 46 3e a6 57 3a 3e
       -0.15227647 0.032898683 0.19342376 0.18197498
0001f0 cc 98 21 3e 94 dc 03 3e 48 3b f6 bd ea 7f c3 bc
       0.15780944 0.12877113 -0.12023026 -0.023864705
000200 20 4e 20 3d 34 b7 21 be 30 f3 9f bd e0 58 5a be
       0.039137006 -0.15792543 -0.07810056 -0.21322966
000210 20 d6 65 3d ee f3 b4 3d 40 59 88 3c 7c 31 48 3d
       0.05611241 0.088355884 0.01664412 0.048875317
000220 eb ea 27 3b 8a c8 b0 bd eb 91 5b 3d b6 1c 86 bc
       0.00256222 -0.08632 0.053605955 -0.016371112
000230 47 b9 f8 3c 96 aa d3 bc 12 66 9b bd a6 6f 41 bc
       0.030361785 -0.025838178 -0.07587828 -0.011806404
000240 13 3f 33 be b4 f7 ac 3d 1d 2a 14 be d7 c0 31 bd
       -0.1750453 0.08445683 -0.1446919 -0.043396797
000250 ca 51 bd bd 2f 95 fc 3d 71 31 12 be ad 74 94 3d
       -0.09244116 0.12333142 -0.14276673 0.07248817
000260 64 d8 7f be 45 62 63 3d b4 97 34 3d eb f3 76 3e
       -0.2498489 0.05551364 0.044089988 0.24116485
000270 72 24 7a be dc b2 5c bd f6 cb bc 3d 17 f0 39 bd
       -0.24427965 -0.05388151 0.0921859 -0.045394983
000280 7e 20 0e 3d 75 ed 84 3d 62 99 20 3e 21 d5 3f be
       0.034698956 0.06490604 0.15683511 -0.18733646
000290 2e 45 97 3d 1c eb 9e bc fe 21 bc 3d 01 1e 88 3e
       0.07386242 -0.019399218 0.09186171 0.2658539
0002a0 ec 44 b2 be d9 6f a2 3d 17 31 d5 bd 5b 7d 6a 3c
       -0.34818208 0.079314895 -0.10409754 0.014312114
0002b0 1a b2 58 be f0 3c 8a 3d 7a ca 31 be a4 c0 80 be
       -0.2116169 0.06749904 -0.17362395 -0.25146973
0002c0 7d f4 8c bd 42 d2 ef bd 00 3c ad bd 0c 19 24 be
       -0.0688257 -0.11710025 -0.0845871 -0.1602518
0002d0 a5 96 11 be 0c 1f d6 be fe 79 c2 bd 5c 95 44 3e
       -0.14217623 -0.41820562 -0.094959244 0.19197601
0002e0 c1 be e0 bd d5 bc 66 3e 6f 7e bc 3d 19 75 72 3e
       -0.109738834 0.22532971 0.09203803 0.23677482
0002f0 4f dd 3d be bb 53 84 bd 71 12 70 bd 86 b0 ca bd
       -0.18541454 -0.06461283 -0.058611337 -0.098969504
000300 50 82 40 bd 03 68 a7 3d b6 e1 ef 3d e0 82 0c 3e
       -0.046999276 0.081741355 0.11712973 0.137218
000310 a2 09 46 be 2b 34 38 3d a0 e6 a7 bd d6 e1 0e be
       -0.19339612 0.044971626 -0.08198285 -0.13953337
000320 a4 1b 37 be 8e 39 86 3e 92 ca b9 bc 9d 79 28 3d
       -0.17881638 0.26215786 -0.0226796 0.041131604
000330 c0 ba 06 bc 25 8d 05 3e 3e f4 ab 3d 2c e4 a2 39
       -0.008223236 0.13042124 0.08396195 0.0003106905
000340 20 c7 c3 3c 12 a4 8c bd 5d 05 17 3d ae 40 0b bd
       0.023898661 -0.068672314 0.03687035 -0.03399723
000350 f6 b3 42 be 89 1b ce bd 6b 82 ac 3b 22 e3 ff 3c
       -0.19013962 -0.10063846 0.0052645705 0.031236235
000360 70 3f 6a 3d 4b ac 61 be 88 05 d4 bd 27 05 a5 bd
       0.057189405 -0.22038381 -0.103526175 -0.08057623
000370 65 21 dd 3c 0a 14 24 3d cf c4 57 39 1c 2f 96 3d
       0.026993463 0.040058173 0.00020577315 0.07333204
000380 53 27 d3 3d ff dd 70 be 0e 57 3b 3e d8 63 17 bd
       0.10310235 -0.23522185 0.18294927 -0.036960453
000390 34 ad 6a be c8 96 76 3c b3 61 6d bd 60 cc ee 3c
       -0.22917634 0.0150505975 -0.0579545 0.029150188
0003a0 e2 fe 49 3e 22 94 05 3e 2f b5 2b 3c 79 b0 a4 3d
       0.19726136 0.1304479 0.010480209 0.08041472
0003b0 99 92 9f 3d 57 95 53 3d 80 62 ab be 4f df d9 bd
       0.07791633 0.051656093 -0.33473587 -0.10638296
0003c0 37 2c df 3d 9b ae 13 3d 1f 12 63 3e 0f ce ad be
       0.10897105 0.03605519 0.22174881 -0.33946273
0003d0 46 76 20 3d df f8 41 be 6d 65 d5 3c c5 e5 29 3d
       0.039175294 -0.18942593 0.02604934 0.04147889
0003e0 89 a1 03 3c 0d ed 0d be 5f 2d 5e 3e 68 c1 31 be
       0.008034118 -0.13859959 0.21696995 -0.17358935
0003f0 1f 46 02 3d c5 05 4a be 39 d3 a9 3d 8c af 1e be
       0.031805154 -0.19728763 0.08292241 -0.15496653

bias f4 [32]
000000 1c 6d f0 bd 22 1b 4a 3d ec 9c 12 be b4 76 c5 bd
       -0.11739561 0.049342282 -0.14317673 -0.096417814
000010 46 9e 29 3e d5 ef 49 be 5b c1 1a bd a6 d3 54 be
       0.16564283 -0.19720395 -0.037782054 -0.20783862
000020 3d 29 ad be c0 b0 96 be 86 0a ac bd 3d c0 96 3e
       -0.33820525 -0.29431725 -0.08400445 0.2944354
000030 a8 13 99 be 1b c6 62 bd d7 cc 8e bd 32 28 94 be
       -0.2989781 -0.05536471 -0.06972664 -0.28936917
000040 23 dc eb bd 87 14 c9 3c a6 b1 d8 bc aa 66 00 be
       -0.11516597 0.024545921 -0.026451897 -0.12539163
000050 f1 9b 78 be b5 d3 33 3d cf fc b0 be 02 86 dd bd
       -0.24278237 0.04390307 -0.34567878 -0.108165756
000060 26 6f 53 be 75 36 14 be f8 c1 2f be 2d 01 b2 3e
       -0.20647869 -0.14473899 -0.17163837 0.34766522
000070 85 32 7f 3b 0a 02 67 be ab f0 7d 3e 27 ca 03 be
       0.0038940024 -0.22559372 0.24798839 -0.12870084

weight f4 [6, 32]
000000 52 1e 88 3d 82 52 0c bc 51 3d 66 bd 28 2c f5 3c
       0.06646408 -0.008564593 -0.05621082 0.029928282
000010 25 10 15 bd 25 f7 87 bc ad 35 71 3b 3f 89 ab 3d
       -0.03639235 -0.01659734 0.0036805675 0.08375787
000020 6c 6d 3e bb c0 20 73 3d 67 a3 6c 3d d2 d1 d2 bd
       -0.002905692 0.059357405 0.05777302 -0.10293926
000030 01 b6 0c 3e d9 a9 7b 3c 6f 91 18 bd 32 d0 9d 3b
       0.13741304 0.015360319 -0.03724807 0.0048160786
000040 8d 72 8a bd d6 9e 2a bd 03 63 52 bd 68 5d 81 bd
       -0.0676013 -0.041655384 -0.051363956 -0.06316644
000050 3f 5f 02 3d 2b 66 13 3b 9a fd 1b bc 00 4f 01 be
       0.031829115 0.0022491317 -0.009520913 -0.12627792
000060 35 c6 52 3c b6 bb 9f 3c 2f a3 22 3d cc d2 8a bd
       0.012864639 0.019498687 0.039706405 -0.067784876
000070 17 dc 42 bd ef 2f c5 bc 71 d4 6a bd 03 cb 88 bc
       -0.047573175 -0.024070708 -0.057331506 -0.016698366
000080 44 c5 c2 bc 94 44 a9 3d 35 92 56 bd 76 11 15 3c
       -0.023775704 0.08265033 -0.052385528 0.009098401
000090 bf ba 87 3d 6f 82 63 bc ae 2b 9e 3d ff 50 c6 bb
       0.06627416 -0.013886078 0.07723175 -0.006052136
0000a0 7c 36 02 be b9 7b 92 bc e4 d9 45 3c 52 48 a7 3b
       -0.12716097 -0.017881261 0.012075875 0.005105057
0000b0 a4 dc 8f 3c 8b e9 a9 3d f1 78 96 bd bc 52 63 bb
       0.017561264 0.08296498 -0.073472865 -0.0034686765
0000c0 8f 1e a7 bc 25 a3 25 bd c4 58 fb bc d9 80 a7 bc
       -0.020400314 -0.04043879 -0.030681975 -0.020447182
0000d0 d2 09 61 3b f9 91 71 bb 99 e3 91 bd 30 17 ff bb
       0.0034338129 -0.0036860688 -0.07123489 -0.0077847466
0000e0 d9 b1 47 3d cb be 7e 3d d5 76 f1 bc b8 5b 3a 3d
       0.048753593 0.062193673 -0.029475609 0.045497626
0000f0 a7 bd 91 bd 74 8f 98 bc 0c 8f bd 3d bc f5 ff 3b
       -0.071162514 -0.018623091 0.092558 0.0078112762
000100 2c a7 26 be 3c 39 75 3e 33 cd ce 3d cd d8 1f be
       -0.16274709 0.23947614 0.100977324 -0.15610047
000110 77 d9 e7 3d 3f d6 85 3d a1 40 22 be 0a 5a b8 3b
       0.11320775 0.06535005 -0.15844966 0.005625968
000120 44 00 8a be 3f 98 65 3e 60 e3 84 bd c5 42 86 be
       -0.26953328 0.22421359 -0.06488681 -0.26222816
000130 da e3 6d 3e f2 d4 bf 3d 2f e7 1c bd ba 3f 6f 3e
       0.2323145 0.09366788 -0.03830641 0.23364154
000140 19 26 9a 3e c9 8b 38 3e 9c 28 2c 3e 07 d4 80 be
       0.3010719 0.18022074 0.16812366 -0.25161764
000150 1d 68 b3 bd 6f 7a 47 be 8e 8d 43 3d 4e 45 17 bc
       -0.087600924 -0.19480298 0.04774242 -0.009232832
000160 1f c4 0a be 2b 68 08 3e 77 4f 8b bc 4f 37 d7 bd
       -0.13551377 0.13320987 -0.017005665 -0.10508596
000170 ff 2f 7d 3d 3f df f0 bd 29 b9 89 3d 4c dd cf bd
       0.06181335 -0.11761331 0.067247696 -0.10149631
000180 33 1d 0f bd 82 b0 62 bc cb 4f b5 bc 61 7b 73 bd
       -0.034939956 -0.013836028 -0.022132775 -0.059443835
000190 63 aa 8a bc a1 ab 20 3b e3 3f 2b bd 97 81 80 bd
       -0.01692695 0.0024516361 -0.041808974 -0.06274717
0001a0 aa 06 46 3d 09 81 82 3d 9a bf 32 bd 36 13 c7 bd
       0.0483462 0.06372268 -0.043639757 -0.09720461
0001b0 c6 ff 18 3e b6 a2 8c 3b c7 f5 56 bd e0 66 82 3d
       0.1494132 0.0042918576 -0.052480485 0.06367278
0001c0 9e 08 96 bd 39 56 70 bd 5c 42 59 3d e9 d8 90 3d
       -0.07325862 -0.05867598 0.0530418 0.07072622
0001d0 a8 48 80 3d 22 56 fa bb b7 41 17 bd a5 b9 e4 3d
       0.06263858 -0.0076396624 -0.036927905 0.111682214
0001e0 ce 11 bc 3b 39 25 2c 3d 03 74 1a 3c 00 87 ee bc
       0.005739427 0.042027686 0.009427073 -0.029117107
0001f0 fd 31 bd bd 78 37 9c bd 0b b9 a3 bd f0 85 b8 ba
       -0.0923805 -0.07627767 -0.079942785 -0.0014078002
000200 80 d7 a7 3d 89 1c 26 3d fb b1 cb bc 68 50 fe bc
       0.081954 0.040554557 -0.024865141 -0.0310442
000210 4e d0 34 3d 9c 4a a5 bc 10 0e 5f 3c 44 fc 21 3c
       0.044143967 -0.020177178 0.013614193 0.009886805
000220 e5 35 24 be 42 04 95 3c 81 64 9c 3d 80 5a 1e bc
       -0.16036184 0.018190507 0.07636357 -0.009665132
000230 58 5d 24 bd d7 b2 86 3d ca a5 c0 bc 1f ee 91 3b
       -0.040128082 0.0657708 -0.023516554 0.004453435
000240 c1 fb 3e bc 30 1d 8b bc 47 72 25 bd 2e 12 15 3c
       -0.0116567025 -0.016981691 -0.040392186 0.009098573
000250 c3 8d 0b bd a8 bb f7 3c c7 d4 dc bb 2a 4a 3c 3d
       -0.03407074 0.030240849 -0.006739232 0.045969166
000260 04 14 35 3d 50 99 f4 bc 5e 3f a5 3d 60 2a eb 3d
       0.04420854 -0.029858261 0.08068727 0.11482692
000270 fa 99 8b 3b e7 f2 4d bd b6 c7 32 bd e2 1d c8 bc
       0.004260299 -0.050280478 -0.04364749 -0.024428312
000280 c7 02 83 3e e8 11 eb 3d ff 77 50 3d ea cd 6f bd
       0.25588056 0.11478025 0.050895687 -0.058545984
000290 ec 0c 93 bd 76 99 68 be 0a 2b 19 3e 18 57 80 bd
       -0.07180199 -0.2271479 0.14957824 -0.06266612
0002a0 e1 de 80 be 51 da 26 3d a3 44 43 be 49 ce 86 bd
       -0.25170043 0.040735546 -0.19069152 -0.065823145
0002b0 e8 ee 99 3e d1 6e b9 3d 72 87 34 be 46 df 02 3e
       0.30065084 0.0905434 -0.17629793 0.12780485
0002c0 00 b7 2b 3e e9 e7 b5 3d ca 55 8f bd 5f 38 dd 3d
       0.16769028 0.08882124 -0.06998785 0.108017676
0002d0 b3 3d ca 3d 3e e9 f0 3d e9 ab 4f 3e d3 be 82 bc
       0.098750494 0.117632374 0.20280422 -0.015960133
0002e0 e3 17 81 be 6b d8 ff bd 08 10 63 bd cf 74 23 bd
       -0.25213537 -0.1249245 -0.05543521 -0.03990632
0002f0 50 ca dc 3c 92 0b 07 be 2a 19 5a bd e3 3f 35 3e
       0.026951939 -0.13188007 -0.053246655 0.17700152

bias f4 [6]
000000 1a 20 d0 be 83 72 f9 3e 46 ac 36 be a9 56 97 be
       -0.40649492 0.48720178 -0.17839155 -0.29558304
000010 b1 f5 ad 3e 3c 96 0a be
       0.3397651 -0.13533872
