models/policy_asm_step.pt (torch, 67720 bytes, 8 tensors)

weight f4 [128, 27]
00000000: ce83 6f3e 2935 3fc0 8c33 2f3f 5136 3cc0
00000010: 987a 2b3f b7d9 b13e 9ec4 1e3c d134 04bf
00000020: ffe0 bd3c 44d8 903f 0068 693f 0c98 15bf
00000030: adeb 483f b9bc 963e d074 a33e 41dc b83f
00000040: 66ed 843f 6e49 a2be fab6 1d3e dc76 a23f
00000050: 5f43 90bc 1b53 4abe 76ce 1cbe 1f2e 883d
00000060: 0fff efbe c0d8 bdbd 3de8 993d bd05 0240
00000070: c7d5 de3e 3678 1340 7895 263f 095c c2c0
00000080: bf27 dabb 8505 af3c e08b 29be 751e aa3e
00000090: 5040 69be b2bd 80bf 3c60 b03c 35a5 ab3e
000000a0: 1478 883d d1b1 623e 6f08 d8bf c9a1 a9bf
000000b0: 25c1 a23e b2e4 5f3f 9ac3 373f 5389 a83e
000000c0: 9c79 07be ded9 ffbd 107a 7fbd 9962 48be
000000d0: 7c64 b1bb af23 773a d253 15c0 f348 b03e
000000e0: 77dc 52c0 1cb8 f33d 9c83 a33f 852f 033f
000000f0: 862c ffbc 4c4e 07bf f3bf bcbe d2db 8ebe
00000100: a7b2 323d 3bb6 403f 58f2 493f ada6 153f
00000110: 815f 2a3f 9f3d 0d3f 5fda 9d3c 30e8 bb3d
00000120: 4b40 68bf 4f5a 40bf ae0d 6dbf 805a 94bd
00000130: 65a0 953e 47b9 fabd 9a32 7cbc d83c 903e
00000140: 1391 7f3e 9f27 ffbe b34d f83e 1181 e83e
00000150: fa00 4a3f 7e0b 713e 6cbb 853f 408c c03c
00000160: b588 8e3f 8564 b3bd 5e65 2fbe 0e6f 80bd
00000170: 165c b13e a190 db3e 8501 f5bd 462a e33e
00000180: bc11 2dbf 91c9 3bbf abca babe 942d 713e
00000190: 1d09 24be 0751 8ebf b9d2 833e 15cd c63e
000001a0: 6e68 ec3e 3e74 bbbd aaf7 7e3e 14be 423d
000001b0: 5487 943e 97f0 b63f c25d 99bf 57bc e1be
000001c0: 4838 aa3e f841 b33d 7096 cdbb bce5 423f
000001d0: 67e3 043f 7dca b1bf 986c 66be b332 8e3e
000001e0: e2de f53e 3df0 35be 0427 e7be 701e 91bf
000001f0: 9f21 abbe a6ae f63e 62ed bbbe 6612 d9bf
00000200: c347 20bf 6725 1dbd c7a0 abbe 2c58 983d
00000210: bbac c43e 70b0 ab3d 6220 d4bd 8d4b c2bf
00000220: dc5d c5be f1d0 c9bf 1591 52c0 d9f2 b73f
00000230: 78c1 ddbe a23e d53b 5556 ae3f 0827 01be
00000240: 197f cebe 160e 743e 5077 84be bdf4 a2be
00000250: 10a2 43be 2f34 d9bd c528 2dbf da51 643e
00000260: 68e7 ce3e c5b7 77bf 1f1e 793e 7b8e 293e
00000270: 006d 2f3e 04cf e53d 711e fe3d e9b6 843d
00000280: a81b 47be 51fa 80be 3634 2cbf fccd 4a3f
00000290: 7dd2 91be edd6 203f 7006 d33f dd1c 193f
000002a0: 5215 333c ab64 30bf 133c 793e 436e ce3e
000002b0: 6e00 9a3f 3d0f 533e 4282 183f c562 8a3e
000002c0: acb5 c9bd 3cc3 023d 2fc9 a43f f6dc 48bf
000002d0: 271b 93bf df0d 75bf c695 91be b649 f63d
000002e0: 144a b03d b49c 3a3e ffe9 753e eb45 0e3d
000002f0: c28c ffbd 366e 4fbf 8281 153d e7fd 0cc0
00000300: 662a 463f 108e 53be 685c bb3e 89f9 7bbc
00000310: 0eda 9fbe 1b44 773e 0f82 1d3f 79ad 143e
00000320: 1d51 09bd cfff 5f3f 8ba3 84be 0139 6e3d
00000330: f5c4 5a3f d3b4 75bf 6be6 87bf 3a0d 45bf
00000340: b114 0cc0 b90d aebe 9318 cabd ec9d 1fbe
00000350: a8dd 0cbc 74d7 82bd 943b 713a 5205 a8bc
00000360: 2408 90be 0971 053f 4c4e 52bf 1bfb 53bf
00000370: b901 06bf e04f 97bf b4b9 9d3c 817f 09c0
00000380: 7cdf 18bd bc14 6d3f ec45 cdbe 6d69 0cbf
00000390: 166b b33e 5306 2ebf 7fe7 84be ae62 5a3f
000003a0: 962d 87be 0209 1bbf 5472 22bf 948d cbbf
000003b0: 00a9 74bd 1750 bf3b 65cb 3a3e 82fd 8d3e
000003c0: abc4 833c 014c a93e 57bc 81be 69c6 00bf
000003d0: 3e62 08bf 933b cbbe c3bb a1bf dafc 6540
000003e0: 3298 053f eb40 5cbd 8f63 273d 5f1a b13e
000003f0: 20da a03e 806a 073f 4b13 ac3d 3f1e 1dbd
0.23390123 -2.9876196 0.6843803 -2.9408152 0.6698394 0.34736416 0.009690432 -0.5164309
0.023178576 1.1315999 0.91174316 -0.5843513 0.7848461 0.2944086 0.31925058 1.4442216
1.0384948 -0.31696647 0.15401831 1.2692523 -0.01761025 -0.19758265 -0.15313134 0.06649422
-0.46874282 -0.092698574 0.07514999 2.0316002 0.43522474 2.304212 0.6507182 -6.0737348
-0.00665757 0.021364937 -0.16557264 0.33226362 -0.2277844 -1.005789 0.021530263 0.3352448
0.06663528 0.22138144 -1.6877574 -1.3252498 0.31787983 0.87458336 0.7178284 0.3291727
-0.13229984 -0.12492727 -0.062372267 -0.19568862 -0.00541359 0.00094276195 -2.333241 0.34430656
-3.294706 0.119003505 1.2774539 0.51244384 -0.03114916 -0.52853847 -0.36865196 -0.27902085
0.043627407 0.7527806 0.7888541 0.5845745 0.6655198 0.5517215 0.019269167 0.091751456
-0.90723103 -0.751378 -0.92599 -0.07243824 0.29223934 -0.1224237 -0.015392924 0.2817142
0.24957685 -0.49834916 0.4849678 0.4541097 0.7890774 0.2353954 1.0447822 0.023504376
1.113547 -0.08759407 -0.17128512 -0.06271182 0.34640568 0.4288378 -0.119631805 0.4436819
-0.67605186 -0.7335444 -0.36482748 0.23552543 -0.16019101 -1.1118478 0.25746706 0.3882834
0.46173424 -0.09153031 0.24899164 0.047544554 0.29009497 1.4292172 -1.1981738 -0.44089004
0.33246064 0.08752817 -0.006274037 0.76131797 0.5190949 -1.388992 -0.22502363 0.27773055
0.4802161 -0.17767425 -0.45146954 -1.1337414 -0.33424088 0.4818012 -0.36704546 -1.695874
-0.626095 -0.038365748 -0.335211 0.074386925 0.38413033 0.08383262 -0.10357739 -1.5179306
-0.38548172 -1.5766889 -3.290105 1.4370986 -0.43311667 0.0065077106 1.3620096 -0.12612545
-0.40331343 0.23833498 -0.25872278 -0.31827345 -0.1910479 -0.10605656 -0.67640334 0.22296849
0.40410924 -0.96764785 0.24327897 0.16558258 0.17131424 0.11221126 0.1240815 0.064802
-0.19444144 -0.25190976 -0.6726717 0.7922056 -0.28480902 0.6282795 1.648634 0.59809667
0.010930376 -0.6890361 0.24339323 0.40318498 1.2031381 0.20611282 0.5957376 0.2702848
-0.09849104 0.03192447 1.2873896 -0.7846216 -1.1492661 -0.9572429 -0.2843458 0.12025778
0.08607879 0.1822384 0.24015044 0.034734648 -0.12478019 -0.81027544 0.03650046 -2.202997
0.77408445 -0.20659661 0.36593938 -0.015379318 -0.3122105 0.24147074 0.6152658 0.145193
-0.03352462 0.8749971 -0.25906023 0.058159832 0.8545678 -0.9597904 -1.0617193 -0.7697331
-2.188763 -0.33994845 -0.098679684 -0.15587586 -0.008597769 -0.06388751 0.0009202298 -0.02051035
-0.2813121 0.521256 -0.8215072 -0.8280503 -0.5234638 -1.1821251 0.01925359 -2.1484072
-0.037322506 0.92609763 -0.4009241 -0.54848367 0.35042638 -0.679784 -0.25957868 0.85306823
-0.26401967 -0.6056062 -0.634557 -1.5902581 -0.059731483 0.005838405 0.18241651 0.27732474
0.01608499 0.330658 -0.25339004 -0.5030275 -0.53274906 -0.3969389 -1.2635425 3.5935578
0.52185357 -0.053772848 0.04086643 0.34590432 0.31416416 0.5289688 0.08402117 -0.038358923

bias f4 [128]
00000000: 60a9 1fbe 95a2 abbe e993 b83d f854 9abe
00000010: 00e9 6bbd 6326 353e 1973 0abf 6f36 01be
00000020: cc31 b93d fb87 adbe 9e16 0cbd 6c05 243d
00000030: 67fe 3cbe 6bf4 16be f587 d9be 4fc5 1e3d
00000040: 8527 adbd 7b27 28bc 808d a1be 3503 40bd
00000050: 7406 25be e0e8 d4be ee0c 1d3d 1a23 71be
00000060: c8b2 10be 3c17 1a3e bb87 3dbc 540c ac3d
00000070: 60e5 1dbe f6f6 153e fce2 8bbe bd03 7bbe
00000080: cf3d 393e 6ca7 1d3d e278 103b 4f07 4f3e
00000090: 07ad 43bf 611d 2fbe 09f5 843c fc5f 8b3c
000000a0: 1b57 833d 73ac 533e 110c 94be 3729 0c3e
000000b0: 49b4 b5be 3f90 18bf d699 9ebe b45b 183c
000000c0: 0e9a 6a3d 10c8 56be e5e9 93be 6888 95bd
000000d0: 8b3f fb3d 06e6 8abe 082d b2be 5937 b1be
000000e0: 8e8e d4be 59ee 443e 9549 04be 69b5 603d
000000f0: 0132 543e 7e22 9fbd de51 0fbf 3a61 ca3d
00000100: a10b 8d3d ae1d 84bd 9492 5abe f180 15be
00000110: 6aeb 60be 03a6 b1be ae8d 70be ec36 c4be
00000120: 98e9 f0bd 6b8b 2fbe f428 2bbe 32f8 b6be
00000130: e9a3 d6be ed44 c73e 2ed8 d6be e201 27bd
00000140: dfca e83d e933 9abe c186 12bf d61f 01bd
00000150: 4a51 273d 3197 bbbe 6153 a4bd cec9 11be
00000160: e545 b2bd 7e16 b53d 40fc 0abe cb1e 3abe
00000170: a149 e6be 6d82 44be f4ed 01be d3cc 13be
00000180: 6cf0 9f3d a6d3 dc3d 8784 ed3c 455a 76bc
00000190: 783f 1fbd e2a9 5abd 2be6 8abe aacf c9bd
000001a0: 6ee0 653e a2ca 413e 7f70 90be 148a babe
000001b0: 773b debd ae08 86be 612d a33d 7684 003e
000001c0: 57e7 babe d257 3abe 7d25 84be a96c dbbe
000001d0: b818 6dbe c3ee 92be a145 bebe 67eb 3fbf
000001e0: a660 a23d a85c 3d3d 6ed2 afbe 1974 74be
000001f0: 3570 bbbe 5f6b 4e3e fe66 be3c 6ea4 22be
-0.15591955 -0.33522478 0.090125866 -0.3014295 -0.057595253 0.17690425 -0.54081875 -0.12618421
0.09042701 -0.33892807 -0.034201257 0.040044233 -0.18456422 -0.14741676 -0.4248654 0.038762387
-0.084548034 -0.010263319 -0.31553268 -0.04687806 -0.16115743 -0.4158392 0.03834241 -0.23548546
-0.141307 0.15047926 -0.011568005 0.08400789 -0.15419531 0.1464499 -0.27321613 -0.24513145
0.18089984 0.038489744 0.0022044708 0.20217632 -0.76435894 -0.17101051 0.016230123 0.017013542
0.064130984 0.20671253 -0.28915456 0.13687597 -0.3548911 -0.595951 -0.30976743 0.0092992075
0.057275824 -0.20974755 -0.28889385 -0.07301408 0.12267979 -0.2712862 -0.3479998 -0.3461254
-0.4151501 0.19231547 -0.12918694 0.054860506 0.207222 -0.07770251 -0.55984294 0.09881826
0.06886984 -0.064509735 -0.21344978 -0.14599968 -0.21964803 -0.3469697 -0.23491547 -0.38323152
-0.117633045 -0.17143027 -0.16714841 -0.35736233 -0.4192193 0.38919774 -0.41961807 -0.04077328
0.113668196 -0.3011773 -0.5723687 -0.0315245 0.040849008 -0.36638787 -0.08023716 -0.14237139
-0.087047376 0.08842181 -0.13572788 -0.18175809 -0.4497805 -0.19190378 -0.12688428 -0.14433603
0.07809529 0.10782556 0.028993858 -0.01503617 -0.038878888 -0.05338467 -0.2712873 -0.09854062
0.22448894 0.18924955 -0.28210828 -0.3643347 -0.10851186 -0.26178497 0.0796764 0.1255053
-0.36504623 -0.18197563 -0.2580985 -0.4285634 -0.2315396 -0.28697786 -0.37162498 -0.7496857
0.079285905 0.046230942 -0.34340233 -0.23872413 -0.36609045 0.20158146 0.02324247 -0.15883037

weight f4 [64, 128]
00000000: ebfa b1be 3855 ebbd 084b f63c 7b85 47be
00000010: a0e6 69be 70bc 153e 3e87 d3be 134d 96bd
00000020: 072e f0bd 5bfa 123e 776d f93a 55a7 b93e
00000030: b53d ea3d c489 94be 2ea9 80bd 87e0 053e
00000040: 3bd6 cebb 2567 8fbe b837 14bd dd17 87be
00000050: 0c97 75bd ed2d 90be 04e1 5dbe 2781 d9bd
00000060: e6fa 22bd 85b5 353d ce67 31be e8d8 203e
00000070: 01c4 a3be 20ae 9cbd 49e7 9fbe a8b7 88be
00000080: 2b55 573d e400 3fbe 1431 15be e3a8 14bd
00000090: 8e51 d3bd 50ef 5e3d daf0 84bc 7218 c83e
000000a0: 7c52 d53d 16a9 1a3e f819 a7bd 3a3d 253e
000000b0: 0854 53bd 983e 993d 1891 9abd cdb2 a5bd
000000c0: ce10 53be d78c 23bd 622d 5fbd e7d7 70be
000000d0: b749 b83b a080 313d 63f2 b43d f947 37bd
000000e0: b55a d93d 97e9 cd3d 91a8 6f3e 898e 1abe
000000f0: 07ef 20be 999c 3cbe c8af 9ebe b78b 07be
00000100: 7b6c 17bb 757d 2fbe 1227 32bd 7893 633e
00000110: 1816 6d3d 5b34 6abe 012c 0fbd 65d5 803c
00000120: 595a a4be efab 38be 81d9 b43d 1bc7 41be
00000130: 0cdd 15be c8b1 4fbd f981 14be ea67 373e
00000140: 5c04 153e 6f28 473e ab62 10be 4dec c0be
00000150: d327 b93d a3b7 db3d 6ba8 8ebc 16b8 2d3e
00000160: 0d16 0bbe a38f f1bc 5cda 67be bb31 0dbe
00000170: dc1c a7bc 7179 b43c 42e2 083e 4c1f e03d
00000180: 258c d93c e89c 13be 20fd 1d3d 8325 413e
00000190: b1bb 4e3d bbbd f73d ea69 5bbe dbc6 8ebc
000001a0: 0735 583e 3ec9 f73d 9fd1 c9bd 5726 3b3e
000001b0: 5281 12be 5244 6ebe 7233 2a3e 5b47 a8bd
000001c0: 40e9 1c3e 677c cebe 2ca7 60be 8bf1 063d
000001d0: 0986 9e3d f0db 47be cda6 8e3b 732e 74bf
000001e0: e921 0a3e 020c a8bd 2878 78bd 61be 243d
000001f0: b58c cfba ccbc 0e3d 5fcc b8bd a106 ed3c
00000200: 082f 30bf 3c89 76bd 3e2e b33d cc66 eebd
00000210: 79d4 21be 8a12 0cbe a808 dbbe 9b21 443e
00000220: 4619 513e b63f 90be 6b7f c43d 9d14 ca3d
00000230: ed53 2fbe 4dd1 453e 6aa8 673d 50b8 d0bd
00000240: a090 d63d b67a dbbe d38f c4bd b604 123e
00000250: 3438 dfbd f1e4 a4be ca27 11bd 3c7d 23bf
00000260: 20d0 bd3d 3c43 0e3e 3890 a53e d78f d9be
00000270: 9192 9f3e 1cc2 483e 9d4c d2bf bc4a 6bbd
00000280: f23e 35bc c90a a73e 1139 013e 3311 843e
00000290: 28b2 30bf 2155 f73d 14cd 273e 2fd1 9f3e
000002a0: fd94 413c 4d6b ae3d 6111 a1bc 6e2c b93c
000002b0: 19d4 c3bd 1095 0bbe 673c 12bb 6780 8d3d
000002c0: 7ab1 4cbd ac07 bc3d 9532 96bd f719 d0bd
000002d0: a152 1d3d a839 f8bc 03b2 78bd 61a6 e9bc
000002e0: 0d9b e7bd 354f 463d 71e7 16bf fa72 ae3c
000002f0: 3bcc 25bc a151 06bf f06e f1be a131 66be
00000300: fd8b a5bc 03e2 d9bd 980d 733e b5de 593e
00000310: d0bb d439 8251 333e e09e 043e c9ce 983c
00000320: 14f1 853e fbb2 ecbb 5f28 54bd d643 f1be
00000330: 80f2 53be a1ba 463f 2b16 073e c909 9dbe
00000340: fcf3 3bbe d0a7 ffbd 03d5 05bf 412d 293e
00000350: ddec 4c3e 3851 75bd 18b1 aebd 80a1 4fbe
00000360: 60fa 183e 593c 30bc fbc5 063e f088 1abf
00000370: d1dd aa3c 699a 2ebd 4826 4fbd 260a ffbe
00000380: aab5 0d3e e920 623e 2bac 123e 907c 0ebe
00000390: 13a3 a03e 12eb 143e ec80 5fbd 660c 11bd
000003a0: bada df3c 65fe 45bd b296 b7bd af64 17be
000003b0: efa7 71bf 0c98 f5bd 97ea 3d3d 1b17 043e
000003c0: 5f3e 9dba 6d30 4abf b03a 10bf 3792 31be
000003d0: fc96 febd dd83 b5be ee5b 33bd a7cc 5bbf
000003e0: 70fa 093e d656 d03d 5ede 39be 46b1 d8be
000003f0: 71c9 553e 9de1 813d 4699 16be 17ff 9c3b
-0.34761748 -0.114908636 0.030065075 -0.19484513 -0.22841883 0.14622664 -0.4131412 -0.073389195
-0.11727529 0.14353316 0.0019029815 0.36260477 0.11437551 -0.29011357 -0.062822685 0.13073932
-0.0063121594 -0.2800838 -0.03618595 -0.26385394 -0.059958503 -0.2816004 -0.21667868 -0.10620337
-0.039790057 0.044362564 -0.17324755 0.15707743 -0.31985477 -0.07650399 -0.31231144 -0.2670262
0.052571457 -0.18652683 -0.14569503 -0.036293875 -0.1031829 0.054427445 -0.016228128 0.3908115
0.10416123 0.15103564 -0.0815925 0.16136637 -0.05159381 0.07482642 -0.07547206 -0.08090744
-0.20611879 -0.039929237 -0.05448664 -0.2351986 0.005624022 0.043335557 0.08835294 -0.044746373
0.10613004 0.10054319 0.23404147 -0.15093435 -0.15716182 -0.18419112 -0.30993485 -0.1323689
-0.002310543 -0.17137702 -0.04349429 0.22224224 0.0578824 -0.22871535 -0.034954075 0.015726754
-0.3210018 -0.18034337 0.08830548 -0.18923609 -0.14635104 -0.050706655 -0.14502706 0.17910734
0.14552444 0.19449018 -0.14100139 -0.37680283 0.09040799 0.10728385 -0.017414292 0.16964754
-0.1358263 -0.029487437 -0.22641891 -0.13788502 -0.020399503 0.022030564 0.1336756 0.109434694
0.026556084 -0.14415324 0.038571477 0.18861966 0.050471965 0.12096735 -0.21427122 -0.017428806
0.21113978 0.12098931 -0.09854435 0.18276344 -0.14307144 -0.2326825 0.16621187 -0.08216735
0.15323353 -0.40329286 -0.21938771 0.032945197 0.07740409 -0.19517493 0.0043533803 -0.95383376
0.13489498 -0.08205415 -0.060661465 0.040220622 -0.0015834781 0.03484802 -0.09023356 0.028933825
-0.68821764 -0.06018947 0.08749054 -0.11640701 -0.15803708 -0.13678947 -0.42780042 0.19153444
0.20419797 -0.28173608 0.095946155 0.09867213 -0.17121859 0.19318123 0.056557097 -0.10191405
0.10476804 -0.4286706 -0.09597745 0.1425961 -0.10899392 -0.32205918 -0.035438336 -0.6386297
0.09268212 0.13892835 0.32336593 -0.42492554 0.3116651 0.19605297 -1.642963 -0.05744432
-0.011062371 0.32625416 0.12619425 0.25794372 -0.69021845 0.12076784 0.16386825 0.31214282
0.011815307 0.0851656 -0.019661607 0.022604194 -0.09561939 -0.13631082 -0.0022313835 0.069092564
-0.049973942 0.09181151 -0.073338665 -0.101612024 0.03840888 -0.03030093 -0.06071664 -0.028521718
-0.113088705 0.04841538 -0.589469 0.02129506 -0.010119493 -0.52468306 -0.4715495 -0.2247987
-0.020208353 -0.106388114 0.23735654 0.21276362 0.00040575722 0.17511562 0.12951231 0.01865329
0.2616049 -0.0072234846 -0.051796313 -0.47122067 -0.20697975 0.77628523 0.1319205 -0.30671528
-0.18354791 -0.124831796 -0.52278155 0.16521169 0.20012231 -0.05989191 -0.08529872 -0.20276451
0.1493926 -0.0107565755 0.13161461 -0.603652 0.020857723 -0.042627726 -0.050573617 -0.4981243
0.1383883 0.22082867 0.1432349 -0.13914704 0.31374416 0.14542797 -0.05456631 -0.035412215
0.027325977 -0.048338313 -0.0896429 -0.14784501 -0.9439687 -0.11991891 0.0463663 0.12899439
-0.0011996737 -0.7898014 -0.5633955 -0.17340933 -0.12431142 -0.35452166 -0.043788843 -0.8585915
0.1347444 0.10172813 -0.18151233 -0.4232275 0.20877625 0.063418604 -0.14706907 0.0047911513

bias f4 [64]
00000000: c645 53be 3df9 f23c 6253 6abe e0b4 46be
00000010: ad95 03be 4e01 95be 14e2 8dbe 098f 3fbe
00000020: 8b88 b93d 73bd cf3d ee55 32be 034f c4bc
00000030: 7f7a 1bbe 6409 71be 5897 c3be 629c b53b
00000040: 9de5 633d 5897 78bd d47a 2e3e f109 b93c
00000050: f2e9 923b 9bf2 38be e542 75be fe05 27be
00000060: c99e 5abe f296 803d a14c 9f3d 1e22 e2bd
00000070: 8f02 623d 0bd0 0cbe 08a2 65be b217 83bd
00000080: 9c9d c1bc 98c5 02bd a636 babd 163d 52be
00000090: 79d5 25be 0319 b8bd 2a0d 063d c600 59be
000000a0: da8f b73d 41bc 0bbe ea9d 8d3d 9e7b 53be
000000b0: 71c1 86bc 5a03 14be ea37 c63c f03d fcbb
000000c0: 4a74 9cbb 4677 65be 4b62 20be 5499 bb3d
000000d0: c6ca 2bbe 094b 99bd a5a7 1bbe 2463 a4be
000000e0: 88f0 72be 07e8 f8bb 05b5 2abe be51 e7bb
000000f0: c46b 0abd b6df 42bd 19f7 9b3d a213 b2bd
-0.20632085 0.029659862 -0.2288337 -0.19404936 -0.12850066 -0.29102558 -0.27711546 -0.18706907
0.09059247 0.101435564 -0.17415592 -0.023963457 -0.15183447 -0.23538738 -0.38201404 0.005542324
0.0556389 -0.060691208 0.17039043 0.022587748 0.004483455 -0.18061297 -0.239513 -0.1631088
-0.21349634 0.062787905 0.07778288 -0.110416636 0.05517822 -0.13751237 -0.22425091 -0.06401004
-0.023634724 -0.03192672 -0.090924546 -0.20531115 -0.16194715 -0.089891456 0.032727398 -0.21191701
0.089629844 -0.13646032 0.06914885 -0.20652625 -0.016449662 -0.14454404 0.024196584 -0.007697813
-0.004774605 -0.2240878 -0.15662496 0.091601044 -0.1677657 -0.07485015 -0.1520067 -0.32106888
-0.23724568 -0.007596019 -0.16670616 -0.007059305 -0.03379418 -0.04757663 0.076154895 -0.08695151

weight f4 [32, 64]
00000000: 0b7f ebbd 5e0b 8cbe d8ca 163d 602f 2abe
00000010: c38c 833e 5446 4cbd eb2b 853e 4d8b bebd
00000020: fe69 803e 0412 993e cfef 94bd 1201 fbbd
00000030: 159e 7ebd 8cdf ddbd e420 0f3d 45e3 573e
00000040: ce5e 31bc d667 303e 37c5 023d ef02 9cbd
00000050: e70b bbbd 3122 1cbd e1d6 94bd d460 343e
00000060: 0f05 bebd 9154 85be 3328 663d 286c 5c3d
00000070: f550 1e3e 50c4 c63d 55ad 1f3e dfc9 133d
00000080: e085 80be c564 19be 3272 f1bd 1a48 bebe
00000090: 4bd8 083d db4f 91bc 2dc2 8a3d 85d9 063e
000000a0: 4170 01be 4669 2a3e 6653 b53d 3aaf 213e
000000b0: 1f17 13be 2022 5a3e 3977 153e 25ba febd
000000c0: 9965 5ebe 2b5a 83bd 50c2 fd3c ed7f 1abd
000000d0: 8937 173f 4ae1 ffbd 7731 2fbe 98e7 2bbe
000000e0: f2d7 1d3e 13c9 87bd 966a dbbc 633f 21be
000000f0: 18fa 5a3d c3dc 943e 37e0 d93d 1dcd 4f3d
00000100: e846 9dbd 7208 a3be 3214 56be 0691 45be
00000110: 9cc7 3fbe f9e0 4a3e c8e1 14bd e9cf 0abe
00000120: d26e 793d 2fe6 a5be 7856 d13d bfa6 f4bd
00000130: 2859 b43d a942 d53d 9e54 e63c 2c18 f63d
00000140: 8a88 953e 0601 a73d 8058 1dbe bb8a 9ebd
00000150: d6cd ed3d 4ad6 ff3c 6510 cabd ba75 f93c
00000160: c5cb 1fbe 870a ac3b 6505 f4bc 2558 84be
00000170: 60a0 6c3d a57b 023e 02dd a5bc f948 bd3c
00000180: 2cf4 0d3e 3dc4 eb3d 0478 8d3d f4be f43c
00000190: aed8 15be 847a 3d3e 629c 6abd cab0 7c3e
000001a0: f8b0 9dbd 611f 1d3d edab 5bbe 9220 263d
000001b0: 4287 2b3e 1553 fc3d 09e4 133e 0947 36be
000001c0: 5615 073e 1716 d2bd bc03 ce3c 128b 3cbe
000001d0: e70d 88be 7807 82be 90c7 f1bc b403 47bd
000001e0: 06fe 22be 0b8e ff3c e6f4 323e e47a 663e
000001f0: 504d f03d b5b1 603d f71a 03be 7527 91bc
00000200: 89a2 323c 7869 09be 0419 e5bd 3bbe f9bd
00000210: 8afb 233d d076 ad3c 3f45 cc3d 81b6 713d
00000220: 13f1 753c 86b3 c1bc 54dd 93bd 082b 913d
00000230: 0b6c 1abe 31b9 e0bc 74cf 86bd 1403 81bc
00000240: 33f6 55be be83 6b3e cef7 03be cef2 9ebc
00000250: 2a62 03be bf9e 523e 81ca d8bd e339 9c3d
00000260: f722 a6be 425d 8bbd 702b 6c3d 761c ac3e
00000270: 0315 35be 052c 943d 51f3 963d 3bb8 993c
00000280: 7eb0 963d 1176 0a3e 8a3d 403e 7eaa 84be
00000290: 912f f93d 0b6b 0b3e 4513 223c 40ec b33e
000002a0: 5498 aebe 9aed 1d3e 240f d6bb 5825 573c
000002b0: 8552 44be 973e b23d 6491 40be b041 33be
000002c0: fc59 66bd 71c5 08be c768 5abe f527 f2bd
000002d0: 0ddc 05bd 7bed 8ebe 45a0 2d3b de80 613e
000002e0: f94c afbc 2513 6c3e 8d82 dd3d 8133 3d3e
000002f0: cad8 42be a599 d2bd ca90 bdbd 7654 dfbd
00000300: 38bd 1a3c a5c7 b63d 6c4f 123e f47c ee3d
00000310: bf4f 80be d508 d53d 5a11 ecbd b9f2 f5bd
00000320: 7078 1abe e29a 6f3e e295 fb3b 221e bf3c
00000330: 8ef0 a3ba 04c2 b73d 8cfe a93d 5451 6dbc
00000340: c8e9 5f3d b0b0 1fbe 05ed 0c3d 989b 39bd
00000350: dba3 45be bf9d 9ebd 586d 18bc 3099 233d
00000360: 5675 ce3c f719 46be 8f51 bdbd a011 7bbd
00000370: 5e95 443d 6c3e 6d3d 33e6 85bc 4c6a 8e3d
00000380: 91f7 d53d 2ffa 4ebe 0c6b 473e 9ce6 adbd
00000390: 59b0 4bbe 72a9 3cbd 31bd 20bd 7a6b abbc
000003a0: 9d67 513e f162 093e e5d6 643c b4b3 bb3d
000003b0: 44d7 663d 777c ed3d e91b 9bbe d342 39be
000003c0: 36eb eb3d 0c1a c53c c4d3 883e 4252 cfbe
000003d0: 507a a83d ddb2 5cbe 2eaa 973c bb70 523d
000003e0: 23aa 4d3c 4aee 03be c402 3e3e 69ae ddbd
000003f0: b508 653d fc1f 45be 437a a63d 9b7f eabd
-0.11498841 -0.27352422 0.03681454 -0.16619635 0.2569333 -0.049871758 0.2601007 -0.09303913
0.25080866 0.29896557 -0.07272302 -0.122560635 -0.062162478 -0.10833654 0.034943476 0.2108279
-0.010825826 0.1722711 0.03192636 -0.07617747 -0.091331296 -0.038118545 -0.072675474 0.17615062
-0.092783086 -0.26041082 0.05619068 0.053814083 0.1546057 0.097054124 0.15593465 0.03608119
-0.2510214 -0.14979847 -0.11789359 -0.37164384 0.033409398 -0.017738273 0.06775317 0.13168915
-0.12640478 0.16641721 0.088537976 0.157895 -0.14364289 0.2130208 0.14596261 -0.12437848
-0.21718444 -0.064136826 0.030976444 -0.037719656 0.59069115 -0.12494142 -0.17108713 -0.16787565
0.15414408 -0.06630149 -0.026784223 -0.15746836 0.053461164 0.29074678 0.10638469 0.05073272
-0.0767954 -0.3184238 -0.20906141 -0.19293603 -0.18728489 0.19812383 -0.036348134 -0.13555874
0.060896702 -0.3240218 0.10221571 -0.11945867 0.08806068 0.10413105 0.02811652 0.12016329
0.29205734 0.08154492 -0.15365791 -0.077413045 0.11611526 0.03123011 -0.09866408 0.030451644
-0.15605076 0.0052502784 -0.029787729 -0.258485 0.057770133 0.12742479 -0.020246986 0.023106085
0.13862675 0.11512039 0.06907657 0.02987621 -0.14633438 0.18503767 -0.057278045 0.24676815
-0.0769977 0.038360003 -0.21452303 0.040558405 0.16750816 0.12320534 0.14442457 -0.17800535
0.13191733 -0.102581196 0.025148265 -0.18412426 -0.26573107 -0.25396323 -0.029514104 -0.048587516
-0.15917215 0.031195661 0.17476234 0.22507817 0.11733496 0.054856975 -0.12803255 -0.01771901
0.010903009 -0.1341914 -0.11186412 -0.12194487 0.04003481 0.021174818 0.09974145 0.05901194
0.01501109 -0.023645174 -0.07219949 0.07088286 -0.15080278 -0.027432056 -0.06582537 -0.015748538
-0.20894699 0.22999474 -0.12887499 -0.019402888 -0.12830415 0.2056837 -0.105854996 0.076282285
-0.3244855 -0.06804897 0.057658613 0.33615464 -0.17683797 0.072349586 0.07370628 0.018764606
0.07357882 0.13521601 0.18773475 -0.25911325 0.12167276 0.13615052 0.0098922895 0.35141182
-0.34100592 0.15422669 -0.0065325666 0.013131462 -0.19172104 0.08703344 -0.18805462 -0.17505527
-0.05623816 -0.13356568 -0.21329032 -0.118240274 -0.03268056 -0.27915558 0.0026493233 0.22021815
-0.021399008 0.23054178 0.10815916 0.18476678 -0.19028011 -0.102832116 -0.09256132 -0.109047815
0.009444527 0.08924798 0.1428811 0.11644927 -0.2506084 0.10402075 -0.11526747 -0.12009186
-0.15085006 0.23398927 0.0076777795 0.023329798 -0.0012507604 0.089725524 0.08300504 -0.014484722
0.05466631 -0.15594745 0.034405727 -0.0453144 -0.19300787 -0.077449314 -0.009303413 0.039941013
0.025202435 -0.19345842 -0.09244072 -0.061296105 0.04799401 0.05792086 -0.01634512 0.06953868
0.1044761 -0.20212625 0.19474429 -0.08491251 -0.1989149 -0.046060033 -0.039242927 -0.020925272
0.20449682 0.1341665 0.0139672505 0.09165135 0.056357637 0.115960054 -0.3029473 -0.18091898
0.11519472 0.024060272 0.26724064 -0.40492445 0.08226454 -0.21552606 0.018513765 0.05137704
0.012552771 -0.12883869 0.18555743 -0.10824282 0.055916507 -0.19250482 0.08128788 -0.1145012

bias f4 [32]
00000000: 2cba 42be d691 843d 6787 18be 6448 c1bd
00000010: f93b 2e3e 0499 52be f1d3 7abc 07cd 4fbe
00000020: bcf4 adbe 9a58 9dbe c8ba b3bd 2a6d 8e3e
00000030: 9938 93be fb85 2fbd 3df1 a4bd 4c28 a4be
00000040: 8e40 f3bd b22d 373c 8185 5abd be30 fbbd
00000050: 8a4d 6abe 48aa f83c cb68 bfbe ae41 abbd
00000060: ad93 59be 19ba 18be d8b2 2abe c2d2 b03e
00000070: c2d9 a0bb 9552 6dbe 41ce 883e 1f67 f8bd
-0.19016331 0.064731285 -0.14895402 -0.094376355 0.17015065 -0.20566183 -0.01530932 -0.20293055
-0.3397578 -0.3073166 -0.0877586 0.2781766 -0.28754118 -0.042852383 -0.08053825 -0.32061994
-0.11877547 0.011180328 -0.053349975 -0.12265156 -0.22881141 0.030354634 -0.37384638 -0.08362137
-0.2124774 -0.1491474 -0.16669786 0.34535795 -0.0049087713 -0.23176034 0.2671986 -0.12129044

weight f4 [6, 32]
00000000: c6c3 a23d dd02 603c de77 15bc 3917 7f3c
00000010: 6824 a2bc 2681 733c e606 adbc c4c3 b63d
00000020: d7bb 43bc 1249 903d 034b 9c3d b864 d7bc
00000030: 0485 073e 1668 503c f17e f1bc 6174 4dbc
00000040: 044b 4ebd 55b9 82bc a669 6cbd 76b0 02bd
00000050: 61ed 3f3c 5a02 553a 0dd8 273c 062c 0ebe
00000060: a288 8a3b 8b8c e9bb 2759 e63c 3851 99bd
00000070: f61c fcbc 5317 aabc 2af9 3dbd 3a22 d5ba
00000080: bd39 50bd 54bd e03c 1fbc b1bd 96c1 783b
00000090: fbcc 9f3d 0eaf 963b b140 c33d 31af 4ebb
000000a0: 1d6e e7bd e937 b2bc fff2 8bbc 1289 633c
000000b0: 7016 de3c 155b 983d f381 7dbd 833f 29bd
000000c0: 7a8e 22bc cae7 3abd 1c30 37bd 461e a7ba
000000d0: 2f05 b03b f66e b0bc a5fb c0bd bc30 99bc
000000e0: 2e7c 253d 4c2c 9d3c b4c0 86bc 005e ca3c
000000f0: 188e 9bbd fdc8 0dbd 511d 053e bf37 723c
00000100: 1fe7 3ebe c0ed 813e 8b91 413d e940 1fbe
00000110: 9f9b a73d e947 213e 6a40 28be ef1e c33b
00000120: 6c10 8ebe 74db 4f3e 99a8 65bd c8c3 6ebe
00000130: 881d 673e 9789 863d 42ac 0bbd 7b2b 623e
00000140: fe47 933e 9f44 403e c152 9a3d 1d3e 6dbe
00000150: 0387 08be 9bd9 42be 67d9 1c3d 9d37 063c
00000160: 0baf fcbd b08b 1b3e 5923 0bbc 217f cbbd
00000170: 43a3 9a3d a6b3 41be c12e 8a3d 0970 68bd
00000180: 36ea a0bd aae8 19bd c106 7ebb 7b8f 58bd
00000190: 8b65 89bc ce15 6c3c c46b 95bc 27e7 86bd
000001a0: 8c85 3a3d 7a8c 7e3d a025 4bbd 1e39 a6bd
000001b0: 4de2 103e c2dd b03b c488 39bd 7e78 013d
000001c0: b726 a6bd f208 12bd c0cf a03d f33a 8a3d
000001d0: f42a 733d 7202 a1ba 794a febc 48e6 053e
000001e0: f3bf 7f3a f063 fc3c 871d 17bb 53cb a4bc
000001f0: 37bc bdbd 40ee c5bc 2e7d 7ebd 45f5 f4b8
00000200: 1369 daba a19d ca3c 55c8 66bd e2cd 24bd
00000210: 0333 3a3d e4f2 d2bc 5733 04bd 722f b13c
00000220: 272e 0fbe c259 003d 3891 9a3d 8548 e83c
00000230: 05fe 2ebd 8a85 903d d9df cdbc 5c04 38bc
00000240: 49b5 a0bc 3011 bfbc cf3a 6dbd 12fc 803c
00000250: 6d65 90bd dc3e a33d ccaa 9e3c fbf1 643d
00000260: 265d 203d 0d09 eb3b 1b9f 953d 54e8 053e
00000270: b769 853c 9857 62bd 6897 8fbd 1862 2bbd
00000280: 5eff 4f3e caf3 323e 7b78 58bd 9ad5 a2bc
00000290: 4d66 c4bd 2b20 60be e897 113e 00b3 a0bd
000002a0: 95fa 66be 4274 c73c 39f0 39be 62cf 7cbd
000002b0: b3db 8f3e 86d3 cd3d d60d 42be 33ef 1b3e
000002c0: 44ac 283e 17e5 713d 6642 34be d65c 173e
000002d0: d383 013c 5d9a fe3d da50 473e cc04 0fbd
000002e0: c5f1 86be 3a5b 49be 3965 f3bc c6f8 35bd
000002f0: a8de d03c e52b cfbd 318a 8cbd 1342 463e
0.07947497 0.013672558 -0.009122817 0.015569502 -0.01979275 0.014862334 -0.021121453 0.08924058
-0.01194664 0.07045187 0.07631495 -0.026293144 0.13234335 0.0127201285 -0.029479476 -0.012539954
-0.05036451 -0.015957514 -0.05771794 -0.031906568 0.01171431 0.00081256556 0.010244382 -0.13883981
0.0042277137 -0.0071273497 0.028118683 -0.07486194 -0.030775528 -0.020763075 -0.0463802 -0.0016260811
-0.050836314 0.027434029 -0.086784594 0.0037957183 0.07802769 0.004598505 0.09533823 -0.0031537528
-0.11300299 -0.021755176 -0.017083643 0.013887661 0.027110308 0.074392475 -0.061891507 -0.041320335
-0.009921664 -0.045631208 -0.044723615 -0.0012750111 0.0053717117 -0.021537285 -0.094229974 -0.018699996
0.04040163 0.019186161 -0.01644931 0.024703026 -0.075954616 -0.034615505 0.12999465 0.014783799
-0.18642853 0.253767 0.04725794 -0.15552105 0.08183979 0.15750088 -0.16430822 0.0059546153
-0.27746904 0.20298558 -0.05606899 -0.23316872 0.22569859 0.06569212 -0.034099825 0.22086899
0.28765863 0.18776177 0.07535315 -0.23168226 -0.13332753 -0.19028322 0.03829327 0.00819197
-0.12338074 0.15190005 -0.008492314 -0.09936357 0.07550671 -0.18916187 0.06747199 -0.05674747
-0.07857172 -0.0375754 -0.003876135 -0.05287121 -0.016772052 0.0144094955 -0.018239863 -0.065870576
0.045537516 0.062145688 -0.04959643 -0.08116363 0.14148827 0.0053975293 -0.045296445 0.03160905
-0.08112853 -0.035653062 0.07852125 0.06749525 0.059367135 -0.0012284054 -0.03104137 0.13076127
0.00097560807 0.030809373 -0.002305837 -0.020116484 -0.09264415 -0.024161458 -0.0621311 -0.00011680512
-0.0016663395 0.024733366 -0.056343395 -0.040235408 0.045458805 -0.025750585 -0.032275524 0.021629069
-0.1398245 0.0313356 0.075472295 0.028354893 -0.04272272 0.070567206 -0.025131153 -0.011231508
-0.019617693 -0.023323625 -0.057917412 0.015745196 -0.070505954 0.07970974 0.019368552 0.055894833
0.039151333 0.00717271 0.073057376 0.13076907 0.01628576 -0.055259317 -0.070113 -0.041841596
0.20312259 0.1747581 -0.052849274 -0.019877244 -0.09589825 -0.21887271 0.14218104 -0.078466415
-0.22556527 0.024347428 -0.18158044 -0.061721213 0.28097305 0.100501105 -0.1895059 0.15227966
0.16471964 0.059056368 -0.17603454 0.14781508 0.0079049645 0.12431786 0.19464436 -0.034916684
-0.2635633 -0.19663706 -0.029711353 -0.044426702 0.025496796 -0.10115794 -0.068622954 0.19361143

bias f4 [6]
00000000: 8ece d4be 49c1 043f e06c 3abe 5d7b 8fbe
00000010: efd0 ae3e 577a 06be
-0.4156384 0.5185743 -0.18205595 -0.28023806 0.3414378 -0.13132606
