models/policy_asm_low_torque.pt (torch, 67720 bytes, 8 tensors)

weight f4 [128, 27]
-0.5405051 -0.14419816 -0.72706306 1.3357908 1.8057362 0.4413963 0.008298619 0.27173078
0.100155175 0.36146626 1.1203353 -0.11565311 -0.16875324 -0.08854001 0.113465 1.3997815
0.17835473 -0.22054322 0.59380656 -0.0028561808 -0.12841773 -0.2714611 -0.04275324 0.09067216
-0.20641358 -0.010565826 0.028277501 0.33755994 0.16802298 1.0211785 0.70949155 -3.7875385
0.06687353 -0.032050185 -0.29990765 0.13595234 0.6683471 0.26882765 -0.19991197 -0.1770436
0.75039274 0.19168317 0.6427042 0.10280983 0.21635954 1.1764098 0.9715745 0.0034114101
-0.16117953 -0.010477313 -0.101325266 -0.2522922 -0.05875725 -0.012820431 -0.23358162 -0.07152625
-0.31915963 -1.242591 0.8152639 0.036684413 0.0032434908 0.06495162 -0.35896444 -0.50155383
-0.8757997 -0.34452114 0.59755474 0.38721484 0.38961467 -0.071774386 0.26502353 0.32082343
0.82924974 0.16575785 0.037113424 -0.051414043 0.021285605 0.064399496 0.057101127 0.1572599
0.037044663 -0.24823916 -0.3000769 0.54249436 0.27063832 0.21418329 -0.59545964 0.014000881
0.6513276 -0.1226361 -0.5463713 0.4845158 -0.46470606 0.19981758 0.04372249 -0.4246456
-1.7136879 -1.618865 -0.5033735 -1.0556203 -1.2884696 -0.18471664 0.34547937 0.060482726
-0.0013266309 -0.09391639 -0.18117164 0.0020306732 0.6895846 1.1872836 0.33688194 -0.5339886
-1.0642177 0.19190992 -0.0059587867 -0.30626312 0.5688748 -0.8095697 -0.10019369 0.21144746
-0.37309763 0.7116938 0.07452601 0.2628265 -0.56989855 0.17096712 0.11593535 -0.23948061
-0.24771693 0.19509633 -0.1494707 0.009905623 0.17812634 0.22287215 0.07937365 -0.64729774
0.2530821 0.74748445 0.38685283 1.2517991 0.50614077 0.014618819 0.6960865 -0.5289665
0.1159013 -0.535879 0.053572997 -0.25802007 -0.69167376 0.24648769 -0.1052857 -0.43290466
-0.1459856 -0.75860655 -0.81247514 0.014575213 -0.35644996 -0.14097945 -0.09388769 -0.0070145126
-0.42336348 -0.07339538 -0.6217689 -0.12543334 -0.85430324 -0.14672789 3.9559982 -1.1582179
0.0057540876 -0.20501007 0.23218434 -0.8649468 0.6593705 -0.23356299 0.12118986 -0.050871763
-0.038379297 -0.089994036 0.11167698 -0.5442996 -0.51421005 -0.49947056 -0.32783625 0.3098555
0.18936571 0.139491 0.12981443 -0.089531645 -0.005890348 0.63843405 0.27478656 0.36578622
-1.8127122 -0.9748926 0.30930987 -0.004713668 0.11864009 -0.05230863 -0.0022056825 0.5380536
0.1090981 0.17915761 0.35585442 -0.02985531 0.50269115 -0.01739484 -0.03786051 -0.40824807
-0.3722132 -0.331465 0.013028917 0.034291368 0.1060457 0.15548503 0.03406337 0.17169546
0.046762995 -0.053159423 -0.83913064 -0.4543496 3.2685595 -1.5435288 0.01987148 -0.21714382
-0.12041652 -0.16909316 -0.3479577 0.17132239 0.121814996 -0.3340915 0.015014837 0.83142596
0.9996825 -0.14161919 0.42500043 0.7695522 -0.18926848 0.13558531 -0.013997362 0.06434788
-0.34319776 -0.15239435 -0.06871923 0.14651236 0.05930399 -0.723404 -0.6772688 0.49264395
0.5767724 -0.112016626 -0.34287813 -0.17757487 -0.21147671 0.5925764 -0.16812463 0.09521036
00000000: 8b5e 0abf afa8 13be ce20 3abf 31fb aa3f
00000010: 5d22 e73f b2fe e13e eef6 073c 4c20 8b3e
00000020: 281e cd3d 1b12 b93e 2667 8f3f 8adb ecbd
00000030: a6cd 2cbe 7754 b5bd 5760 e83d 0a2c b33f
00000040: 9fa2 363e 15d6 61be b503 183f c32e 3bbb
00000050: f07f 03be f3fc 8abe 051e 2fbd 53b2 b93d
00000060: 155e 53be 491c 2dbc 38a6 e73c a8d4 ac3e
00000070: 370e 2c3e fab5 823f 3da1 353f 0867 72c0
00000080: fdf4 883d 0e47 03bd 7f8d 99be 1737 0b3e
00000090: cc18 2b3f c7a3 893e b9b5 4cbe eb4a 35be
000000a0: bd19 403f 9848 443e 4388 243f f68d d23d
000000b0: 5b8d 5d3e 9994 963f 1bb9 783f f791 5f3b
000000c0: 3f0c 25be 09a9 2bbc 9f83 cfbd 712c 81be
000000d0: 71ab 70bd c90c 52bc 0530 6fbe 5b7c 92bd
000000e0: e468 a3be 390d 9fbf 23b5 503f 6542 163d
000000f0: bf90 543b 5b05 853d 30ca b7be d565 00bf
00000100: 6934 60bf 1365 b0be 59f9 183f 0641 c63e
00000110: 937b c73e 73fe 92bd 2ab1 873e f842 a43e
00000120: b649 543f 6dbc 293e 3f04 183d 8897 52bd
00000130: 265f ae3c e2e3 833d dfe2 693d bd08 213e
00000140: 25bc 173d 6832 7ebe aea3 99be e9e0 0a3f
00000150: 1b91 8a3e dd52 5b3e 0b70 18bf f463 653c
00000160: 68bd 263f a328 fbbd fdde 0bbf 7412 f83e
00000170: f4ed edbe fb9c 4c3e 5b16 333d 266b d9be
00000180: 205a dbbf f836 cfbf 16dd 00bf 911e 87bf
00000190: 92ec a4bf 5c26 3dbe ace2 b03e bcbc 773d
000001a0: 59e2 adba 3c57 c0bd 0f85 39be 0b15 053b
000001b0: 9e88 303f e9f8 973f ca7b ac3e 7ab3 08bf
000001c0: 4938 88bf 0984 443e ed41 c3bb 85ce 9cbe
000001d0: c7a1 113f f63f 4fbf 5932 cdbd af85 583e
000001e0: a706 bfbe 9131 363f 18a1 983d 3291 863e
000001f0: dfe4 11bf 0112 2f3e 836f ed3d 683a 75be
00000200: 82a9 7dbe 55c7 473e d90e 19be 324b 223c
00000210: c066 363e 9938 643e a78e a23d 4eb5 25bf
00000220: fa93 813e 245b 3f3f 9311 c63e f43a a03f
00000230: 7192 013f c583 6f3c ba32 323f 596a 07bf
00000240: a95d ed3d 5e2f 09bf 5c6f 5b3d 351b 84be
00000250: 8811 31bf 4567 7c3e 07a0 d7bd aea5 ddbe
00000260: 407d 15be 0a34 42bf 5ffe 4fbf e0cc 6e3c
00000270: 9c80 b6be eb5c 10be 3048 c0bd ffd9 e5bb
00000280: 19c3 d8be 5150 96bd 3f2c 1fbf 9971 00be
00000290: 9eb3 5abf d63f 16be 132f 7d40 7c40 94bf
000002a0: c98c bc3b 29ee 51be bbc1 6d3e 276d 5dbf
000002b0: 81cc 283f 232b 6fbe 6432 f83d e95e 50bd
000002c0: 9c33 1dbd cb4e b8bd e7b6 e43d 3857 0bbf
000002d0: 45a3 03bf 9bba ffbe 27da a7be 61a5 9e3e
000002e0: 16e9 413e bbd6 0e3e 13ee 043e 5e5c b7bd
000002f0: d203 c1bb 6a70 233f d3b0 8c3e 5548 bb3e
00000300: f406 e8bf 9092 79bf dd5d 9e3e 1d75 9abb
00000310: 93f9 f23d 9341 56bd 368d 10bb e1bd 093f
00000320: d36e df3d 1875 373e 8d32 b63e 2093 f4bc
00000330: 5eb0 003f a07f 8ebc 9f13 1bbd e405 d1be
00000340: bb92 bebe c8b5 a9be 3d77 553c 1b75 0c3d
00000350: 7d2e d93d 7837 1f3e 0886 0b3d efd0 2f3e
00000360: 8e8a 3f3d b2bd 59bd 44d1 56bf 83a0 e8be
00000370: 1430 5140 5a92 c5bf 84c9 a23c f35a 5ebe
00000380: f09c f6bd c226 2dbe 8327 b2be 236f 2f3e
00000390: 247a f93d 0b0e abbe ca00 763c 55d8 543f
000003a0: 31eb 7f3f 9f04 11be a899 d93e 5f01 453f
000003b0: 99cf 41be e0d6 0a3e 3155 65bc d2c8 833d
000003c0: 9eb7 afbe 440d 1cbe abbc 8cbd 5607 163e
000003d0: bee8 723d 0131 39bf 7d61 2dbf d43b fc3e
000003e0: 5ba7 133f f968 e5bd b98d afbe 30d6 35be
000003f0: 5a8d 58be 16b3 173f dd28 2cbe a6fd c23d

bias f4 [128]
0.107440375 -0.24261749 0.10617423 -0.12549396 0.034618452 0.23900938 -0.32454967 0.20753215
-0.092351824 -0.6246935 0.057886712 -0.24126206 -0.16085804 -0.20657884 -0.5532015 -0.08296036
-0.0990254 -0.028584575 -0.15711252 -0.051967293 -0.18490644 -0.022050764 0.0020843586 -0.09833879
-0.26074782 0.20192376 0.008048607 0.08165363 -0.15011899 -0.10722145 0.14028035 -0.21116292
0.08336603 -0.0777946 -0.34034616 0.0836362 -0.27987978 -0.36754167 -0.15943606 -0.16708566
-0.14881957 0.109031774 -0.06394655 0.4211157 -0.42235255 -0.09154745 -0.48451853 0.16916437
-0.06403128 -0.33788583 -0.3275824 0.45246702 0.14549027 -0.18162827 -0.30197024 -0.10054214
-0.15350391 -0.14542353 0.08324064 -0.06270751 0.31025434 0.25114924 -0.16131084 0.34213066
-0.14196518 0.28769973 0.22485071 -0.29092833 -0.26961753 0.10348114 -0.17475098 -0.38075298
0.028520072 -0.16392688 -0.2677759 0.025837127 -0.19035691 -0.060789056 0.018660799 -0.1206299
-0.09941211 -0.2329689 -0.22435416 -0.1571156 -0.09075783 -0.3137533 0.114902996 -0.00063210365
0.2528322 0.0013994521 0.03361516 0.054706402 -0.28713587 -0.045339983 -0.08080286 0.29835328
-0.20940399 -0.28620428 -0.15474725 -0.031096127 -0.24323387 0.12997687 -0.23190571 -0.1299816
0.057910576 -0.26843938 0.19022204 -0.209879 0.07348903 -0.15255022 0.0064015673 0.14306732
-0.23462674 0.12130301 -0.1503385 -0.36164588 -0.19514132 0.044975907 -0.40121523 -0.14871572
-0.15919627 0.090110675 -0.35966358 -0.16549847 -0.3714639 0.2065262 0.1198613 -0.1610182
00000000: b309 dc3d b870 78be e071 d93d 7d81 00be
00000010: 14cc 0d3d e0be 743e 602b a6be 4f83 543e
00000020: f422 bdbd eaeb 1fbf 9e1a 6d3d 670d 77be
00000030: f8b7 24be 6789 53be 9d9e 0dbf 1fe7 a9bd
00000040: d4cd cabd 332a eabc 1be2 20be a8db 54bd
00000050: 1d58 3dbe cea3 b4bc bc99 083b d965 c9bd
00000060: bd80 85be 1ac5 4e3e 4ede 033c 053a a73d
00000070: cbb8 19be eb96 dbbd a7a5 0f3e 183b 58be
00000080: cfbb aa3d c652 9fbd da41 aebe 7549 ab3d
00000090: 674c 8fbe 6c2e bcbe 3543 23be 8118 2bbe
000000a0: 2864 18be 0d4c df3d 69f6 82bd 7a9c d73e
000000b0: 983e d8be 3b7d bbbd d012 f8be 6d39 2d3e
000000c0: d522 83bd 5fff acbe e1b8 a7be c2a9 e73e
000000d0: 67fb 143e c3fc 39be d89b 9abe 0ae9 cdbd
000000e0: 2130 1dbe e8e9 14be 127a aa3d cc6c 80bd
000000f0: a8d9 9e3e a296 803e ab2e 25be c02b af3e
00000100: 525f 11be 614d 933e 443f 663e 8ff4 94be
00000110: 4f0b 8abe eced d33d ecf1 32be 0ef2 c2be
00000120: eda2 e93c 73dc 27be ec19 89be 62a8 d33c
00000130: ecec 42be f2fd 78bd 88de 983c cf0c f7bd
00000140: 9498 cbbd 668f 6ebe 19bd 65be e9e2 20be
00000150: 3edf b9bd 46a4 a0be 4352 eb3d c2b3 25ba
00000160: 3973 813e d26d b73a 0db0 093d d213 603d
00000170: 7903 93be 6bb6 39bd f87b a5bd c3c1 983e
00000180: 006e 56be 5e89 92be 1076 1ebe 4ebd febc
00000190: 4d12 79be a818 053e b178 6dbe e619 05be
000001a0: a433 6d3d e370 89be 91c9 423e 85ea 56be
000001b0: 6b81 963d 2036 1cbe 3dc4 d13b 3d80 123e
000001c0: fe41 70be b66d f83d 56f2 19be a629 b9be
000001d0: 20d3 47be a838 383d 156c cdbe ef48 18be
000001e0: 5904 23be f28b b83d d325 b8be 6e78 29be
000001f0: 8430 bebe 9b7b 533e d779 f53d f4e1 24be

weight f4 [64, 128]
0.044012204 0.2892999 0.024073873 0.046338025 -0.14077921 0.05000111 -0.34338257 -0.09191441
0.18940683 0.06721692 -0.112936705 0.21283583 0.09185704 -0.10754578 0.07242072 -0.09499275
0.15892199 0.0075535136 -0.1759531 -0.03684987 -0.057424325 -0.15188365 0.19751057 0.28175038
0.09749228 0.23489048 0.14381303 -0.25863734 0.107324466 0.08894178 0.04748612 -0.12976986
-0.056934234 0.27378136 0.2533324 -0.10154298 0.10291066 0.11279608 0.080731496 -0.03890667
0.13043728 -0.28600952 -0.27723402 -0.033381246 0.07590077 -0.0073929154 -0.015474419 -0.020431146
0.3666586 0.0014611094 0.01259846 0.031035807 -0.08963135 -0.09142808 0.02048386 -0.055506364
0.059231825 0.10285004 -0.09288734 0.1909111 0.33617845 -0.24143828 0.27354735 0.119557165
0.052285884 -0.016586704 -0.040271696 0.058271915 -0.06957008 -0.012924672 -0.21742068 -0.08216617
0.033181567 -0.08194108 0.117193945 0.1592032 0.08842656 0.1959619 0.034522284 -0.09878291
-0.022635235 0.13899285 -0.4119715 0.18747725 0.14604771 -0.04960901 0.05899843 0.010963507
-0.03795471 0.07114219 -0.121192366 -0.034616638 -0.07826635 0.0980047 0.15399437 0.013832084
-0.08675089 0.1112801 0.109737836 0.19247523 0.068946205 -0.111309916 0.13742925 0.373545
-0.18648326 -0.059876446 0.21983245 0.011371278 -0.30093247 -0.14670448 0.15757374 -0.1682779
-0.13354662 0.0073300595 -0.06616293 0.048657328 -0.22649881 0.14858511 -0.025609463 -0.0022784094
-0.12558347 0.085892595 0.15524757 0.028469115 -0.018799212 0.07872398 0.115821846 0.08125232
0.035769213 0.15829092 0.2036488 -0.07088385 -0.5270125 0.095840104 -0.52809626 0.3165635
0.034210045 -0.049735315 -0.35886014 0.13427079 -0.07289733 -0.12960938 0.2048954 -0.063120626
-0.24800521 0.059126407 -0.1608357 -0.36226305 0.10628673 -0.21012294 0.2865853 -0.05955387
-0.08919126 0.14155269 0.14679593 -0.13867857 0.09081481 0.25289613 0.26141652 0.07665805
-0.03989964 0.20295824 0.07029647 -0.2303098 -0.24728628 0.18333277 0.025932139 0.31904608
-0.09662767 -0.6188414 -0.10868661 0.2038133 -0.15715805 -0.2648675 -0.065839075 0.18089285
0.18195343 -0.09159202 -0.20214859 -0.06716967 -0.07609109 -0.121967524 -0.39161777 -0.05877941
0.08932858 -0.06588136 0.13602221 -0.045285217 0.19156878 -0.30965564 -0.1857475 0.19663762
0.052571476 0.22338302 0.04112511 0.012421702 -0.14757365 0.18255258 -0.32458746 -0.14863603
-0.02387888 -0.20219906 -0.08012978 -0.106948614 -0.019823411 0.007246943 0.2688025 -0.121512525
-0.14344029 -0.09670775 -0.47061905 0.19054298 0.04740916 0.08966181 -0.23382026 -0.375664
0.01737345 0.02565236 -0.18400665 -0.29952502 -0.35467654 0.047155913 -0.06565704 0.22668602
-0.081586435 -0.0029042058 0.17100249 0.27042 -0.08930771 -0.2567896 0.17710231 0.0035350467
-0.40904087 -0.031397283 0.0030078439 -0.09372675 -0.18447132 -0.32261923 0.34721598 -0.21743943
-0.121816754 -0.032149058 -0.32192862 -0.19977453 -0.25814345 0.30066752 -0.05541863 0.14550813
-0.26071954 -0.24497987 -0.20249726 -0.1272103 -0.066830605 0.1391307 -0.0522281 -0.10109516
00000000: 2446 343d 1e1f 943e 9236 c53c f1cc 3d3d
00000010: 6d28 10be f7cd 4c3d d7cf afbe 9f3d bcbd
00000020: ddf3 413e 06a9 893d 5c4b e7bd a3f1 593e
00000030: 8b1f bc3d f640 dcbd 5051 943d 8f8b c2bd
00000040: 72bc 223e 7783 f73b 0d2d 34be e4ef 16bd
00000050: c535 6bbd 6387 1bbe 3640 4a3e 9641 903e
00000060: 08aa c73d 2187 703e b943 133e 1d6c 84be
00000070: eecc db3d 1c27 b63d ce80 423d 64e2 04be
00000080: df33 69bd 122d 8c3e c9b4 813e c4f5 cfbd
00000090: d3c2 d23d a201 e73d 8e56 a53d 9a5c 1fbd
000000a0: 5a91 053e d76f 92be 9ef1 8dbe c6ba 08bd
000000b0: dd71 9b3d 4540 f2bb 6b88 7dbc 385f a7bc
000000c0: adba bb3e b282 bf3a c569 4e3c ce3e fe3c
000000d0: a490 b7bd a53e bbbd c5cd a73c a45a 63bd
000000e0: 129d 723d 0ba3 d23d b83b bebd 337e 433e
000000f0: 951f ac3e 993b 77be 660e 8c3e 63da f43d
00000100: b929 563d d7e0 87bc eff3 24bd 88ae 6e3d
00000110: c27a 8ebd 01c2 53bc 87a3 5ebe bd46 a8bd
00000120: 65e9 073d bad0 a7bd 6103 f03d 2a06 233e
00000130: fc18 b53d 3caa 483e 3d67 0d3d b24e cabd
00000140: 876d b9bc 2454 0e3e eeed d2be 09fa 3f3e
00000150: 888d 153e d132 4bbd 56a8 713d 48a0 333c
00000160: 6676 1bbd ffb2 913d b433 f8bd 2dca 0dbd
00000170: 1c4a a0bd b0b6 c83d b3b0 1d3e f79f 623c
00000180: 73aa b1bd d2e6 e33d 3bbe e03d 3a18 453e
00000190: ab33 8d3d 74f6 e3bd 41ba 0c3e 4a41 bf3e
000001a0: 78f5 3ebe 0141 75bd c21b 613e 994e 3a3c
000001b0: d213 9abe b339 16be 035b 213e 0b51 2cbe
000001c0: 72c0 08be ff30 f03b 6e80 87bd e84c 473d
000001d0: 4eef 67be b226 183e f0ca d1bc 5e51 15bb
000001e0: f498 00be 75e8 af3d 38f9 1e3e 1038 e93c
000001f0: ce00 9abc 0a3a a13d 0134 ed3d 9e67 a63d
00000200: bd82 123d 0417 223e 5089 503e 8d2b 91bd
00000210: 4bea 06bf d147 c43d 5131 07bf 9c14 a23e
00000220: d51f 0c3d 42b7 4bbd 84bc b7be 487e 093e
00000230: 324b 95bd 52b8 04be 1ad0 513e 6345 81bd
00000240: 14f5 7dbe 882e 723d 1db2 24be 8b7a b9be
00000250: dbac d93d 782a 57be 4fbb 923e c2ee 73bd
00000260: e8a9 b6bd 30f3 103e ac51 163e c101 0ebe
00000270: 1dfd b93d 9a7b 813e 63d8 853e e5fe 9c3d
00000280: ce6d 23bd 49d4 4f3e 98f7 8f3d 55d6 6bbe
00000290: 9d38 7dbe 96bb 3b3e a36f d43c 025a a33e
000002a0: bae4 c5bd 646c 1ebf 1697 debd 6fb4 503e
000002b0: 0aee 20be b79c 87be a3d6 86bd fa3b 393e
000002c0: 0052 3a3e 9994 bbbd 0a00 4fbe 4090 89bd
000002d0: a5d5 9bbd 1cca f9bd 2082 c8be aec2 70bd
000002e0: e7f1 b63d ceec 86bd 6849 0b3e fe7c 39bd
000002f0: 9b2a 443e 2f8b 9ebe 9834 3ebe 5f5b 493e
00000300: 3055 573d 85be 643e ce72 283d 6584 4b3c
00000310: 8c1d 17be 10ef 3a3e 5430 a6be 0b34 18be
00000320: a49d c3bc 450d 4fbe 151b a4bd e007 dbbd
00000330: b564 a2bc c477 ed3b 7ba0 893e 8fdb f8bd
00000340: 03e2 12be b60e c6bd fbf4 f0be b31d 433e
00000350: 1b30 423d 9ca0 b73d 946e 6fbe 0857 c0be
00000360: c452 8e3c e624 d23c 3d6c 3cbe 585b 99be
00000370: 2a98 b5be 8f26 413d 3377 86bd 6120 683e
00000380: ca16 a7bd 7d54 3ebb 471b 2f3e 7e74 8a3e
00000390: f6e6 b6bd ed79 83be 4f5a 353e 3eac 673b
000003a0: ce6d d1be 709a 00bd 3f1f 453b cff3 bfbd
000003b0: 0de6 3cbe 592e a5be 4bc6 b13e 71a8 5ebe
000003c0: 107b f9bd bbae 03bd d4d3 a4be b291 4cbe
000003d0: 612b 84be 18f1 993e a5fe 62bd 1500 153e
000003e0: 087d 85be 01dc 7abe 715b 4fbe 6b43 02be
000003f0: 7cde 88bd 4778 0e3e 22ed 55bd fb0a cfbd

bias f4 [64]
-0.11682164 -0.19155847 0.1513926 -0.1981557 0.103621036 0.10158637 -0.03722624 -0.18461268
-0.11079053 0.080809884 -0.10622785 0.020865915 -0.06439357 -0.13800296 -0.21788901 -0.32159358
0.06774799 -0.03334373 0.06805591 0.099109225 -0.2387205 -0.14322384 -0.14734413 -0.16367835
-0.022290695 -0.094186544 -0.060035408 -0.022036076 -0.097944744 -0.14034085 -0.14687076 -0.18172148
-0.16285822 -0.22923066 -0.0396811 -0.17231482 -0.05166824 -0.07492027 0.06577637 -0.08943439
-0.0053332914 -0.06374213 0.039354965 -0.114153 -0.14739963 -0.11602249 -0.014821444 0.043569535
-0.06974084 -0.1815109 -0.13323702 -0.09443063 -0.15170449 -0.14618915 -0.0661977 -0.09252647
-0.06410704 0.05164307 -0.25325102 -0.16236742 0.10940551 -0.037625268 -0.15444677 -0.18145931
00000000: 2f40 efbd e727 44be a906 1b3e 54e9 4abe
00000010: 4437 d43d 840c d03d 8b7a 18bd 1b0b 3dbe
00000020: 25e6 e2bd a77f a53d fd8d d9bd ffee aa3c
00000030: c7e0 83bd a650 0dbe 4c1e 5fbe eaa7 a4be
00000040: 75bf 8a3d 6f93 08bd e660 8b3d c7f9 ca3d
00000050: 2673 74be 45a9 12be 61e1 16be 4c9b 27be
00000060: fa9a b6bc e0e4 c0bd b0e7 75bd 0085 b4bc
00000070: 4197 c8bd 83b5 0fbe 4a65 16be 3215 3abe
00000080: 4ec4 26be 71bb 6abe a688 22bd 4c73 30be
00000090: 14a2 53bd cc6f 99bd c3b5 863d 6129 b7bd
000000a0: e4c2 aebb 3c8b 82bd ac32 213d 0cc9 e9bd
000000b0: eeef 16be 339d edbd a4d5 72bc f875 323d
000000c0: 49d4 8ebd fedd 39be 496f 08be d964 c1bd
000000d0: 6c58 1bbe 9cb2 15be a992 87bd 857e bdbd
000000e0: 8d4a 83bd af87 533d 1eaa 81be a543 26be
000000f0: ff0f e03d f41c 1abd 4b27 1ebe 78d0 39be

weight f4 [32, 64]
0.0396577 0.051332504 0.19217424 -0.2669035 -0.0023620762 0.12379282 0.038734004 -0.06410625
0.09580953 0.024272343 -0.14412293 -0.017833132 0.10234176 -0.079789095 0.012973108 0.12636623
0.090144396 0.049002565 0.07990142 0.18187384 0.034926385 -0.12230165 0.06328851 -0.14914359
0.081265874 0.034755915 -0.10338588 0.046251602 0.042837884 0.017397786 0.17158535 0.23508567
-0.0067298044 0.031340234 0.16574673 0.14393249 -0.10024553 -0.06134018 0.076267004 0.1268402
-0.22855312 0.14876899 0.054360997 -0.047611613 -0.07868111 -0.16404684 0.2446789 -0.053891316
-0.025988774 -0.04333003 0.009712361 -0.1872251 0.20949525 -0.16013835 0.075652264 0.17346343
0.15474193 -0.012851568 0.14458022 0.18939938 -0.08010169 0.024467314 0.04812915 -0.16276349
0.024861198 0.013057587 -0.07131328 -0.2879543 -0.057154305 -0.18255572 -0.14611472 0.17234635
0.01523257 -0.11133659 0.20903383 -0.20137689 0.23029178 0.020330079 0.23591618 0.25630698
0.002899064 0.17465629 0.033571243 0.040976193 -0.069998614 -0.078736246 0.089953795 0.01435132
-0.0012553723 -0.08374512 0.06451029 0.048553288 0.13832484 0.21010429 0.0968786 0.061646953
0.025674952 0.02458817 -0.050524607 0.13307366 -0.07872524 -0.034491938 0.063927904 0.11061121
-0.13722374 0.12889913 0.081411295 0.04430593 0.083967425 0.041030906 0.09255828 -0.08979575
-0.13009375 -0.016835414 0.309904 -0.137772 0.05185412 -0.21880643 -0.102551386 0.042286906
-0.16670844 -0.064665236 0.10979497 0.2242662 -0.037367266 -0.025366616 -0.20004922 0.069159195
0.28716975 -0.043222167 0.013756672 0.08500503 0.060587797 0.029484933 0.15515375 0.23818474
-0.18241331 0.30231896 0.41710913 -0.01185057 0.18795195 0.20976861 0.16766374 0.026464932
-0.285385 -0.052150268 0.06985357 -0.08260244 -0.23173675 0.024777757 0.029574996 0.013932223
-0.08075157 0.04534232 -0.11996497 -0.049307913 0.089232236 -0.14852434 0.070478484 -0.09180253
-0.12850997 0.29716888 -0.20498607 -0.21320593 0.1883021 -0.22704594 -0.027469752 -0.2313696
-0.2245586 0.1763823 0.09624104 0.23770359 0.050191477 0.14420682 0.12322335 -0.17778808
-0.09844121 -0.1762733 0.105764575 -0.29156452 -0.02969572 -0.15650749 0.030916609 0.02694722
-0.0037839105 -0.09886033 0.23683624 0.0013304239 -0.0050764997 -0.09487058 -0.33711156 0.14297318
-0.0825481 -0.16827175 -0.06384609 0.059665255 -0.025012458 -0.23647426 -0.012346292 0.11176963
-0.2239579 0.001264735 0.05862996 -0.04001815 0.056344487 0.04013063 0.012512291 0.14011212
0.053891785 0.08637524 0.112502925 0.05910776 0.024274897 0.046482727 -0.16980259 -0.14823087
-0.0004411442 -0.11079185 -0.24191086 -0.121496364 -0.21675095 -0.078255914 0.23688085 0.036178757
-0.12442353 -0.044888325 -0.06333227 -0.108222716 0.016405027 -0.058153212 -0.23542129 -0.0134517485
0.17602448 0.092597924 0.03202703 0.0019794991 0.12685984 -0.06475804 -0.32718575 -0.33867583
-0.025531828 -0.0076800515 -0.08309794 -0.30178326 -0.23117587 0.019601425 -0.058822382 -0.024074081
-0.014614038 -0.35035488 0.26524043 -0.06933855 -0.10568288 -0.22753797 -0.19222496 -0.2321398
00000000: 1d70 223d 0842 523d 53c9 443e 93a7 88be
00000010: 10cd 1abb 1787 fd3d 8ca7 1e3d 234a 83bd
00000020: c937 c43d cbd6 c63c f694 13be ca16 92bc
00000030: 8f98 d13d 7768 a3bd 298d 543c 2666 013e
00000040: a09d b83d eab6 483d 5ba3 a33d 233d 3a3e
00000050: f80e 0f3d 4a79 fabd 689d 813d 19b9 18be
00000060: b96e a63d 385c 0e3d fabb d3bd 5272 3d3d
00000070: c776 2f3d cd85 8e3c 12b4 2f3e 4cba 703e
00000080: b185 dcbb 9e5e 003d 83b9 293e 0a63 133e
00000090: 874d cdbd d73f 7bbd e031 9c3d 66e2 013e
000000a0: d409 6abe e656 183e a3a9 5e3d 6504 43bd
000000b0: 9023 a1bd e5fb 27be 1b8d 7a3e 24bd 5cbd
000000c0: 69e6 d4bc d47a 31bd 9820 1f3c f0b7 3fbe
000000d0: ec85 563e 4ffb 23be 93ef 9a3d 66a0 313e
000000e0: ab74 1e3e 628f 52bc d60c 143e e9f1 413e
000000f0: 5b0c a4bd ad6f c83c 1223 453d 79ab 26be
00000100: b6a9 cb3c 7def 553c b20c 92bd bf6e 93be
00000110: a21a 6abd e3ef 3abe 199f 15be 907b 303e
00000120: 0792 793c 7004 e4bd f70c 563e be35 4ebe
00000130: 9cd1 6b3e 448b a63c 0394 713e ab3a 833e
00000140: 39fe 3d3b 19d9 323e 0082 093d a7d6 273d
00000150: 6f5b 8fbd 7840 a1bd b239 b83d cd21 6b3c
00000160: 4e8b a4ba 9082 abbd f91d 843d d0df 463d
00000170: 07a5 0d3e 9425 573e 4a68 c63d 8481 7c3d
00000180: 4754 d23c 216d c93c e4f2 4ebd 7644 083e
00000190: b33a a1bd 6b47 0dbd a2ec 823d 2188 e23d
000001a0: 6184 0cbe 22fe 033e f7ba a63d 237a 353d
000001b0: 1df7 ab3d 0610 283d 328f bd3d d6e6 b7bd
000001c0: 4c37 05be 6cea 89bc bdab 9e3e 1a14 0dbe
000001d0: fc64 543d cb0e 60be 7606 d2bd 0935 2d3d
000001e0: 9eb5 2abe 356f 84bd 2fdc e03d 0aa6 653e
000001f0: 6b0e 19bd a6cd cfbc b4d9 4cbe 56a3 8d3d
00000200: ea07 933e ba09 31bd aa63 613c 1e17 ae3d
00000210: e92a 783d 638a f13c a0e0 1e3e b3e6 733e
00000220: 8eca 3abe 8dc9 9a3e 548f d53e e528 42bc
00000230: 7a76 403e 95cd 563e 0bb0 2b3e fccc d83c
00000240: fc1d 92be 859b 55bd 630f 8f3d 782b a9bd
00000250: 664c 6dbe b9fa ca3c 4347 f23c fb43 643c
00000260: 1461 a5bd deb8 393d 32b0 f5bd 18f7 49bd
00000270: 64bf b63d c416 18be 0657 903d f702 bcbd
00000280: 1e98 03be 8526 983e dee7 51be a852 5abe
00000290: 44d2 403e bb7e 68be 3f08 e1bc 27ec 6cbe
000002a0: b1f2 65be 909d 343e 061a c53d 9268 733e
000002b0: 9495 4d3d f4aa 133e 865c fc3d 140e 36be
000002c0: 8c9b c9bd fd80 34be 199b d83d f247 95be
000002d0: 7044 f3bc 8043 20be d444 fd3c 6bc0 dc3c
000002e0: 7cfb 77bb 4977 cabd 3385 723e 9e61 ae3a
000002f0: c458 a6bb 824b c2bd e399 acbe 9067 123e
00000300: fa0e a9bd 6e4f 2cbe bdc1 82bd 8e63 743d
00000310: ede6 ccbc 4f26 72be 1a48 4abc 7ae7 e43d
00000320: 3855 65be 77c5 a53a f825 703d 12ea 23bd
00000330: 7ac9 663d 0460 243d 5a00 4d3c 8d79 0f3e
00000340: a2bd 5c3d 80e5 b03d ef67 e63d fb1a 723d
00000350: 26dc c63c ac64 3e3d bbe0 2dbe d5c9 17be
00000360: 5f49 e7b9 d6e6 e2bd 7bb7 77be 16d3 f8bd
00000370: f6f3 5dbe a344 a0bd e590 723e 2d30 143d
00000380: c4d1 febd d2dc 37bd 59b4 81bd dfa3 ddbd
00000390: d663 863c 1032 6ebd 4712 71be b964 5cbc
000003a0: c33f 343e fba3 bd3d c62e 033d 7cba 013b
000003b0: 8ce7 013e dd9f 84bd e484 a7be eb66 adbe
000003c0: 2028 d1bc f1a8 fbbb 412f aabd 5683 9abe
000003d0: 5eb9 6cbe 2b93 a03c bdef 70bd 0237 c5bc
000003e0: b86f 6fbc b761 b3be 98cd 873e 5f01 8ebd
000003f0: 4470 d8bd b7ff 68be 9fd6 44be 0eb6 6dbe

bias f4 [32]
-0.03890361 -0.08125605 -0.026658786 0.04859775 -0.010035716 -0.23693898 -0.18278834 -0.01973165
-0.027181612 -0.13654566 0.045936663 0.12125311 0.03796617 -0.08927864 -0.07329657 -0.13835981
0.023175122 0.12038859 0.11099178 -0.06464033 -0.030206278 0.004388007 -0.3025007 -0.09219921
-0.120206736 -0.20809017 -0.35661387 0.18699633 -0.01881324 -0.17499845 0.17101617 -0.022894947
00000000: 6459 1fbd 9269 a6bd 8763 dabc 6f0e 473d
00000010: d86c 24bc 22a0 72be de2c 3bbe 45a4 a1bc
00000020: f9ab debc a0d2 0bbe 1528 3c3d 8d53 f83d
00000030: 6a82 1b3d b8d7 b6bd 831c 96bd 32ae 0dbe
00000040: c1d9 bd3c 4b8e f63d a94f e33d 2662 84bd
00000050: 2873 f7bc 45c9 8f3b 5fe1 9abe f0d2 bcbd
00000060: f32e f6bd 9715 55be 1896 b6be f77b 3f3e
00000070: 391e 9abc cb32 33be dd1e 2f3e 2f8e bbbc

weight f4 [6, 32]
-0.009023917 -0.00920837 0.13752069 0.052617166 0.06737418 -0.0874673 0.09590253 0.19780605
0.073240824 0.13338706 0.046357132 -0.12918591 0.030621001 0.06948485 0.03286607 -0.09845714
0.0011129512 -0.1133919 -0.014369676 -0.053600214 -0.012959477 -0.037916824 0.025067871 -0.066513576
0.09666393 -0.065413766 -0.032392126 -0.061232466 -0.06906792 -0.11341835 -0.15700123 0.04015675
0.021108929 0.13205808 -0.087369844 -0.04157484 0.10941918 -0.09018156 0.04879419 0.042806137
0.036335927 -0.019481225 0.06708341 0.103019245 0.061905235 0.009436974 -0.0061442186 0.03953288
0.04215032 -0.010237955 0.044584714 0.0056212433 -0.025604038 -0.04191713 -0.1275797 -0.017806552
0.029729493 0.05283261 -0.0652641 0.19466583 -0.13631712 -0.09091927 0.0701135 0.039388474
0.004987382 0.14000556 0.16285652 0.101256415 -0.038226463 0.27281225 -0.14462468 -0.23857282
-0.4507852 0.040415317 -0.4877013 -0.046310015 -0.0452758 0.20852451 -0.42944574 0.22461402
0.3089749 -0.07221487 -0.28521535 -0.23260933 0.25268942 0.10744266 0.010032278 0.27155197
0.2539822 0.33933258 -0.39771673 -0.119437695 -0.16771373 -0.12938215 0.068775706 -0.3095905
-0.043087125 -0.07259207 0.0014073608 -0.12873656 -0.0027093126 0.04986555 -0.054423388 -0.19408658
0.03888358 0.25815073 -0.018261591 -0.10540022 0.039192304 -0.09157142 0.022305215 0.08679083
0.039864797 -0.070023395 -0.08266611 0.117121 -0.024916716 0.070685655 -0.052327067 -0.006076573
-0.025913373 0.07361843 0.029823096 -0.0015050013 -0.18589261 -0.13540784 -0.107925765 -0.041043922
0.13440247 0.008056622 -0.14291845 0.09087517 0.065252624 0.006394212 -0.0018646867 -0.057893958
0.04948071 0.05374901 0.0068662334 0.05088352 -0.16388924 -0.041936744 0.07226626 -0.021347193
0.11516149 -0.056339417 0.016618824 -0.0027386006 0.033403344 -0.10885489 0.16724005 0.047367793
-0.011138822 0.08258742 -0.009286626 0.14372441 -0.020050153 -0.11286142 -0.099242575 0.06719321
0.1284481 0.17092273 0.26863715 0.09620805 -0.06755401 -0.15178926 -0.2739691 0.18515907
-0.35601178 -0.087828636 0.35947943 -0.008620352 0.18187262 -0.20487738 -0.3714562 -0.28520274
0.20827195 -0.25983843 -0.52041405 -0.05711843 0.4766436 -0.10036389 -0.16993529 0.4432132
-0.16403006 -0.14256112 -0.49899653 -0.1730994 -0.050271567 -0.2842881 -0.18363991 0.002985216
00000000: 0dd9 13bc b4de 16bc 39d2 0c3e 1985 573d
00000010: 79fb 893d 0e22 b3bd 8c68 c43d ab8d 4a3e
00000020: 49ff 953d 9e96 083e fae0 3d3d 5049 04be
00000030: e5d8 fa3c 134e 8e3d 929e 063d e6a3 c9bd
00000040: 72e0 913a 033a e8bd ca6e 6bbc e68b 5bbd
00000050: fc53 54bc ac4e 1bbd 235b cd3c 4538 88bd
00000060: bdf7 c53d a7f7 85bd 9bad 04bd e5ce 7abd
00000070: 7b73 8dbd e147 e8bd eec4 20be 677b 243d
00000080: a2ec ac3c 3c3a 073e f6ee b2bd 614a 2abd
00000090: 2a17 e03d 1cb1 b8bd 6bdc 473d 7d55 2f3d
000000a0: fbd4 143d 1797 9fbc 0763 893d c1fb d23d
000000b0: 5890 7d3d 8a9d 1a3c 7155 c9bb 3bed 213d
000000c0: d0a5 2c3d 18bd 27bc 769e 363d 6832 b83b
000000d0: 8fbf d1bc 4cb1 2bbd 41a4 02be 0cdf 91bc
000000e0: 448b f33c 0267 583d 2fa9 85bd 7b56 473e
000000f0: b796 0bbe e233 babd ab97 8f3d cf55 213d
00000100: 316d a33b 9e5d 0f3e dcc3 263e 865f cf3d
00000110: 5a93 1cbd 0cae 8b3e 7e18 14be 6f4c 74be
00000120: 51cd e6be 888a 253d fcb3 f9be 92af 3dbd
00000130: 1e73 39bd 7387 553e 50e0 dbbe 3801 663e
00000140: f531 9e3e 64e5 93bd bf07 92be 2431 6ebe
00000150: 8260 813e e60a dc3d 6c5e 243c dc08 8b3e
00000160: f409 823e 00bd ad3e 87a1 cbbe c09b f4bd
00000170: 26bd 2bbe c17c 04be 47da 8c3d a582 9ebe
00000180: 207c 30bd 27ab 94bd 3177 b83a 84d3 03be
00000190: b98e 31bb d23f 4c3d 0feb 5ebd a2be 46be
000001a0: 6444 1f3d 552c 843e 5599 95bc 12dc d7bd
000001b0: 1c88 203d cc89 bbbd 6db9 b63c 64bf b13d
000001c0: 4549 233d 6d68 8fbd d94c a9bd 23dd ef3d
000001d0: 241e ccbc a4c3 903d e854 56bd fd1d c7bb
000001e0: 4848 d4bc 42c5 963d 914f f43c 7743 c5ba
000001f0: a25a 3ebe 5aa8 0abe 2f08 ddbd ac1d 28bd
00000200: cda0 093e ecff 033c 3759 12be c31c ba3d
00000210: 2ba3 853d 8a86 d13b 8168 f4ba 3722 6dbd
00000220: 49ac 4a3d ec27 5c3d 24fe e03b 3d6b 503d
00000230: 95d2 27be ddc5 2bbd 5500 943d 4fe0 aebc
00000240: cad9 eb3d 29c4 66bd 3324 883c 187a 33bb
00000250: f2d1 083d 50ef debd fa40 2b3e bb04 423d
00000260: 9b7f 36bc 9823 a93d ef26 18bc 7e2c 133e
00000270: 3840 a4bc e323 e7bd b13f cbbd 989c 893d
00000280: e687 033e 5e06 2f3e cf8a 893e ba08 c53d
00000290: c259 8abd a56e 1bbe ae45 8cbe 579a 3d3e
000002a0: 2d47 b6be 80df b3bd b00d b83e 603c 0dbc
000002b0: d13c 3a3e 60cb 51be 822f bebe 1806 92be
000002c0: 3e45 553e 8b09 85be db39 05bf 04f5 69bd
000002d0: a10a f43e 958b cdbd 8403 2ebe d7ec e23e
000002e0: 7ff7 27be 8bfb 11be 797c ffbe f840 31be
000002f0: 8fe9 4dbd 368e 91be 1a0c 3cbe 9da3 433b

bias f4 [6]
-0.18375728 0.14621025 0.079314925 -0.13330528 -0.0824483 0.11246151
00000000: de2a 3cbe 24b8 153e dd6f a23d 2e81 08be
00000010: a8da a8bd 3852 e63d
